data/Ridge/iterates_H1_w1_d50.npy (npy, 800128 bytes, 1 tensors)

array f8 [20, 100, 50]
0	0x3fdfc5cbf80704ba	0.49644755574633914
1	0x3fb453cf9f1ca24a	0.07940385469977077
2	0x3fbb6a50819581c2	0.10709098018333577
3	0x3facc18de93c5c54	0.05616420242420675
4	0x3fbbce2e58569842	0.10861482292838878
5	0x3fa229d905f560ef	0.03547552297340128
6	0x3fa32a6eb7980f47	0.037433109198927776
7	0xbfad55a1c2542a80	-0.057293944331907376
8	0x3f912473876025c4	0.01674061311499543
9	0x3fad4b086b88692a	0.057213080526894736
10	0xbfa71212fcf0db23	-0.04505976998955521
11	0xbfb303bd3a1a20b6	-0.07427580517299046
12	0x3fa1cad82dac6e18	0.034750705314049835
13	0x3fb5318a3e45174c	0.08278717060337931
14	0x3f8a1a0c73623cf6	0.012744996329529173
15	0xbfa6ae2a7bb220f5	-0.04429753074606594
16	0xbf99b620ff9816f5	-0.025108829117036675
17	0x3f8ac1023deaf5fe	0.013063447489339627
18	0x3fb25c643795ca2e	0.07172228200014594
19	0x3f802c2ac50952ce	0.007896741998743375
20	0xbf9f175b46c69160	-0.030362535662463386
21	0x3fa74e4dd70e7b7a	0.04551928758814135
22	0x3f673e5f454c7120	0.0028373585468114554
23	0xbf89abc54f7bbbda	-0.012534657943858041
24	0x3f900be82165d311	0.015670420683323864
25	0x3f9016e0182480ea	0.015712262605234985
26	0xbf6eac38bd37e1fc	-0.003744231051083567
27	0x3f9c55f9f8940e43	0.02767172412587927
28	0xbf79b0e785845442	-0.00627222478967321
29	0xbfa52011928390b9	-0.04126028932094656
30	0xbf8416318d037868	-0.00980795585240575
31	0x3f75076819f7b04a	0.005134016653283233
32	0xbf8fdba56effa4f4	-0.015555660676869178
33	0x3f71734c39095648	0.004260347123439319
34	0xbf94dd727c9ccc21	-0.020376004081480773
35	0x3f85556762450277	0.010416801153611417
36	0x3f9628954dbbfe02	0.021639187688377255
37	0x3f87245dcab2e746	0.01129983210408948
38	0x3f9939b3cce9fbe6	0.024634179479558947
39	0x3f862f40661b4354	0.010832312694590542
40	0x3f91be8955b408a5	0.017328401428138424
41	0x3fa2e856679044ba	0.03692884458735919
42	0xbf9eab14e9280a5b	-0.02994949982713489
43	0x3f9f7846a66db082	0.030732253940570782
44	0xbf6cdb8472ca3f44	-0.00352264279201356
45	0x3fa06c49be8a3db0	0.03207617236068516
46	0xbf7f4e30899370e8	-0.007642926787607453
47	0xbf7b25ce77a8339e	-0.006627851975747582
48	0x3fa11fb491b23df2	0.033445017609775265
49	0xbf946363de1e2a26	-0.019910393173214434
50	0x3fe2c90c2504d158	0.5870419238113227
51	0x3fb93c9fc1cc8dca	0.09858129960462417
52	0x3fc10348738856f2	0.13291268960227104
53	0x3fa9e97f5623a896	0.05060956884865779
54	0x3fbd90bda27f2960	0.11548981873707964
55	0x3f985ed568d780a8	0.023799261592899384
56	0x3f9db99349b22a73	0.029028226254505584
57	0xbfb3e0a64259be2a	-0.07764662856947582
58	0xbf8c0baedd998d63	-0.013694158685388208
59	0x3fbd9f307db285bd	0.11571028775008237
60	0xbf9a1eabfe148674	-0.025507628805945662
61	0xbfb06e35262e35ce	-0.06418163473264046
62	0x3f960c3f0d51996f	0.02153109091559585
63	0x3fb1d446b43834b7	0.06964532756701912
64	0x3f9c6f59c466a171	0.02776851903186767
65	0xbfac917f89871f23	-0.05579756311231978
66	0xbf832225414e7fb0	-0.009342471175670969
67	0x3f93bdc7fef1f737	0.0192786454540432
68	0x3fb5289e5f6cd828	0.08265104131427903
69	0xbf6760d8634296b0	-0.0028537966082521
70	0x3f850fbbed99f9d2	0.01028391665317666
71	0x3fb342a3f785d0c0	0.0752356032660968
72	0xbf984df868a0bc04	-0.023734933267572714
73	0xbf9359a7eb646a46	-0.01889669775219207
74	0x3f9b3e29f390aac1	0.02660432385543277
75	0xbf72aa8717d14d86	-0.004557159144570893
76	0xbf91e4bc16f56a0f	-0.017474116231236233
77	0x3f92c48eb24b1766	0.018327932006989477
78	0x3f31267f218e4800	0.0002616939905745186
79	0xbfa37c6fbd7b040f	-0.03805875003809699
80	0xbf92f253f3712ded	-0.018502532704855957
81	0x3f9de64c209ce20a	0.029198827257660688
82	0xbf8784979356eac0	-0.01148336809534578
83	0xbf8fb72913e1d824	-0.015486069602257464
84	0xbf96f120a8b0efec	-0.022404203697291722
85	0x3f8cdcc69526da31	0.014092971255064675
86	0x3f7f277c8b4f8d2a	0.007606016636575045
87	0x3f7140ff17c39c38	0.004212376076089312
88	0x3f91ae0685b6c4dd	0.017265417014361673
89	0x3f84af60bda58fac	0.01010013178592558
90	0x3f967c0da6e83cf5	0.021957600891309565
91	0x3fa69bf5a4424bc0	0.0441586268435894
92	0x3f88588eff85c26a	0.011887662098815716
93	0x3f9adaffef2337b6	0.0262260427196492
94	0x3f9213988844faaa	0.01765287715647427
95	0x3f9b2eee1e2dba95	0.026546211807210247
96	0xbf975a2b0c2d47f3	-0.022804901712625236
97	0xbf6de20df8dc4f99	-0.0036478302853399478
98	0x3f9c74b4ea2d5320	0.02778895072272569
99	0xbfa204724bc22528	-0.03519017386231332
100	0x3fe6dc7fb60c724e	0.7144163661610692
101	0x3fbcb5aa00d72fc6	0.1121469738056354
102	0x3fc225dc5b1a7aa3	0.14178041885766843
103	0x3fbcb48d7267c452	0.11213001292323213
104	0x3fb72957c31f200c	0.09047459138594166
105	0x3f9bf80e5dc68af6	0.02731344649658759
106	0x3f9001e45b162c16	0.015632217463956342
107	0xbfb78a34fa0b28f4	-0.09195262054996417
108	0x3f7bff1f6055e2dc	0.0068351007115487715
109	0x3fbc09abc6aa4325	0.10952256775113918
110	0xbfa8d65bc578ef62	-0.04851042542983809
111	0xbf8c0c0886b33792	-0.013694826708526429
112	0xbf7ad90f0174acb8	-0.006554659477198736
113	0x3fa95dd82900c586	0.04954410076642106
114	0x3f8c9a42061ccf42	0.013966098605670777
115	0xbfa6efcb06c9f3e8	-0.044798225954742865
116	0x3f9819a5951881c9	0.023535334801751327
117	0x3fa476142023e486	0.03996336834274765
118	0x3fb8faf88b5624e8	0.09757951165933643
119	0xbf8be6d018daee44	-0.013623834379692508
120	0x3fa2ae2ec7e19f82	0.036485158824517874
121	0x3fa54763e40e522d	0.041560288990840945
122	0xbfa439d6dcb6807e	-0.039503778879635285
123	0xbfa1ef9b54c15572	-0.035031179519743896
124	0x3fa4f870fd550af8	0.04095795719560685
125	0xbf983dbcea2784cf	-0.023673011581085753
126	0xbfac4d5d07d21926	-0.055277735905337175
127	0x3f899a178cd30588	0.012500938401333497
128	0x3f8e9c940540a92c	0.014947086725517332
129	0xbfa6d33eb7f26a48	-0.044580421404323334
130	0xbf9916ced4eba4e2	-0.024501067872653055
131	0xbf36e1b954a43b50	-0.000349147555099562
132	0xbf8480d5ef89a604	-0.010011359570131446
133	0xbf917670bd9ca6db	-0.017053376744263864
134	0x3f9086d7ed18c098	0.01613938698409409
135	0x3f9b37b58bc14527	0.026579701094594867
136	0xbfa3c7af0e186ef8	-0.03863284155906216
137	0xbf4d7e4157a73098	-0.0009000605635321067
138	0xbf8519555ff84b12	-0.010302226058262618
139	0xbf8686069d724e4e	-0.010997821502576912
140	0x3fa6abf84a29f6fb	0.04428077607461308
141	0x3faa036a4a2612ae	0.05080730586181424
142	0x3f96eeb5674c8a10	0.022394976072186934
143	0x3f9925907116801e	0.024557358648621734
144	0x3fa2b862b174ab9c	0.03656299987991149
145	0x3f9d68ab6b6ac582	0.028719595366685897
146	0xbf9ebff86160bd97	-0.03002918333384982
147	0xbf8131662dd7d43e	-0.008395002626437994
148	0x3fae95aa4f285792	0.05973560539511803
149	0xbfacb68b0e5a4a36	-0.05608019399837298
150	0x3fe7ea5721833ec5	0.7473560003799881
151	0x3fc2fa86ba8b92a7	0.1482704554429308
152	0x3fbefb9656a2e4dc	0.12102641692299038
153	0x3fc3067bc56be19e	0.14863536014287332
154	0x3fb8d5f38adbb401	0.09701463832944059
155	0x3fa915c764b8d18c	0.04899428467288933
156	0x3f98e338753a63da	0.024304277567896417
157	0xbfb5b5974d3fd31c	-0.08480210910768132
158	0x3fa9e30b13ec0d91	0.0505603277033756
159	0x3fba77bc6cb0748e	0.10338952687784994
160	0xbf825dc67ce332da	-0.008967924772514225
161	0xbfa03ae893babb35	-0.03169943621957431
162	0x3f836a05bbdfed04	0.009479565425854826
163	0x3fa75d2b59ce0db1	0.04563270064593484
164	0x3f9557a7007f499c	0.020842179684970583
165	0xbf9e4991eae1d0e3	-0.029577522240700992
166	0x3f9aef9f085e1c86	0.026304707418173943
167	0x3fa46d91a61be8b2	0.03989844467828742
168	0x3fb7fead460817ee	0.09372981033092717
169	0xbfa16a4f060316bb	-0.03401419590367768
170	0x3fa9c908e399699c	0.05036189821540235
171	0x3f9d139fc3b7caf0	0.028395172424960202
172	0xbfa39a6579c36012	-0.03828732596747399
173	0xbfa42abd66c172ba	-0.039388579171576635
174	0x3fa62b81c6b149fd	0.043300681595287195
175	0xbf9255ccee316175	-0.017905427969112837
176	0xbfa981898bc7f108	-0.04981641608535098
177	0x3f910420579e96c0	0.016617303226346136
178	0x3f8e0734fe7550cd	0.014662183776330906
179	0xbfa6273f994d80f9	-0.04326819177981806
180	0xbf8c497c743c732a	-0.013812038705106017
181	0x3f65680fd990bc1c	0.0026130971496267762
182	0x3f7649dda923a1c4	0.005441537725552729
183	0xbf8b8d32e1c58d30	-0.013452909007077268
184	0x3f9070845ce0a9e4	0.01605421845321499
185	0x3f88b63e5f0c3cf8	0.012066352153424095
186	0xbfa87a09d27fedae	-0.04780607885910669
187	0xbf8a6e776862bde0	-0.012906010506724408
188	0xbf71308d7398f834	-0.004196693940285146
189	0x3f82060e8ba1ab58	0.008800614963737338
190	0x3fad7705ece85cd6	0.057548699540512935
191	0x3fac77e2fe03be66	0.05560216284527257
192	0x3f9498e05b461ad9	0.020114427157319568
193	0x3f9dc652022875eb	0.029076844579426647
194	0x3fa34deeb24c997a	0.037703952088395234
195	0x3f956c23b99a7fe8	0.020920332148875703
196	0xbf94868cf0158d7c	-0.02004451957090002
197	0xbf92768957caad66	-0.018030305846577298
198	0x3fb067c29b48b892	0.06408325472941304
199	0xbfac3e930f8bf872	-0.05516490521220953
200	0x3fe77364aada844a	0.7328360878929143
201	0x3fc50c96c0b9ad0c	0.1644466820756424
202	0x3fbc4327db052905	0.1103997144429379
203	0x3fc1535384755eee	0.13535541503619392
204	0x3fbbca9396cd2b78	0.10855982238460438
205	0x3faad0db1fdaf63d	0.05237469447955021
206	0x3f81f097f07484a4	0.008759676957711023
207	0xbfb1ef19ed49c82f	-0.07005464595002374
208	0x3fab0375d0b1836a	0.05276077435042377
209	0x3fb9ac320af49ec3	0.10028374450177595
210	0xbf906a4047255f5e	-0.01603031572571411
211	0xbfa4cba3f8b717dc	-0.040616153822653905
212	0x3f89a0fe573be067	0.012514102017562046
213	0x3fa231c73762991c	0.03553602744186632
214	0x3f7f5153aaef4cfc	0.0076459186811519385
215	0xbfad84f9a4210722	-0.05765514496353165
216	0x3faafb7d3fcaa0ac	0.05269996074395186
217	0x3f9589ffe1faafce	0.021034238975218326
218	0x3fb6faf8bd839800	0.08976702334220477
219	0xbfa80b357dbf85ee	-0.04696051750194018
220	0x3fa8d13d08851740	0.04847136239054217
221	0x3f9f42e74f078174	0.030528654287878834
222	0xbf9bc6c3fb69419a	-0.02712541791908194
223	0xbfa852adda033580	-0.04750579153333501
224	0x3fa46e9798dbb984	0.03990625134416617
225	0xbfa102d0688f9bc6	-0.03322459484461819
226	0xbfa5f6bc9c11dc9f	-0.0428980770602092
227	0x3f9131906e7700ec	0.016790634863128526
228	0x3f8194a8b32d24e4	0.008584325759914475
229	0xbfa014e6b7e84c3b	-0.03140946383441486
230	0xbf8e22b9c796d80c	-0.014714671519737287
231	0x3f7e332b4cb3cc3a	0.007373017443785429
232	0x3f8748a878a5f80f	0.011369053060430926
233	0xbf8f1dc1244e3132	-0.015193470879034086
234	0x3f96fa86b86141c4	0.022440056804329492
235	0x3f8924cb78ef6c99	0.012277211788321462
236	0xbfaaa063dd9121ce	-0.05200492934870092
237	0xbf8f16b2a7fb2047	-0.015180011512157544
238	0x3f72bb183e1e52a8	0.004572958658077532
239	0x3f9ba0710ded5d70	0.026979223704385047
240	0x3fa6a9b1d9b056e6	0.044263418029158605
241	0x3fae4ab8e8ac63a1	0.05916383590938002
242	0x3fa1d2c600775f2a	0.034811198765679244
243	0x3fa23b12772fced6	0.035606934594310566
244	0x3fa1e472ccccf0ac	0.03494604825979883
245	0x3f97d530996ece4b	0.02327419220428188
246	0xbf9b79bd33871d72	-0.026831585187918568
247	0xbf9316eff61c9cd1	-0.018642186542959408
248	0x3fa9665454f8f90c	0.04960883652937484
249	0xbfac0f4acdf1587c	-0.054804170264717705
250	0x3fe818fd7af798c3	0.7530505563452369
251	0x3fc4ce5eb81cf890	0.16254791250134248
252	0x3fc0cb08ecc14126	0.13119613228128307
253	0x3fc143ac29bf3c80	0.13487770117214737
254	0x3fbc895b06887c52	0.11147087964535388
255	0xbf69674f37ac0918	-0.0031010195938289235
