data/Ridge/iterates_H2_w1_d50.npy (npy, 800128 bytes, 1 tensors)

array f8 [20, 100, 50]
0.9051811015623739 0.18915045197328645 0.009751690201715527 0.04841846438697356 0.37972141502611756 0.33065266955677247 -0.0762475340736777 -0.3346393223888374
0.24685311111008015 0.23313411403086254 -0.2323179485691696 -0.3382468961939194 0.04769985635973751 0.3434541809527662 0.12642504590869866 -0.151197433844656
-0.24101622207293144 0.06608578593186473 0.30317775766906613 0.057645344140043776 -0.08201573449794561 0.19762382105732285 -0.013353194354479712 -0.12985517965721327
0.07423622941324011 -0.0371003959827327 -0.07182107101720137 0.04725148495241267 0.01953437371629131 -0.11498064540152239 -0.009148306622896563 -0.014759188107914678
-0.04886898219468192 -0.02255891108979826 -0.026192220096085402 0.06502090867322453 -0.0010768558972052956 -0.02524672718384102 0.07093104151412571 0.035318840967281113
0.07682537397671023 0.07274896744417644 -0.04876789686716641 0.061843403804055744 0.03189425429158334 0.05428123424305907 -0.07363123893770908 -0.005843776075952411
0.0916413872890396 -0.056570731590683876 0.9854545410424784 0.20013518349090512 0.08708809931951142 -0.004655188549925207 0.3776691868448666 0.28120746114642337
-0.09267495928930063 -0.3372894369553876 0.10328054512603924 0.4181642934541018 -0.13883649120715907 -0.22111535708371138 -0.004618846285928638 0.22327813213955633
0.15448770675514273 -0.16461637556663294 -0.15216330485866575 0.08023563111245614 0.2647898808760633 0.005930814306289348 0.05123017504842669 0.23558708117898708
-0.0883240439773452 -0.12082667941774818 0.10552782147661402 -0.07800377409139214 -0.08687158958231793 0.0015543923875317202 0.040673086894288675 -0.10011048551620458
-0.027348733906602828 0.03980853405834767 -0.029433654721215452 -0.058243712743307446 -0.03259066274292969 0.05626185155801165 -0.021907128049376865 -0.036786081604444944
0.03628654206514997 0.023136410298052495 0.06966110728323649 0.07601386008651861 0.04369219866869303 0.05325893832344558 0.07138294995952657 0.031360220298079625
-0.08934067182574343 -0.0019314535067710614 0.061938800149300866 -0.07409984738350273 1.0708574696706321 0.24620916496623899 0.1153976904753309 0.11981488543691422
0.21566555947680358 0.281208943950904 -0.10976859857170826 -0.3731116945736548 0.10718033740750374 0.3409396475767979 -0.23315890914590298 -0.06474139876506393
-0.10638113760294371 0.1730504701910337 0.09945340869947707 -0.11595423067294837 -0.0067784878297498935 0.09264806729523818 0.2598602072566868 -0.008326598290653782
0.09825430678137251 0.14180382171737999 -0.11843113642360414 -0.14404932560542835 0.10287377353779933 -0.11179563536873459 -0.13563598814901232 0.001017508766785787
0.0450394001005951 -0.08913852614281688 -0.04120242365854715 -0.021852844292729438 -0.03236066811728527 -0.03714927366904285 0.03851907772831494 0.06653184020895361
-0.09104080642221317 -0.039277148527813284 -0.010227109387533117 -0.009943345921296958 0.0818422100441374 0.07489103941306129 0.05389760096868878 0.056976141069729855
0.09854225700536526 0.025496174140311006 -0.09980111359453848 -0.008795019596821758 0.09009234832008241 -0.0878929445477831 1.0644348080717003 0.2786548528410028
0.06555290373794272 0.16775832674198723 0.168170295000802 0.31545488482924244 -0.035411098895845025 -0.31036758236048784 0.21723100022755282 0.323328569652875
-0.09305330283860319 -0.12628593312242636 -0.014136436747743534 0.15327635219041008 0.08656168273363077 -0.08286239120043562 0.016422931484482158 0.08362122084251372
0.23895730704731324 -0.06135703058493231 0.1002748741938434 0.08903280303332659 -0.08202956947595748 -0.13347090000503756 0.0809770514627733 -0.10238511160704519
-0.09680224652690533 0.009183122203904492 0.04690631352615138 -0.07591110445196897 -0.019446796122103534 -0.0068249561645821665 -0.002301784788418608 -0.028454234522689744
0.035392905149963454 0.03834335503509878 -0.10131113788863887 -0.0518780116949776 0.004826084018819153 0.012489018650678937 0.07994620045078013 0.0812533047851977
0.041964827305937834 0.05086034541603097 0.08667211249633575 0.02247938318493185 -0.07492273559036025 -0.02300657620784547 0.08281402956768352 -0.07661442270885516
1.0142604555402672 0.2746640407437093 0.050415314257429726 0.11222554953965853 0.21568352512093658 0.2636709873212536 -0.07059423044155212 -0.2600602360531338
0.16970088774670428 0.2963859553400135 -0.09414765298444164 -0.13438563326044534 -0.0030314544579818203 0.09683450427222924 0.020907372578653806 -0.16416564446692358
0.0885497609095466 0.022061104596864455 0.2094979355621574 -0.08076959311831419 0.07561464370812722 0.07248358990807574 -0.04614460378540256 -0.1403792157430942
0.05872897417124853 -0.12140951845260156 -0.07325913390106066 0.017704065465315926 0.027167745263472324 -0.048014881206239056 -0.01645647806577404 0.0011776422618175197
0.017087406750579796 -0.02643826203128607 0.04944693743098032 0.032878632332488396 -0.08771461097084034 -0.04123719906695786 0.01951125731032042 0.0357442851671134
0.04482288940674971 0.07941319165371229 0.05733056252283964 0.060374570265447826 0.06795228406497877 0.024096601071172893 -0.07143074364035835 -0.02211486259395629
0.04932762787178372 -0.06952973064824308 0.9929066850606607 0.2385033509816302 0.08015803965921174 0.1253452960399802 0.23737587478469224 0.003387661666768003
00000000: 645d 855b 3ef7 ec3f 6edb 9ffe 1436 c83f
00000010: 480b fab3 b1f8 833f 3812 2112 4eca a83f
00000020: 7231 c80c 5b4d d83f 3136 85d0 6929 d53f
00000030: 6141 3f59 f584 b3bf ee66 670c bb6a d5bf
00000040: 651b 91fb e198 cf3f 3a18 acb1 56d7 cd3f
00000050: 326f b033 98bc cdbf c916 484f d6a5 d5bf
00000060: 818d 2d96 1d6c a83f 5376 b73e 27fb d53f
00000070: 495d c926 b22e c03f c00b cd00 705a c3bf
00000080: 56ea cd9b 9ed9 cebf 06cd 4e81 ffea b03f
00000090: 530c 84ae 4367 d33f 2541 b2c7 b083 ad3f
000000a0: 9614 6db1 fbfe b4bf 6606 2dc4 bc4b c93f
000000b0: 52a0 6568 eb58 8bbf 1406 ec32 189f c0bf
000000c0: ad1a 8241 2501 b33f 9b37 d4b6 d2fe a2bf
000000d0: 20bd 2e9f dd62 b2bf 8ab8 1dbd 5831 a83f
000000e0: 6489 09a1 d100 943f b629 ac1f 5f6f bdbf
000000f0: 00ae 12ee 58bc 82bf cd7b e9b1 103a 8ebf
00000100: 1d43 a1f0 5a05 a9bf e6ca 74e5 ae19 97bf
00000110: 0fa8 e322 22d2 9abf 91c5 4ed4 35a5 b03f
00000120: f6a5 1a37 a9a4 51bf bfaf 572e 47da 99bf
00000130: 1c0b 9367 8928 b23f a131 c6a5 4f15 a23f
00000140: f3a1 bbe4 d3aa b33f d691 fd23 ad9f b23f
00000150: ae42 4714 1bf8 a8bf 929c 9f49 f0a9 af3f
00000160: 52ae 3996 7154 a03f 6e8d b8fb bfca ab3f
00000170: 6990 3333 7fd9 b2bf e60f 1ab2 a4ef 77bf
00000180: a1d2 5d59 cf75 b73f 0881 2fc4 d6f6 acbf
00000190: ba1b 2ff6 d788 ef3f b1aa ef99 079e c93f
000001a0: c6b6 72da 674b b63f 901e 42a9 5111 73bf
000001b0: ce28 8d61 bb2b d83f 0ef7 4094 4dff d13f
000001c0: e340 4ecf 8bb9 b7bf 009e 406f 2696 d5bf
000001d0: c01f a103 9870 ba3f 4e61 2f2b 34c3 da3f
000001e0: 26f2 9ce6 64c5 c1bf 06b1 a80d 824d ccbf
000001f0: d09d e41b 36eb 72bf 32c6 b9b9 6094 cc3f
00000200: 3add 12d0 40c6 c33f 4eed b83e 2612 c5bf
00000210: b276 0251 167a c3bf 6117 9a83 528a b43f
00000220: d329 ab41 51f2 d03f 5020 bfd7 e84a 783f
00000230: 777d cd6c d73a aa3f 680d 83ac b727 ce3f
00000240: 324a 5590 679c b6bf 9160 954c 7fee bebf
00000250: 3268 0f0e df03 bb3f e0e5 af2a 0ef8 b3bf
00000260: 9b24 356c 373d b6bf 90ed 0d1e 9877 593f
00000270: c9a0 1354 1ad3 a43f 265e 473d d7a0 b9bf
00000280: d60b dd76 4e01 9cbf 88bd c3bf c861 a43f
00000290: 70ae b721 db23 9ebf 3439 dcb2 1ed2 adbf
000002a0: f58d 452d b9af a0bf 6e7b e878 5ace ac3f
000002b0: d9de 157a d26e 96bf ddce e012 a0d5 a2bf
000002c0: a7d4 e84e 2694 a23f 08d2 4e36 12b1 973f
000002d0: 80ab 9571 4fd5 b13f e443 1df3 a475 b33f
000002e0: 74a7 bee8 d25e a63f 3844 a36c c144 ab3f
000002f0: aa73 912b 2746 b23f 02b6 2661 720e a03f
00000300: 7eb9 b1bf 07df b6bf 5c06 4d69 1aa5 5fbf
00000310: e04c fd41 71b6 af3f 9896 2625 35f8 b2bf
00000320: 539a 2e71 3b22 f13f 17b3 c02b c883 cf3f
00000330: 411f a0fa b38a bd3f 5989 8636 30ac be3f
00000340: f1c7 69d6 ed9a cb3f 3828 67cc 53ff d13f
00000350: ee44 fe7c cb19 bcbf 38bc 7cdf 0fe1 d7bf
00000360: 5e81 f0ab 2b70 bb3f 9d22 1087 f4d1 d53f
00000370: 80be c6b0 26d8 cdbf aaab 646e e492 b0bf
00000380: ac79 ea52 cb3b bbbf a492 038f 8426 c63f
00000390: a908 d751 c775 b93f 2dba 922c 2daf bdbf
000003a0: 10c5 b878 c2c3 7bbf 7516 12a3 c8b7 b73f
000003b0: 8ac0 ecb4 8ca1 d03f 1726 c31a 890d 81bf
000003c0: 7a30 51ba 3127 b93f c6aa 5cac a026 c23f
000003d0: 807a c4c1 8051 bebf d33a 3e53 3570 c2bf
000003e0: 5e01 f684 ef55 ba3f 8f87 be85 a39e bcbf
000003f0: 075d a122 855c c1bf bc7a 1cb8 bdab 503f
00000400: d951 ed7c 670f a73f 95d7 984e c8d1 b6bf
00000410: 4840 42ec 7b18 a5bf 7156 3f8e 9760 96bf
00000420: 471c 7bd6 9391 a0bf 3f17 f5c6 3a05 a3bf
00000430: cbfa 3ac6 c5b8 a33f 4e14 d70d 3b08 b13f
00000440: cb53 2f46 734e b7bf 716e d068 221c a4bf
00000450: b909 d162 f3f1 84bf 76b8 5b4c 2d5d 84bf
00000460: 316a 926f 9cf3 b43f 3fe4 0a25 0f2c b33f
00000470: cf9b fc62 7798 ab3f 86f2 170d fa2b ad3f
00000480: aab0 1cbb 103a b93f 7b4b 6c48 ab1b 9a3f
00000490: 4130 fed6 908c b9bf 57c9 498c 1f03 82bf
000004a0: 8193 a7c9 4a10 b73f 3ac2 61ea 2680 b6bf
000004b0: 9745 16cb ec07 f13f 22b9 f429 7bd5 d13f
000004c0: 4d59 b639 13c8 b03f bd87 7ed7 1a79 c53f
000004d0: 72f3 97ae 9a86 c53f 6c1f 6daf 6930 d43f
000004e0: 6e9d 584f 6721 a2bf 3b85 fefd 0fdd d3bf
000004f0: 78cd d3b4 39ce cb3f 2d61 2150 6ab1 d43f
00000500: 7401 7a5c 57d2 b7bf 3653 5a30 232a c0bf
00000510: 2fb6 1b6c 90f3 8cbf fe38 f43b 8f9e c33f
00000520: ea7b 6d0c e828 b63f e233 463c 7836 b5bf
00000530: 426d 8546 2cd1 903f 2c2b c548 3368 b53f
00000540: c947 742d 2796 ce3f a9e1 7b4f 306a afbf
00000550: 08e8 4539 9dab b93f 06a2 4c91 daca b63f
00000560: 4546 34ce e3ff b4bf 1fa2 3e0f 9315 c1bf
00000570: b555 c27b e9ba b43f f616 f321 e935 babf
00000580: dc2b 0333 08c8 b8bf 00d9 53cc 99ce 823f
00000590: 6038 24b5 1a04 a83f 2442 06ff e86e b3bf
000005a0: dff7 6c65 dce9 93bf 3750 6038 7cf4 7bbf
000005b0: 3d22 704c 31db 62bf 8fa6 d45a 1b23 9dbf
000005c0: d750 42d4 041f a23f b011 ca7f bda1 a33f
000005d0: afc6 f3d7 86ef b9bf eb0d 3937 c18f aabf
000005e0: a50c 7510 84c4 733f 6b76 4fb5 d793 893f
000005f0: c624 60ac 5a77 b43f 5b8d be3e 04cd b43f
00000600: 1bfb b8f1 697c a53f 7942 7300 5e0a aa3f
00000610: 76a1 a5c0 2430 b63f 6b42 74de d504 973f
00000620: 4a63 16eb 222e b3bf f25c 9f31 098f 97bf
00000630: 4ca7 a4dc 4c33 b53f 5cbb efb7 009d b3bf
00000640: 81be e22b 693a f03f 9069 187c 1894 d13f
00000650: df0c e83b 09d0 a93f f567 0c49 d0ba bc3f
00000660: e817 578b 849b cb3f 62b9 dc46 fcdf d03f
00000670: 9162 08a7 7612 b2bf e2a5 35b0 d3a4 d0bf
00000680: 9eb4 7c39 c2b8 c53f f575 4bcc fcf7 d23f
00000690: a236 9082 0f1a b8bf 4ef3 f365 8c33 c1bf
000006a0: 1cfb 33b8 6bd5 68bf a53d f964 25ca b83f
000006b0: 5ae6 e105 be68 953f 935c 0e3d 6103 c5bf
000006c0: c9d4 2c77 32ab b63f 1357 07ab 2f97 963f
000006d0: 62d4 e80e d4d0 ca3f a652 f4e8 50ad b4bf
000006e0: a939 d335 7b5b b33f 5ce0 26d8 488e b23f
000006f0: 4555 4af8 43a0 a7bf cccd 5336 f2f7 c1bf
00000700: cc49 c95e b911 ae3f fc51 2db7 b114 bfbf
00000710: e103 3d50 1cc1 b2bf eb16 b8b8 0321 923f
00000720: a193 a685 dcd1 9b3f 1b16 0111 6895 a8bf
00000730: ad3c 668c f7d9 90bf 85a4 0ec0 634b 533f
00000740: d133 ab74 5c7f 913f df59 26bb a112 9bbf
00000750: e68c 4ee6 1b51 a93f c9e2 35d5 77d5 a03f
00000760: 8949 80f9 7674 b6bf 4c11 beca 0a1d a5bf
00000770: 3ae8 3450 c2fa 933f 9590 9f2f 134d a23f
00000780: 5e7a 3a98 06f3 a63f 870f 0645 6c54 b43f
00000790: 319a 3176 6e5a ad3f 95ad 9969 6ae9 ae3f
000007a0: c861 bf25 5265 b13f 6f89 2e86 c7ac 983f
000007b0: b542 dd03 4949 b2bf d1e4 624e 47a5 96bf
000007c0: 7544 ff88 7841 a93f 68e0 3b4f b3cc b1bf
000007d0: 0417 8a3d e4c5 ef3f e3eb 391e 4787 ce3f
000007e0: 7708 d9be 3c85 b43f db7d 998d 500b c03f
000007f0: 6ca2 8729 5562 ce3f 62a3 3202 71c0 6b3f
