data/Ridge/iterates_H2_w10_d50.npy (npy, 800128 bytes, 1 tensors)

array f8 [20, 100, 50]
0	0x3fec8ca1c2602e21	0.8921669765854326
1	0xbfb5d89c3dbbe67a	-0.08533646113564855
2	0xbfc495947569ceef	-0.16081481679031337
3	0x3fc64d5674f8a1ba	0.1742351599834942
4	0x3fc3dbe7e9f34412	0.15514849589683927
5	0xbfa1252b1945451e	-0.03348669703940231
6	0xbfa158c2afdd0e89	-0.03388031384249952
7	0x3fb34aff1cf881f0	0.07536310632031706
8	0x3f9162b41dfe7767	0.016978086786927273
9	0x3fb7ec93fb7b91f3	0.0934536446544099
10	0x3f9ea00c70f70788	0.029907411951860335
11	0xbfa04fd681357449	-0.031859114906844406
12	0x3f66d113a6145f43	0.002785242439710263
13	0x3f87157989b8b83a	0.011271428599766254
14	0x3fa6a2ad683b12b1	0.04420987984989234
15	0x3faf2710d71034de	0.060844923260541015
16	0x3f94c161abb7aefe	0.02026894198017625
17	0x3f8191013492c16c	0.008577355782421768
18	0x3f7c580a4963b2e5	0.006919899160703767
19	0x3f9933e2ef19111a	0.024611993640307174
20	0xbfa24ab0fbb3381e	-0.03572609970579797
21	0x3f915100a570b774	0.016910562608408466
22	0x3fa4266a315a68a2	0.03935558178382449
23	0xbf82b5ab0e7fff6d	-0.009135567073826423
24	0x3f90da20a990e672	0.016457090711105633
25	0x3f9a4cc496d4dc16	0.025683471399329326
26	0x3f7527b977254da4	0.0051648373358434176
27	0x3f6df022abcc5205	0.0036545445603997106
28	0x3f4c3e643d1e7a1a	0.0008619298407557846
29	0xbf9a23854f441df2	-0.025526125872628876
30	0xbfa4e3550b0c548e	-0.04079690704217241
31	0xbf8a92174977cbc4	-0.012973958901943201
32	0xbf8a79fcbf4b296c	-0.012927984798257262
33	0x3f48cabc781eac75	0.0007565899143079496
34	0x3f7f53e281caef31	0.007648358147601717
35	0xbf880efefc08b270	-0.011747352663485006
36	0x3f943a3757402a6b	0.019753327083928
37	0x3f91eb0fa7e5cc28	0.017498249647769054
38	0xbf86fb47039bb13b	-0.011221461103069976
39	0x3f7de3b832b78996	0.007297248386267793
40	0xbf90bc001e955338	-0.016342164866119918
41	0x3f97c1d1ab113bb6	0.023200298372383542
42	0xbf7666443eb7a6f1	-0.005468622762671891
43	0x3f86cafdfcd052e7	0.0111293642785681
44	0xbf7323630de920c0	-0.004672419482240453
45	0x3f84ae55da486086	0.01009814331432347
46	0x3f812f5990b85579	0.008391093949323235
47	0xbf2f72d7da5352d0	-0.0002399338237980748
48	0x3f76a20618b704f3	0.005525611700649013
49	0xbf660a308b617742	-0.002690405667677449
50	0x3feb6fa43eb6501c	0.8573781227919457
51	0xbfc492d4e7503ac9	-0.16073094648932898
52	0xbfb2d20052456182	-0.07351686485833933
53	0x3fd13dd503a5c519	0.2693989310856338
54	0x3fcbb1002869e14c	0.2163391301471712
55	0xbf80aa7d49b9d0f8	-0.00813768273585723
56	0xbf7c3f7551683570	-0.006896456025527228
57	0xbf74c07292b94960	-0.005066344786955973
58	0x3fa0662e0077d31a	0.03202956920350726
59	0x3fbc21fce630926e	0.10989361400476991
60	0x3f88d611218ef95c	0.012127050243972697
61	0xbfb3666125830222	-0.07578093686880341
62	0xbfa240a9d42abc72	-0.03564959254196588
63	0x3f9b235c3cb5bdc0	0.02650207634490953
64	0x3fb0e5186992d0c6	0.06599571778753263
65	0x3fab15d4682a690e	0.052900922503981915
66	0x3f81f7863b0633e4	0.008772896457935837
67	0xbf8b986e24881339	-0.013474331369261005
68	0xbf70c7127566b1c4	-0.004096099952601798
69	0x3f831972b2f4ea36	0.009325882040333782
70	0xbf9dc66bc5583cb6	-0.029077228469813497
71	0x3f90864e84eb0e6a	0.016137339461023727
72	0x3fa83e0f856dfeca	0.047348485029031176
73	0x3f8294b435a7ff73	0.009072692763765855
74	0x3f8698b42f2814d6	0.011033446969131704
75	0x3f921a6476879519	0.017678804144357494
76	0x3f68803a30768378	0.0029908310422829786
77	0x3f8a88c663619d60	0.012956190021397418
78	0x3f40ee34f6593880	0.0005166777234053704
79	0xbf9e2dfda5e2196c	-0.02947231602640825
80	0xbfa68ea7f4107fe4	-0.04405712942411791
81	0xbf82b740d9f524fc	-0.0091385904803638
82	0xbf9dc25e3d900a24	-0.029061768062101603
83	0x3f5d460b65fb9210	0.0017867194473463223
84	0xbf57983d2fb42e74	-0.0014401052019960255
85	0xbf95c726250de0fc	-0.02126750565682388
86	0x3f955e7a6dde3124	0.02086821837979004
87	0x3f8553e3a2c8ce44	0.010413912205968441
88	0xbf88a5409dbbe29a	-0.012033943952233717
89	0xbf415acc98f1c79c	-0.0005296229372915187
90	0xbf93059a7b015e7a	-0.018576062925005556
91	0x3f9a4acbe2f7876b	0.02567595074459154
92	0xbf41e05aac9f84f0	-0.0005455439324998628
93	0x3f8e66a6290c700e	0.014844225051597017
94	0xbf6a126cf6c634c0	-0.003182614155042701
95	0x3f53736b1e74f9fc	0.0011871858676638638
96	0x3f674eb093d287e8	0.0028451393869355253
97	0x3f8399ea78098aac	0.009570915020224412
98	0xbf627584accfb980	-0.0022533026990380622
99	0xbf7102a7086f7cd6	-0.004152920219865316
100	0x3febb8c62bd4aba5	0.8663054328984471
101	0xbfc1f2a8dc25c90b	-0.14021788358110884
102	0xbfa83ea028c57de5	-0.047352795578941266
103	0x3fd16e7cbe8b05ac	0.2723686085483574
104	0x3fd32cf9246571d5	0.2996199469978625
105	0xbfaabb8fb640753e	-0.05221222972634586
106	0x3f9cefd8b9a6c497	0.028258692103638152
107	0x3f94afd5e7f60f9a	0.020202009470736117
108	0x3fb34c163a9721d4	0.07537974291256627
109	0x3fbc91f8ff536230	0.11160236581361782
110	0x3fa832283af98a4a	0.047257668685024415
111	0xbfb7946ff0a47fdd	-0.09210872292578594
112	0xbf9a0fe2e4d68ed0	-0.025451226441545682
113	0x3fa31ee415476a66	0.037345054242639716
114	0x3fa87b6e7519e0a6	0.04781670741516679
115	0x3fa4f444b9c2e998	0.04092612044901783
116	0x3f8a3fb25a61c32f	0.012816804297672483
117	0x3fa4267a49ee909e	0.03935606148232405
118	0x3f6e13ed1ade07a8	0.0036716109233915946
119	0xbf97806a2ffb2157	-0.022950801065947015
120	0xbfa48e828c1f9919	-0.04014976463786208
121	0xbf17566b7fcbbc40	-8.902579424917376e-05
122	0x3fa3c6c78184be7d	0.03862594085728419
123	0x3f76aab1643fe66d	0.005533879218995713
124	0x3f8786e60fe99eb5	0.011487767563451138
125	0x3f923f77850687c6	0.017820231909020177
126	0xbf97518f9746bd39	-0.022772067650007364
127	0xbfa0a7c331116f4a	-0.032529926051863514
128	0xbf62373ac6472791	-0.002223601144781769
129	0xbf9b64d0ce5b66f0	-0.0267517686796514
130	0xbfa0e51e74d7a0da	-0.03299803901956162
131	0xbf9718c9f1e932ac	-0.022555499448844316
132	0xbf94d99f09a0f92f	-0.020361409151740503
133	0xbf88219223e80b9c	-0.011782781334664531
134	0x3f61d0a518c3d3fc	0.002174684958044624
135	0xbf98a26acc64fbb5	-0.024057072377441552
136	0x3f8efa5a44da3318	0.01512594721432374
137	0xbf84f5736d6902fb	-0.01023378541606367
138	0xbf90c365eb247e71	-0.016370384671175523
139	0x3f6c576b9756f3ac	0.0034596539869355594
140	0xbf8b4bfa54be37ec	-0.01332851000895726
141	0x3f9bab354989c125	0.027020294774446136
142	0x3f81afac2df17a9a	0.008635850097730203
143	0x3f77c3db117290a9	0.0058020169591694115
144	0xbf82f06a40d83c3c	-0.00924761782064653
145	0xbec8937971d12c00	-2.929696064889794e-06
146	0xbf684e7251a8c141	-0.0029670937340357255
147	0x3f9152a5d8ed915a	0.01691683899424965
148	0xbf729d9bc7cb027b	-0.004544838445042938
149	0x3f62bb9212005fa2	0.0022867062507536265
150	0x3fec322405e4dde2	0.8811206927411457
151	0xbfbeb0c9cee21f24	-0.11988507557736888
152	0xbfc80b34368dddba	-0.18784191764619412
153	0x3fd3aec214d020fd	0.3075413897754656
154	0x3fd3a4401d845d55	0.3069000519039567
155	0xbfb548c21a1d27ce	-0.08314145219369992
156	0x3f9bef3cfa703e9f	0.027279808793592705
157	0xbf93349ccd78890f	-0.0187553882989358
158	0x3fb6d76aae04320b	0.08922449825713145
159	0x3fb749567878baa5	0.09096279565049288
160	0x3fa5b6fabf9e38c6	0.042411647692561824
161	0xbfb88e1b733a6b9b	-0.09591838420094094
162	0xbf981d466ec51f02	-0.02354917574964955
163	0x3fb4f2aaa53cb286	0.08182779821499694
164	0x3f960f07c7f2d2b7	0.021541711405648836
165	0x3f9fd431adc67c59	0.031082893592266767
166	0x3fa5820f17f68f41	0.042007896113573036
167	0x3f9d5272007fa939	0.028634816437184105
168	0x3f8d61ac335cddde	0.014346452062098555
169	0xbf91b01575c09b56	-0.01727326899722511
170	0xbf97dff3a4e62aa0	-0.023315245570794674
171	0xbf6614173c2d3b60	-0.0026951268968455205
172	0x3fa4233196c628ae	0.03933100667480126
173	0xbf8499542fbefc0f	-0.010058076579182921
174	0xbf68ec9e92aec59a	-0.0030425164345266433
175	0x3f982dff0f08201f	0.02361296204801999
176	0xbf99374e74e12427	-0.024625039943462348
177	0xbf93379eb204bfe5	-0.018766860595121577
178	0xbf864bb07e837559	-0.010886553631673722
179	0xbf8e92ea3fdbdd26	-0.014928655694787251
180	0xbfa0f4fb237f6706	-0.033119056781016495
181	0xbf9d864d71a99f24	-0.028832635939038856
182	0xbf8a0aff4210c94d	-0.012716287807141536
183	0xbf578f0e141069ef	-0.0014379155620703984
184	0x3f9cc5ef1203de67	0.028098807787471005
185	0xbf985e7385f3ca12	-0.02379780297355622
186	0x3f81808187e7dc8f	0.008545886955273722
187	0xbf86c68c29e354dd	-0.011120886829682092
188	0xbf9341fefabc9fea	-0.018806442312012374
189	0x3f8afe6c5dcad95e	0.013180586445156347
190	0xbf8def947c90c8d4	-0.014617118884505599
191	0x3f9bc373b0c299d9	0.027112777389129625
192	0x3f556751dfdce830	0.0013063716464345558
193	0x3f8400d4a0b4efb1	0.009767209200269496
194	0xbf909166be6b0f72	-0.016179662105755672
195	0x3f7fda5c7c175900	0.00777660490844867
196	0x3f4795dfb90242d2	0.0007197706600142412
197	0x3f95efe9457ce7e9	0.021423001161771458
198	0x3f855b0b9c0caa9b	0.010427561473610061
199	0x3f629b4ee6225029	0.0022713223452886133
200	0x3fed9349f7941651	0.9242296062008767
201	0xbfaa493975854b8c	-0.0513399082143656
202	0xbfd04935f46e5889	-0.2544684302350864
203	0x3fd15a6cddc49f0f	0.27114411980663616
204	0x3fd1fb9821aa7406	0.2809810951965236
205	0xbfb67d3fc54ba1dd	-0.0878486496618573
206	0x3f626f32eb7dc9d0	0.002250289395243167
207	0xbf9bbccf7f1f2934	-0.027087442525762742
208	0x3fb62de9ea9d3070	0.08663808801537853
209	0x3fafb6d2efec3160	0.061941711223058915
210	0x3f8542fb085006e3	0.010381661597424102
211	0xbfba8aba09f05349	-0.10367930166860363
212	0xbfa54e8aa15c8984	-0.04161484927887485
213	0x3fb0ac44d984d2fe	0.0651286154796473
214	0x3fa91e084bcf6fb1	0.049057254079996844
215	0x3fb5ac674d38b5aa	0.08466191897669853
216	0x3f8155e0f07620f4	0.008464581812191764
217	0x3f99c0df208a9450	0.025149809228100672
218	0x3f5b0da18a128388	0.0016511991055170056
219	0xbf933a9764b5f36b	-0.018778195878883446
220	0xbf93d9f26f49edd3	-0.019386089365509406
221	0x3f856eb26693ab7e	0.010465043788334457
222	0x3f9fa16be8cce376	0.030889211734776954
223	0xbf96b67b41464e7e	-0.022180486544654425
224	0xbf7ed1632e852178	-0.007523906162824161
225	0x3f9b11e1939825a4	0.026435398705904625
226	0xbf9191e6fea54054	-0.017158135692909873
227	0xbf73d80a2e58c788	-0.004844703454681361
228	0x3f7d652d047db3d8	0.007176566934373484
229	0xbf9665780a083e24	-0.021871448147122177
230	0xbf988e61bd1699f8	-0.02398064343074144
231	0xbf94819bfa6dabad	-0.02002567020410211
232	0xbf951c16943614e5	-0.020614960476014316
233	0x3f67d46b3b4acd20	0.0029089063994775094
234	0x3f9e90afd22812f5	0.0298488113421795
235	0xbf9eb04586cd29d9	-0.02996929774534771
236	0x3f86a7626e477724	0.01106144808812421
237	0xbf95501b341c5f88	-0.020813393645851913
238	0xbf93e79d2e4ccef2	-0.019438224745683415
239	0x3f92dc63956e9ce8	0.018418842311487632
240	0xbf9495de7f3c4f7c	-0.020102955356449112
241	0x3f91343766e21b72	0.016800752310270402
242	0xbf55a442070c7d80	-0.0013209004211559294
243	0x3f856e1020d93224	0.010463834764913811
244	0xbf863188744bc8e4	-0.010836664246629053
245	0x3f88ba572b7b3da6	0.012074166311690625
246	0x3f7231577ed79e18	0.00444158723755763
247	0x3f98757e2ba3f71a	0.02388569966659935
248	0x3f890e4ed844b7bd	0.012234321570385615
249	0x3f7c5a814dfac70a	0.006922249885677587
250	0x3fecf3e3d1694f1a	0.904771718031472
251	0x3fac3c1e98d295d9	0.055146175532438675
252	0xbfd1a27d94d9298f	-0.2755426362606607
253	0x3fd44c4abec465fb	0.31715649251563577
254	0x3fce07b7d03a0344	0.23461053530993514
255	0xbfb42976aa7b9d08	-0.07875768339328115
