data/Ridge/iterates_H1_w10_d50.npy (npy, 800128 bytes, 1 tensors)

array f8 [20, 100, 50]
000000 a9 ae b1 43 5f 2e eb 3f 7a 72 42 fc fe 27 c3 bf
       0.8494106599950629 -0.149658082173932
000010 9e db 1b 73 62 c3 c2 bf d2 65 53 ec fd ae c0 bf
       -0.1465876638464722 -0.13034032859176975
000020 e4 53 2b 8a 9e 79 d0 3f 8c 37 1a a3 e6 41 c2 3f
       0.2574230527218886 0.14263613666519992
000030 08 a7 54 8a 88 65 bc bf 8c a8 99 87 77 c0 d3 bf
       -0.11092427613462175 -0.3086222480984666
000040 31 3f a3 a6 e0 ab c3 3f b2 34 b6 2a bb 87 c6 3f
       0.15368278633695234 0.17601718507322556
000050 e0 a5 64 f5 2c ba c8 bf 1c c6 af d3 cf 0c d4 bf
       -0.19318162901008318 -0.31328197166939886
000060 40 70 4c c1 37 89 ab 3f 83 09 f7 65 3b 54 d7 3f
       0.05378126368142988 0.36451611478346296
000070 21 84 bb c4 7d 5b cb 3f e1 f6 99 c5 56 94 d0 bf
       0.213729592381271 -0.25905389115346905
000080 da cd ae fb 30 33 cf bf 84 b6 2e ef 6c 42 b5 3f
       -0.24374973572922337 0.08304482306876976
000090 9a cb df f5 4b d7 d7 3f a0 05 90 4c f7 e7 ba 3f
       0.372515668975376 0.10510202044681316
0000a0 c6 c5 6c 5b e3 b6 ca bf 08 78 9e fd 2e 7d d6 3f
       -0.2087063023005113 0.35139059798700645
0000b0 5c 3e d5 c1 6d f6 81 3f e1 c7 51 95 77 9e bd bf
       0.008770806768239207 -0.11569926639074836
0000c0 61 28 85 c3 a7 06 a6 3f 09 12 f0 94 a2 2c ae bf
       0.043019526116567126 -0.05893428867424084
0000d0 f8 9d 1e 38 d0 4a c1 bf bd fe 48 0a a7 41 89 3f
       -0.13509562244620077 0.012332253457429382
0000e0 df 3a b1 83 f7 d3 ae 3f 72 d1 e8 99 42 55 c4 bf
       0.06021092875072553 -0.15885193362340605
0000f0 f6 eb 97 8f cc 7d 7b 3f 00 57 8c b6 1a 78 85 3f
       0.006711768213331295 0.010482987113884956
000100 22 a0 99 0f b7 bf c1 bf 14 09 d8 22 e3 b5 9e bf
       -0.1386631799862253 -0.029990719796850376
000110 6e a2 c8 9d 23 fe be bf 23 6a 81 86 6a 2c c2 3f
       -0.1210653553213292 0.14198047225620866
000120 54 c1 2c 60 a4 b8 aa bf 3d f7 dc 77 b7 89 aa bf
       -0.05218995737084478 -0.051831944829685096
000130 05 bd 79 f2 16 5e bb 3f e3 43 d7 be bf e3 b4 3f
       0.10690444392979621 0.08160017403794444
000140 b0 2a 44 83 70 3b c3 3f ef b3 57 15 f5 e1 c3 3f
       0.15025144967542792 0.15533317129248256
000150 a4 21 ac f7 df 30 c3 bf 56 e9 c2 c0 e5 ef bc 3f
       -0.149929042753013 0.1130355449303456
000160 94 ba 70 9b 32 dd a7 3f 7b 3a 94 10 50 a1 c2 3f
       0.04660947940316365 0.14554787454149562
000170 b2 7c 58 63 4d 69 c4 bf 2d a1 c4 c8 a4 cc ad 3f
       -0.15946357107984493 0.058201932437727734
000180 1d ac d3 7b b4 cd ce 3f 76 31 69 47 3c c6 c3 bf
       0.24065261884911218 -0.15448716627941977
000190 94 b8 e6 54 85 b8 ed 3f e6 d9 bc 37 f4 8b b8 bf
       0.9287745149829498 -0.09588552819045723
0001a0 39 7c f4 77 6c 54 ba bf f5 1c 4d 62 d2 84 c0 bf
       -0.10285070351209037 -0.12905340003837976
0001b0 8a a1 ac 14 a4 5c cd 3f aa 98 4b de e7 1b bc 3f
       0.22938967713822606 0.10980080773478798
0001c0 a4 87 35 e1 09 65 c1 bf f4 ad f1 63 ba 28 d3 bf
       -0.13589595314539082 -0.2993608451858727
0001d0 be a9 bb e4 ba da 9c 3f c7 b5 5e a0 ed 86 d5 3f
       0.028178138933904633 0.33636036549691223
0001e0 64 65 58 db 8a 22 b5 bf 99 31 87 22 36 bb cc bf
       -0.08255832533941071 -0.2244632404894105
0001f0 60 ad af 1d ee e4 82 bf 62 93 e4 3f bd 6f cd 3f
       -0.009225712090446592 0.229972511480038
000200 a2 7c 4b 8e ba f2 cd 3f 40 93 de 3b c3 0b d0 bf
       0.23396999309531902 -0.25071793409943055
000210 a9 81 29 fc 0b 7c c4 bf fb 5e bf 08 c8 ef bd 3f
       -0.16003560841182932 0.11694002355158865
000220 c2 ba 57 5f c4 90 d6 3f 22 34 91 d2 d4 17 a0 3f
       0.35258588133630664 0.0314318186798135
000230 b0 41 b2 b2 88 dd 67 3f 24 3a d0 dd 43 3b d8 3f
       0.0029132528193899984 0.3786172548433646
000240 5d a2 72 3c ae 95 b6 bf 1c 98 a6 88 97 b3 bb bf
       -0.08822144485260126 -0.10820910536003264
000250 4a 30 d7 6a 49 c7 c2 3f 2d a7 55 ad 8e 43 c0 bf
       0.1467067500765345 -0.12706168616869587
000260 22 a6 ca f3 33 2f c4 bf ce 28 40 66 60 5e a5 bf
       -0.1576905193699512 -0.04173566101242586
000270 e2 83 84 02 38 cc b3 3f 3a 9c 0b e3 d5 9c c3 bf
       0.07733488141504055 -0.15322373949240548
000280 e0 8d dc f2 dc 77 91 bf 3f 00 5a 29 6f e3 b7 3f
       -0.01705880386647418 0.09331412086066936
000290 50 d0 51 22 c8 fa b0 bf 46 72 8e cc 43 ba b7 bf
       -0.06632662618523111 -0.09268592590383049
0002a0 46 13 55 74 cc a4 bc bf 0f d2 0d 32 87 57 c4 3f
       -0.11188962783951437 0.15892114585916814
0002b0 a6 c4 11 fe d2 ff b6 bf 54 f1 fe 38 fc 83 b3 bf
       -0.08984106734148387 -0.07623268500805597
0002c0 af 15 7a f3 1f 64 aa 3f f5 77 9a fb 7b b3 a7 3f
       0.05154514166955992 0.046291231597237394
0002d0 9e 15 92 2b 29 bf c3 3f c0 86 a7 bb b3 a8 c4 3f
       0.154271265291908 0.161398378971219
0002e0 94 d7 8a 30 98 44 ac 3f a9 9b df fb cc 8e be 3f
       0.055210834432201455 0.11936646603827107
0002f0 4f 18 40 31 d4 e1 c0 3f 4d 63 4a b7 34 42 bc 3f
       0.1318917503815009 0.1103852221953165
000300 c6 9a a4 27 73 d8 c9 bf 9b 41 78 1d 9b 4d a8 3f
       -0.20191802440350254 0.0474670861696069
000310 ac 1a 2d dc 92 70 c5 3f c6 80 9d 62 4b fd c8 bf
       0.16749797583380166 -0.1952299338836438
000320 ad 26 8b c9 f4 59 f0 3f 41 6e b0 f2 52 09 aa bf
       1.0219619629664678 -0.05085238659395631
000330 2a 8c f7 70 68 60 b7 bf f1 96 bd 4e 3c 2a 92 bf
       -0.09131481893523188 -0.01773924093813312
000340 18 15 d9 42 a9 50 be 3f f6 13 55 36 92 2f bb 3f
       0.11841829187422481 0.10619462801430743
000350 09 11 3f 6a a6 15 c1 bf 6e a0 32 e3 a7 74 d4 bf
       -0.13347320735750426 -0.3196201056221132
000360 6e 95 03 ce 92 4e 9f 3f d5 13 ed d9 73 fe d0 3f
       0.03057317144784604 0.2655305507835782
000370 93 03 8a 04 91 11 c9 bf 32 69 4e 76 a8 b5 b7 bf
       -0.19584858628880095 -0.09261563194596503
000380 92 53 bf 24 ca fa bc bf 81 06 ab af 5e 04 c4 3f
       -0.11320174595978319 0.15638335778753645
000390 22 4b 03 2a 8b 44 c5 3f 1d 6c 50 8c dd 44 c6 bf
       0.16615428496751244 -0.1739766059043583
0003a0 1a 88 f7 6f d5 bd 71 3f 5c 74 b8 70 c9 33 c1 3f
       0.004331430186967489 0.13439291004115972
0003b0 dd f5 5b fa 9d 98 d5 3f b4 75 35 3f dc 7c 9d 3f
       0.3374400086321126 0.02879661689563813
0003c0 3e 0f 87 d8 6f 7f b2 3f e0 c2 7d 46 cc ff cc 3f
       0.07225703274076253 0.22655633394199182
0003d0 d3 71 15 80 f7 f5 c2 bf d7 30 73 a9 5a 7e c6 bf
       -0.14813131097879637 -0.17573102258609793
0003e0 34 32 c5 50 b4 b3 c2 3f 93 fd 3c cd 2d 22 c6 bf
       0.14610914176809475 -0.1729180576457848
0003f0 ac 9b 69 ac 58 f0 ce bf 8f 84 bb 5e 83 a8 7f 3f
       -0.2417097894533219 0.007729066051724533
000400 4c d1 6e 4c 73 06 bc 3f a6 bf 8e 7a df e9 c2 bf
       0.10947342506444108 -0.14776223644503012
000410 c2 22 56 d0 31 d7 9d bf 82 4f 76 1f bf 1e 82 bf
       -0.02914121469578635 -0.008847706935547487
000420 f5 0d 06 84 6e cf b1 bf 60 cf d4 9d 26 26 b3 bf
       -0.06957140658601431 -0.07480088570883714
000430 71 b7 76 66 11 4f 9a 3f 15 63 73 35 9c d2 c3 3f
       0.025692245367899106 0.15486481294535595
000440 a5 3e cb a0 1e 5d c9 bf 92 00 9e 4a 6b f6 af bf
       -0.19815428591981746 -0.06242690358976789
000450 eb b7 64 ca 78 33 aa bf 57 89 73 4a bd 94 a4 bf
       -0.05117394896147672 -0.04019729169683
000460 78 f9 4d da 58 10 c8 3f 1c b9 01 a6 06 d6 c3 3f
       0.18799887332347587 0.15496905427739527
000470 0f b0 a3 0e c0 a4 b1 3f 31 20 ae 34 96 1d bb 3f
       0.06892013890654901 0.10592020784508872
000480 fb ba 3a c7 0d ba c9 3f 2f dd 71 07 ac 7b bc 3f
       0.2009904120254403 0.11126208478696208
000490 ea 16 a0 49 9e a2 c8 bf 54 35 82 9d da bd 7e 3f
       -0.19246271700847412 0.0075052776011380225
0004a0 af 07 62 04 86 51 cf 3f 8f d6 a8 0a d5 55 cf bf
       0.2446753999138855 -0.24480689068302694
0004b0 2b 84 56 9d 28 78 f0 3f c8 c5 9c a2 af dd b5 bf
       1.0293356081022107 -0.0854139110567963
0004c0 33 15 0b 50 7f b0 ba bf 45 f3 3f 76 ac 57 87 3f
       -0.10425563530141772 0.011397693022439656
0004d0 12 21 a2 e6 33 21 b1 3f 01 a7 38 de 6f b2 c0 3f
       0.06691288357444972 0.13044546461724596
0004e0 f8 c3 29 ef 66 c7 ad bf a8 57 4f ad c0 11 d1 bf
       -0.05816194219085696 -0.2667085354308889
0004f0 3a c5 5a 25 7d 24 c0 3f 78 9b 94 0c dd 12 cf 3f
       0.1261135513682719 0.24276316751749127
000500 48 ea 31 9b 65 b1 b3 bf 93 07 9b f4 37 43 c2 bf
       -0.07692561186733216 -0.14267634814865157
000510 79 ea 07 74 f9 bb 8e 3f 89 0e 79 59 24 59 c2 3f
       0.01500697026584884 0.1433453976516044
000520 4e cc 80 0c 4a 37 c2 3f 2d b6 a8 38 ef 52 c2 bf
       0.14231229410651952 -0.14315595881036938
000530 be 87 73 0d d5 52 7f 3f ea 86 5b 7e f3 6e b9 3f
       0.007647354351520917 0.09934923014545985
000540 a8 30 fd 58 a5 83 d3 3f d0 bf 98 de ba 7b b0 bf
       0.3049100274117884 -0.06438796934594326
000550 f5 1c b4 68 f4 e0 b4 3f ce 54 c6 07 c7 e1 c2 3f
       0.08155753666152406 0.1475151813471371
000560 07 e0 1d 4e 54 6a be bf 76 95 62 33 39 19 c7 bf
       -0.11880995661874759 -0.180457258310678
000570 3d e6 a9 aa 55 9e bf 3f d0 72 f5 cc 53 75 c3 bf
       0.1235097448024129 -0.15201804645302852
000580 e4 6e 40 47 d8 d2 c5 bf ab d2 41 61 9e e6 87 3f
       -0.17049697379194761 0.011670338957835943
000590 0e 0c 71 e9 2b f0 b9 3f e9 d4 08 61 09 86 ba bf
       0.10132097672708104 -0.10360773676878278
0005a0 21 e6 33 4d ab 14 92 bf df 7b 63 e4 f4 79 39 bf
       -0.01765697153766699 -0.0003887389069756035
0005b0 59 42 ec 66 7d 2c 9d bf dc 0d c9 06 1d 69 b2 bf
       -0.02849002781573726 -0.07191640296610252
0005c0 6b 0d 44 cd 8c bf 9e 3f bf eb ae a1 8b b7 ba 3f
       0.03002758028834533 0.10436318108888452
0005d0 42 50 10 1c 19 59 cc bf 6a af 14 50 a9 66 b0 bf
       -0.2214690577535539 -0.06406648831460662
0005e0 e4 e1 38 53 14 db 71 bf fa bf 11 57 72 2b 9d 3f
       -0.004359321017141291 0.028486048282900335
0005f0 d0 5a 74 89 c6 8d c6 3f 9e 89 25 be fe df c6 3f
       0.17620164596220045 0.17871078762534592
000600 fd d0 07 cd e8 95 a4 3f 59 ff 4c 6e fa 99 bd 3f
       0.04020621779264564 0.11563077156915592
000610 e7 c6 e1 87 a7 f7 c8 3f 7a 91 7e 12 c9 59 b7 3f
       0.19505781302318967 0.09121376706622711
000620 aa 41 10 f7 6d e3 c1 bf ea c4 78 5e 73 39 aa bf
       -0.1397530990948444 -0.05121956375331556
000630 21 05 f1 79 55 b4 cc 3f 1e 96 50 c2 d3 fc c8 bf
       0.22425335363554047 -0.19521567333247075
000640 02 18 a3 02 d8 78 ef 3f da 83 84 cb 5a b2 b4 bf
       0.9835014392381256 -0.08084647625629718
000650 d3 a6 f7 a9 cd dd c0 bf 31 bc 83 53 13 be 91 bf
       -0.1317689018172162 -0.017326642963720388
000660 e0 36 df 54 ba e9 b5 3f b8 6f 7c 5e 3c 89 bb 3f
       0.08559765407627706 0.10756280237950377
000670 bb 19 e9 18 cb 44 b5 bf fe ff 95 4c b3 99 cd bf
       -0.08308095319907853 -0.23125306357906078
000680 b8 43 e2 34 7b 76 b6 3f 58 c8 60 e1 93 c3 cd 3f
       0.08774538079366223 0.23253105644977512
000690 66 cb 2b 8a 49 fe af bf ae db 6d eb 25 18 c2 bf
       -0.06248693286570166 -0.14136194224894666
0006a0 09 c4 e3 13 d6 b2 81 3f 6f b6 05 fa c7 1d b2 3f
       0.008641884309755115 0.07076692441997932
0006b0 8c 68 24 ff 40 d6 b2 3f 97 2b 19 62 32 20 cd bf
       0.07358175496156799 -0.22754506864506815
0006c0 51 6b 10 f9 40 24 b5 3f 0e ea 35 26 4a 2a 8f 3f
       0.08258443909327907 0.015217379847617198
0006d0 de 2c f7 c7 18 06 d2 3f 09 8c 8d dc 2f e6 b5 bf
       0.28162211921580915 -0.0855436242541573
0006e0 54 67 85 15 4c 32 ad 3f 9c c3 d6 00 e2 52 c0 3f
       0.05702436220845067 0.1275293830963421
0006f0 fc 0a d1 93 e4 4c ac bf 58 32 f2 41 e9 16 ca bf
       -0.05527414612199341 -0.20382419319175216
000700 3b ad 29 71 14 ee ba 3f e1 16 88 de 68 7f c7 bf
       0.10519531023753796 -0.1835757338123392
000710 85 25 5a 7f bb 4d c0 bf 7b 79 7a 38 7c b1 a1 3f
       -0.12737220495573012 0.034557229894960316
000720 28 07 ed e6 a9 db b3 3f 02 95 51 1f d4 d1 b2 bf
       0.07757055175627825 -0.07351423039070329
000730 d1 f7 3a cf 33 ea 83 bf 80 d4 85 74 71 6b 7f 3f
       -0.009724049340885362 0.007670825180288721
000740 a1 77 42 05 75 5e 8c 3f 5e 14 96 fe 55 8b ab bf
       0.013852037642489825 -0.05379742367498673
000750 5c ac e1 0c 7b 92 b2 3f 47 e8 ba 89 73 b4 b1 3f
       0.07254761757364875 0.06915971863318858
000760 b3 cd c6 9d 5c 86 c7 bf e9 51 7b db a2 5d af bf
       -0.18378789619383226 -0.06126126221866796
000770 d5 4b 76 46 b3 5e a1 3f 85 3c 1d be fd a9 b7 3f
       0.03392563090451232 0.09243760959110332
000780 5a e9 85 82 81 de b9 3f c2 21 c8 53 43 38 c5 3f
       0.10105142056082653 0.1657795104113245
000790 5f 3e b8 a2 42 a0 b8 3f 9d ce ae c7 ae cb c2 3f
       0.09619537804268806 0.14684090376032524
0007a0 02 5a 34 23 ff 45 c2 3f e1 95 63 d4 4a c5 b5 3f
       0.1427611276528325 0.08504169163969479
0007b0 06 c7 30 37 87 9f c1 bf b8 88 21 f0 bc cf b0 bf
       -0.1376809138760608 -0.0656698309190088
0007c0 52 67 c6 3d 4a 90 c1 3f 39 67 4f df f3 d5 c7 bf
       0.13721588150365932 -0.1862168159848865
0007d0 c4 3f 7f 36 89 87 ee 3f 3c f2 a6 70 e9 dd b6 bf
       0.9540449203868708 -0.08932360649391397
0007e0 28 7e 60 5d 8e bf ba bf 32 8a 47 c2 55 b7 71 bf
       -0.10448541431150515 -0.004325232501715836
0007f0 81 c0 6f 98 d5 1e ba 3f eb 35 5a e2 73 24 b3 bf
       0.10203299495310782 -0.07477497364217071
