data/Ridge/iterates_H1_w1_d50.npy (npy, 800128 bytes, 1 tensors)

array f8 [20, 100, 50]
0.6341611321576516 0.12197182501571739 0.12825867673272742 0.07575139835376064 0.16985495995448865 0.07433975849458392 0.04106891869857476 -0.08797381381331756
0.05003680770905677 0.09342289978954521 -0.07560947588022202 -0.12088418875003294 0.0529539907598581 0.14122486924105976 0.03556415284812357 -0.0734066607021363
-0.059181107967585196 0.02576960511315691 0.12577110954280318 0.013621403964001598 -0.049613335971489314 0.08578557405553801 0.0017396742603417066 -0.03335689634072551
0.02721490997705267 0.011503271108863027 -0.017725813816717353 0.03795385480297839 -0.004748518052900153 -0.06596682269384922 -0.013647570591644773 0.006927145226705197
-0.025288012071982804 0.003664043630015268 -0.028151778034332546 0.024858964400213943 0.027522451820643147 0.01143603721131871 0.04194993870517143 0.020523775419306174
0.03580199615115147 0.06022113090764805 -0.04863629179719072 0.050726900159943966 0.002595455976447017 0.04989418022784038 -0.022423728404532942 -0.009196292736482991
0.06036286902514056 -0.03705397877146302 0.7328136780395986 0.1472146859688233 0.15965322402179793 0.06408338879186329 0.1810011231200672 0.06564144856960683
0.0240155953886195 -0.11375574757673682 0.0035413944907147707 0.18397493823308542 -0.04320775772695713 -0.09705376101168758 0.0332682087810849 0.11845757580704087
0.06257936843014542 -0.09128842846209223 -0.03336850343999857 0.03914576661490449 0.14277318467045771 -0.0043852716623795085 0.018326821402644043 0.13540243352753242
-0.04353440990236374 -0.04274781954026919 0.05125155894397862 -0.02339256302142552 -0.04114043839738435 0.01772575703026109 0.007953145679990545 -0.06375178907600548
-0.026337322674555172 0.04432015119505016 -0.016130089666269498 -0.02834097261474819 -0.03161713070820303 0.03312174430044057 0.004851361246668864 -0.0012935028372911585
0.02793709085067561 0.018508728413349298 0.04486258129193131 0.07154854117493056 0.02232818029169779 0.046530816278476037 0.03879840980553567 0.040528714900430696
-0.04917781258474554 -0.0059671026089428356 0.05004413171820417 -0.06276319614581984 0.859045999474016 0.17588266177286382 0.16592130043402736 0.14345380204190905
0.1387322034522454 0.07806711366065108 0.009627844915200412 -0.13623749870978807 0.030559379242084274 0.1704155639644045 -0.0824209073859563 -0.02043105923228119
-0.016192009690446443 0.09448461199088325 0.04519260122808945 -0.0708948571601977 0.026778587212471214 0.06891503446541239 0.16552549020976787 -0.019178185572769197
0.05936692543771693 0.08849702222464703 -0.06932211398749859 -0.07120865655095181 0.0707861547195926 -0.05542168689314069 -0.0986503452708686 0.014625187330603251
0.03184971407931765 -0.07289922131181427 -0.0351175668440191 -0.0042014429016456484 -0.015850796745562945 -0.029580274233387008 0.026548129179250674 0.05265200840840854
-0.0664085152310473 -0.008540380602601193 -0.013777528319730573 -0.015950696295319866 0.07843608355908287 0.08198037828549593 0.039052133228437695 0.04496858810861371
0.07330791952671259 0.04337400596207215 -0.06483969640009966 -0.014150234498376215 0.10150475074364224 -0.09436531122284315 0.8861310545693283 0.21488992138843777
0.14034793203782067 0.18209858485814362 0.13885248219504487 0.11190582063362126 0.02866202755767444 -0.12423244869952685 0.0961331169177576 0.16626727341686198
-0.018870832574161514 -0.05306222490194786 0.021962654580169924 0.08900101499673016 0.053840191191712294 -0.05021734038290088 0.031155985058822125 0.06717002567825686
0.16327859759301339 -0.053826848238756664 0.07702799220262545 0.0655620733882269 -0.06235964748535222 -0.07767614261106545 0.07152025740613104 -0.05003508168297116
-0.08435269327921577 0.020929659598597238 0.03659798931544335 -0.06890591680569856 -0.016367686505270665 0.002451781298873597 0.006690380521983577 -0.02533894170331477
0.02652095962013093 0.030140524987524495 -0.0858415451804684 -0.027241587968082348 0.0007767707830594363 0.017108752080236562 0.09756101055795482 0.09468084312032932
0.03282856648581883 0.05283145383743728 0.07710707668300093 0.03436704918357197 -0.050233491846633845 -0.03154591266072654 0.10790704789906404 -0.09170146833936184
0.8640443160769179 0.2309498249358236 0.1255530974513082 0.16357038169420424 0.15717621183512107 0.11530254536079891 0.005140286574619103 -0.10564069578369384
0.0922778565831917 0.16352613639053679 -0.025410701577840568 -0.06719223501414272 0.026595872006983236 0.06694372771057469 0.028071884094964528 -0.10254340764487607
0.07521485700176611 0.030769644712074114 0.15805937886988977 -0.07302330822404986 0.06966004279516512 0.06648199628468211 -0.038602418973701286 -0.09560088767158638
0.06633938762357278 -0.07670801847619443 -0.07219419340033767 0.024738682769810512 0.02663902572352878 -0.04999477296432811 -0.01645339811700111 0.009712498346759055
0.02069445211856167 -0.02529234317710314 0.041237257769895286 0.027301914793359944 -0.08874340094657254 -0.028315986408716805 0.01862502481140386 0.04912962719156619
0.07298654581410004 0.10016363351479847 0.059987229656432474 0.06805477115902528 0.06859083168975379 0.03832777983250181 -0.06102197034993026 -0.035057645875627055
0.08007839293245728 -0.09329985624873272 0.87039723619061 0.22674434413198716 0.14588363328754753 0.16594750204297162 0.16885078649622737 0.01815483226751998
00000000: c75d 6049 0c4b e43f 43d7 79a7 8b39 bf3f
00000010: 0166 ffc2 c76a c03f 6740 8e92 7164 b33f
00000020: 8db1 08ad cebd c53f cdda 862f ee07 b33f
00000030: 508a 623d fc06 a53f 268b 3bad 7385 b6bf
00000040: a7cc 69a9 6c9e a93f 3028 4b2b 90ea b73f
00000050: 665a 2c82 245b b3bf 11ee 4825 44f2 bebf
00000060: b436 0315 c91c ab3f 5ed8 6211 a813 c23f
00000070: 9607 c9f2 7635 a23f d834 0667 c7ca b2bf
00000080: b90d 8676 fc4c aebf 9272 c4ec 5863 9a3f
00000090: f24c 2289 4419 c03f 4c6e 68e4 89e5 8b3f
000000a0: d0d1 e24e eb66 a9bf d180 091b 0bf6 b53f
000000b0: d073 7203 b980 5c3f f54a c2b5 2714 a1bf
000000c0: 0096 42b1 39de 9b3f a93c ade9 068f 873f
000000d0: c417 8d3a b726 92bf ec97 450a b06e a33f
000000e0: 34e3 dd9b 2e73 73bf 2f53 17a2 33e3 b0bf
000000f0: f841 e3ea 41f3 8bbf d6e2 4063 a35f 7c3f
00000100: 97f0 51c3 19e5 99bf 002c fc71 0e04 6e3f
00000110: 3e45 edd7 d1d3 9cbf fc04 72dc a074 993f
00000120: bace e679 d82e 9c3f 0931 8cee c66b 873f
00000130: 26a7 9d5d 767a a53f c28f dd40 2f04 953f
00000140: b690 33a5 a354 a23f 348f 8dd7 4dd5 ae3f
00000150: dbd5 5525 dbe6 a8bf 00c8 6d52 e0f8 a93f
00000160: a07e 2fd1 1043 653f 4ab9 ade0 ba8b a93f
00000170: f17f 9bf0 3ef6 96bf 668f 6184 81d5 82bf
00000180: a31f b6c8 e1e7 ae3f 642d 0536 bdf8 a2bf
00000190: c6ba a7ab 3573 e73f 8a0e dd4a eed7 c23f
000001a0: 5cf2 ef4f 846f c43f a2f1 13db c467 b03f
000001b0: bf83 2b78 0b2b c73f ce57 dec2 e0cd b03f
000001c0: d800 2753 8b97 983f 42f9 92bf 181f bdbf
000001d0: f0a5 a2b0 d702 6d3f 0c53 7fa3 7d8c c73f
000001e0: dad5 bdc4 531f a6bf 56be 7fe9 83d8 b8bf
000001f0: 3a2a 6cd9 8708 a13f 99ff 0d56 3c53 be3f
00000200: bed2 cf94 3305 b03f cc77 bfae ad5e b7bf
00000210: 1686 fb2d ad15 a1bf 0896 c6f6 e90a a43f
00000220: a3e3 7347 6446 c23f c0e2 fb65 4af6 71bf
00000230: 5686 412a 44c4 923f 2b58 e6ef dd54 c13f
00000240: f907 9065 244a a6bf 3131 cdcd 0ae3 a5bf
00000250: 641a 11f3 a43d aa3f 3429 9654 38f4 97bf
00000260: e073 eb0a 5c10 a5bf f39d f76a b326 923f
00000270: 585e c424 bd49 803f 4c97 2489 0952 b0bf
00000280: cca5 34ce 2bf8 9abf fe7e df7f 21b1 a63f
00000290: 0088 64fe 6784 90bf 5896 117a 6a05 9dbf
000002a0: 6e2a c5dc 1e30 a0bf a01d 1d51 55f5 a03f
000002b0: 9011 545e 05df 733f 906c 8a18 5831 55bf
000002c0: 9835 326e 8a9b 9c3f 674d e7bc f3f3 923f
000002d0: 8e0c ed6e 3af8 a63f fe3e 6c54 0151 b23f
000002e0: db33 87d0 32dd 963f b62f 581c e3d2 a73f
000002f0: 48cf 809a 62dd a33f 18af 1702 2ec0 a43f
00000300: 8308 7b91 d52d a9bf 78a4 eae8 f570 78bf
00000310: 0a3d 2c6a 629f a93f f9b6 d6b2 3f11 b0bf
00000320: 5c04 3009 4e7d eb3f 84ba 1fb4 5283 c63f
00000330: ce76 89bf e83c c53f b4e0 20b6 b15c c23f
00000340: 625d 5d12 fac1 c13f e6cb 10d4 34fc b33f
00000350: c07e 5578 c3b7 833f d043 b9f8 3a70 c1bf
00000360: 1a27 b939 f54a 9f3f 086f fa5c 2dd0 c53f
00000370: 2fb5 ba5d 8919 b5bf 86b1 e62c e1eb 94bf
00000380: 84d4 4e60 a394 90bf 3be1 79be 2430 b83f
00000390: e274 9710 7c23 a73f ee27 f554 2a26 b2bf
000003a0: 6c1a 3e91 d86b 9b3f 024e 3b6b 6aa4 b13f
000003b0: 2a7b 8d73 f02f c53f 659f 533f 72a3 93bf
000003c0: 4029 7076 5765 ae3f ee8c 3fa8 bda7 b63f
000003d0: 9b44 7714 18bf b1bf 4314 1403 bb3a b2bf
000003e0: 38be 879b 0a1f b23f 17f0 6339 3b60 acbf
000003f0: ea6f ad26 2641 b9bf 4034 436a cff3 8d3f
00000400: fa19 b710 9b4e a03f e127 70fb 85a9 b2bf
00000410: 5d66 3802 eefa a1bf c2bd bc3d 8835 71bf
00000420: b00a 8df6 303b 90bf b4a5 c199 4a4a 9ebf
00000430: 4824 61ca 6e2f 9b3f 1e9c 5d3c 34f5 aa3f
00000440: 48e0 1701 2600 b1bf 798a 117b 9e7d 81bf
00000450: 8874 6c8c 6437 8cbf a04f bf1b 6155 90bf
00000460: eb6b b61d 6314 b43f bc60 a683 aafc b43f
00000470: df3f 1c26 a4fe a33f 412e 8c6e 1f06 a73f
00000480: 12b0 e7cc 4ec4 b23f 3a0c 3522 1e35 a63f
00000490: 0f60 8597 5599 b0bf 21c6 3553 ccfa 8cbf
000004a0: a423 d520 37fc b93f 9537 9435 5328 b8bf
000004b0: 570c 6b83 2f5b ec3f 9c3a 4d50 8381 cb3f
000004c0: 27f3 14c9 ebf6 c13f b28a 4ea5 014f c73f
000004d0: 8481 ff0a ebc5 c13f 647b da1f dca5 bc3f
000004e0: 6032 fd1b 9459 9d3f 1637 44a0 b2cd bfbf
000004f0: 976c 3911 2e9c b83f c039 dcfa 3e48 c53f
00000500: 346b 0423 e052 93bf bbb6 36d1 f82a abbf
00000510: 0ce6 9ecc 607d 963f 5ec5 b840 c5c8 b63f
00000520: f8f0 c108 f190 ab3f 38f8 4555 16b6 a9bf
00000530: 04f6 9bc3 5ae7 9f3f 8441 8f07 0e32 b13f
00000540: 023d 6626 50e6 c43f 1818 aa51 318f abbf
00000550: 9706 6343 1bb8 b33f 7c75 0f11 adc8 b03f
00000560: 7850 148d 9aed afbf 3ea7 316c 95e2 b3bf
00000570: db92 8fce 264f b23f 284c f6be 329e a9bf
00000580: 5eb8 f65a 2398 b5bf 7634 f8ad 956e 953f
00000590: 821a 6bbe f8bc a23f 676e 2e73 d1a3 b1bf
000005a0: 8459 01d9 b0c2 90bf 2a02 dc0f c215 643f
000005b0: 10ac a258 5f67 7b3f c854 b997 73f2 99bf
000005c0: 6872 e878 4f28 9b3f 9c39 6c64 28dd 9e3f
000005d0: 112f 3025 b6f9 b5bf 10f5 a705 38e5 9bbf
000005e0: 2096 0b8e 0674 493f e5d3 a3ea f484 913f
000005f0: 660c b625 c2f9 b83f f86f c2f4 003d b83f
00000600: 28c0 dce6 e7ce a03f 8325 dd6c b90c ab3f
00000610: 74c6 a414 4abd b33f c75f 9bd0 8e98 a13f
00000620: 6154 4a49 34b8 a9bf c88c 662e c926 a0bf
00000630: b100 bcd9 cb9f bb3f d542 8357 bf79 b7bf
00000640: a50a fb43 40a6 eb3f 84e2 8e8c c38f cd3f
00000650: d980 bbb7 1f12 c03f a044 fccf dfef c43f
00000660: eb3f c5a0 591e c43f 3b5e 78b5 7784 bd3f
00000670: 2850 ae2b fb0d 753f b884 84c5 440b bbbf
00000680: 2377 2b88 859f b73f f356 eba7 6cee c43f
00000690: 6a20 fb50 4305 9abf bf4e eea3 8233 b1bf
000006a0: c714 eac1 f23b 9b3f 8272 3061 3923 b13f
000006b0: 80f9 7f40 e0be 9c3f cc50 41e6 4840 babf
000006c0: 70f3 fee6 4741 b33f e2d8 fde6 1382 9f3f
000006d0: 7d3f 892b 4a3b c43f 7d03 abd0 a7b1 b2bf
000006e0: 67a8 a495 3dd5 b13f d1c4 d0cf f604 b13f
000006f0: 1cbb 133e b2c3 a3bf d19d 04be 4c79 b8bf
00000700: 54a8 473c 9efb b03f 663b b2fe 22a3 b3bf
00000710: a494 9d93 517b b2bf e212 c5e5 1855 993f
00000720: 5193 1ec1 4247 9b3f 9499 b435 ea98 a9bf
00000730: 2848 48db 28d9 90bf 5222 1876 25e4 833f
00000740: ba3f 3b2c ed30 953f 1ab4 236b 3ce6 99bf
00000750: 3031 ffc2 0c1d a53f 3865 9f7c 08f5 9b3f
00000760: ea24 cd34 e3b7 b6bf 4253 51ae ddfe 9cbf
00000770: 2b05 cf41 7012 933f 9cda 1abc 8427 a93f
00000780: 09cf 510b 3faf b23f 95d0 31ea 52a4 b93f
00000790: 35a2 1a6b a5b6 ae3f aafb 7698 096c b13f
000007a0: f9b5 e932 2b8f b13f 3259 d1e1 b29f a33f
000007b0: ec19 fb8d 453e afbf 1a69 0565 13f3 a1bf
000007c0: 2cda c27e 0480 b43f 984f 4fd7 7fe2 b7bf
000007d0: 6af5 fe4d 4bda eb3f 07c8 4c6b f505 cd3f
000007e0: 29ef fe9c 50ac c23f 7d50 108b c43d c53f
000007f0: c6dc f30e e79c c53f 36d8 692b 2e97 923f
