data/SGD/iterates_H2_w0_d50_depth1_indim50.npy (npy, 160128 bytes, 1 tensors)

array f8 [20, 20, 50]
1.0221386384963989 1.0440418243408203 0.8212207889556885 0.6416963589191437 0.5350606918334961 0.45192755699157716 0.24512866377830506 0.4548697578907013
0.25692077696323395 0.37770801186561587 0.12046607434749604 0.2036353799700737 0.12121671110391617 0.19571703612804414 0.057647695615887645 -0.10382046461105347
0.046085416749119756 0.01924150452017784 0.09831665188074112 0.13115338534116744 -0.03913026750087738 -0.03649523269385099 -0.11959180533885956 0.0013547129184007644
0.010370782911777496 0.07448790594935417 0.2032837849855423 0.11274747103452683 -0.13968037366867064 0.07638611063361168 0.15343327224254608 0.22170342206954957
0.022743397876620292 0.07304205954074859 0.04106357090175152 0.04552541106939316 -0.11974316090345383 0.19878921866416932 0.1313982915878296 -0.21618419826030733
0.23607932150363922 -0.11539491921663285 -0.04290937542915344 0.06894075721502305 0.032395511716604236 -0.0622943714261055 0.05519291877746582 0.22340853989124299
0.028673050180077552 0.03394142881035805 1.0141399293332487 1.026894234322213 0.8722912427541372 0.765447204177444 0.7983936538567414 0.6884476510254113
0.393049749973658 0.6565974217814368 0.4240150548316337 0.529977028434341 0.21637813767065872 0.33357859866039175 0.21095441583846067 0.31826872761185104
0.18076610565185547 -0.08772391946734609 0.08737393166567828 0.10198779333684896 0.19877437864606445 0.1433453273934287 0.002336968541950793 -0.0009875513512540507
-0.09743951261043549 0.03688311325134458 0.04319241985275939 0.12750770957083316 0.2382359802722931 0.12396249557669098 -0.13773860480334307 0.1152736228462812
0.18614707242798162 0.2530238124969843 0.04695345481505265 0.09822204789599857 0.07040485941074989 0.06354964967515017 -0.13172608593831192 0.20380000528451558
0.135666049815513 -0.2210884009664123 0.292439476863758 -0.10721576697117574 -0.07082882261759527 0.1144770216700193 0.0781665444877502 -0.08254761409920615
0.05201457309964541 0.251684130849065 0.046457502588226986 0.028426475772583806 1.0093288713571977 1.0128276323785588 0.8745639908070467 0.803912273475102
0.9607481968646147 0.871459465854022 0.5005673322142387 0.838911235332489 0.5889185514985299 0.6863168107003582 0.3295770564249584 0.4771487943980159
0.31201581991448696 0.45821804538065075 0.3326488794112692 -0.045153153414020736 0.1387185749350762 0.20213482087972212 0.3177642813142465 0.16317276048416995
0.05735681491086678 0.04243682788646951 -0.0632874206924925 0.08914660441936278 0.08503334649971553 0.18977376149625194 0.27490098896075266 0.13983488539043737
-0.12726279484982395 0.166485319180148 0.21102364300465098 0.2880632272180246 0.0774286219051906 0.12935972487439915 0.10327432304620743 0.08454529865055668
-0.13820683986556773 0.20539134527955735 0.14067791706445265 -0.21437694983822958 0.3514270606089611 -0.09001242878789804 -0.09082892445885406 0.16942856004651713
0.12249015286868932 -0.09960208346649092 0.04837488709967964 0.2773959375157648 0.06262597114760049 0.02276478745803541 1.0065616251992398 1.0054827371581656
0.8690602271283259 0.8052931203216803 1.0392285057755768 0.9823844315575772 0.5635925145422827 0.9782584886081883 0.724895224219463 0.8223008767503207
0.44254515600986166 0.6187543566109704 0.41363713560534304 0.5971230639786017 0.49547954416665874 0.014904344607083524 0.1944225647898971 0.3100045425970046
0.4463213171626701 0.19365320464626687 0.12246858872106818 0.08903275028665046 -0.02016217518048208 0.15078019833222764 0.1328617535897943 0.2547416491586654
0.3122991343013576 0.1594071302746163 -0.1108395043210905 0.22595961001075682 0.22735508543546082 0.32666782326385624 0.11467499035547991 0.16449762343383226
0.13653476609558354 0.10729389710993063 -0.14370683934844908 0.205029588498053 0.1445011525857644 -0.19826063269474467 0.4102243932544208 -0.06487187266838355
-0.10225981730418127 0.229454799265158 0.16731119485663587 -0.11307024870251046 0.04457526366974487 0.2986479553042865 0.07846441883288446 0.01784884984620282
1.0049409882889853 1.0019536175661616 0.8648121414913071 0.7975189056661394 1.0717621462212668 1.0393093476692836 0.5950729954573843 1.0744464819629986
0.8255612519052293 0.9295643236902025 0.5443229497306876 0.7482763884796036 0.5082992588480314 0.7249832666582532 0.6554179862141609 0.08282374606157343
0.25017023562557167 0.4185846551424927 0.5772021255559392 0.2315639899008804 0.19299840911601981 0.13591295278941593 0.02805231615073151 0.21675078312142027
0.18362950606064665 0.31913123797211385 0.3491348913974232 0.18076521675619814 -0.09113405324104759 0.290335301309824 0.23727511966394055 0.3676804213060273
0.15697059366438124 0.20162480510771275 0.16961903808017573 0.1312683896265096 -0.15004847343597147 0.2034852837936746 0.14614343208571276 -0.1749577090765039
0.4675447800093227 -0.03357297026862701 -0.10785616882559326 0.29204223884476554 0.2131613805476162 -0.12355285634597142 0.04049039140550627 0.31545869757731754
0.09467683794597785 0.014180191132860879 1.003901971238 1.0002327071768897 0.8620245399929228 0.7890739895048595 1.0831384417556582 1.0642961391380854
00000000: b81e 850b ae5a f03f 3333 3333 65b4 f03f
00000010: 1f85 ebd1 7047 ea3f d7a3 70cd c688 e43f
00000020: 9a99 9999 371f e13f f628 5c8f 61ec dc3f
00000030: 52b8 1e45 6060 cf3f b81e 850b 961c dd3f
00000040: 7b14 aed7 6371 d03f 9a99 9939 5e2c d83f
00000050: 9a99 9959 ddd6 be3f 0ad7 a360 b910 ca3f
00000060: 1f85 ebf1 0e08 bf3f ec51 b87e 410d c93f
00000070: ec51 b8ae ff83 ad3f c3f5 285c fa93 babf
00000080: b81e 85fb 8198 a73f 295c 8f82 0bb4 933f
00000090: 48e1 7ab4 472b b93f 6666 6656 a2c9 c03f
000000a0: 6666 66e6 e108 a4bf 5c8f c2cd 80af a2bf
000000b0: cdcc cc8c 919d bebf b81e 85eb 1332 563f
000000c0: b81e 85eb 463d 853f 0000 00b0 a311 b33f
000000d0: c3f5 28fc 3305 ca3f cdcc ccac 04dd bc3f
000000e0: 6666 66e6 0be1 c1bf 713d 0a47 0a8e b33f
000000f0: 3333 3393 b3a3 c33f 9a99 9919 c760 cc3f
00000100: 85eb 5198 0b4a 973f 8fc2 f568 e2b2 b23f
00000110: c3f5 28cc 4806 a53f f628 5c4f 1b4f a73f
00000120: 0000 00e0 7ca7 bebf 48e1 7ad4 ec71 c93f
00000130: 295c 8fc2 a8d1 c03f ec51 b87e ecab cbbf
00000140: 295c 8fe2 d837 ce3f c3f5 287c 858a bdbf
00000150: 85eb 51b8 37f8 a5bf 9a99 99f9 19a6 b13f
00000160: ec51 b8fe 2496 a03f 0000 0040 0ce5 afbf
00000170: a470 3d0a 3f42 ac3f a470 3daa a698 cc3f
00000180: 3333 33d3 775c 9d3f d7a3 705d c560 a13f
00000190: 68dd 60ca ea39 f03f 7dd6 0da6 286e f03f
000001a0: 3eeb 0653 cfe9 eb3f 5a37 9822 8b7e e83f
000001b0: bbc1 14d9 708c e93f 6f30 455e c307 e63f
000001c0: 239f 7523 ba27 d93f d60d a698 d802 e53f
000001d0: 68dd 600a 1023 db3f 5a37 9862 92f5 e03f
000001e0: e4b3 6e60 47b2 cb3f c214 f90c 5a59 d53f
000001f0: 618a 7ce6 8d00 cb3f f9ac 1bcc 835e d43f
00000200: 0000 0000 5823 c73f b46e 3025 1375 b6bf
00000210: 3eeb 0653 235e b63f c214 f93c df1b ba3f
00000220: 0ea6 c857 7071 c93f 5a37 98c2 2359 c23f
00000230: 53e4 b36e fa24 633f e4b3 6e30 172e 50bf
00000240: 0000 00c0 cbf1 b8bf 68dd 60ea 57e2 a23f
00000250: a6c8 671d 511d a63f ad1b 4c31 2c52 c03f
00000260: 0000 0040 847e ce3f e4b3 6e90 01bc bf3f
00000270: 9f75 8329 6ba1 c1bf f259 3778 9282 bd3f
00000280: 7683 29d2 aad3 c73f 8329 f2c9 8a31 d03f
00000290: 91cf ba81 480a a83f 239f 7583 1425 b93f
000002a0: d60d a688 0d06 b23f 3eeb 0633 ca44 b03f
000002b0: 1c4c 917f 66dc c0bf 4c91 cf5a 1e16 ca3f
000002c0: 1c4c 914f 815d c13f 8a7c d6ed 9f4c ccbf
000002d0: ad1b 4c11 54b7 d23f d0ba c114 7e72 bbbf
000002e0: d0ba c174 d621 b2bf f259 37b8 5d4e bd3f
000002f0: f259 3700 b902 b43f 453e eb26 d721 b5bf
00000300: d0ba c174 a7a1 aa3f 91cf bac1 971b d03f
00000310: dd60 8a1c 47c9 a73f 3798 227f d41b 9d3f
00000320: 3f34 d607 3626 f03f fbd0 58bf 8a34 f03f
00000330: fbd0 589f 6dfc eb3f dbb6 6d3b a6b9 e93f
00000340: 052f a700 73be ee3f b23e 34f6 fee2 eb3f
00000350: c1cb 29c8 a504 e03f 0000 0060 5cd8 ea3f
00000360: 3f34 d6b7 6bd8 e23f e1e5 14ac 4ef6 e53f
00000370: 6edb b65d ca17 d53f c7fa d018 9b89 de3f
00000380: 9d82 9733 11f8 d33f 3f34 d6c7 7153 dd3f
00000390: 34d6 8786 1e4a d53f 54f0 726a 501e a7bf
000003a0: fbd0 58bf 87c1 c13f 34d6 87c6 8ddf c93f
000003b0: 7839 05ff 3f56 d43f 9853 f052 d8e2 c43f
000003c0: 4463 7d58 df5d ad3f 3f34 d6a7 47ba a53f
000003d0: d158 1fba 9a33 b0bf 34d6 87d6 4fd2 b63f
000003e0: 9224 49d2 bec4 b53f 8df5 a1b1 814a c83f
000003f0: 0a5e 4e51 fa97 d13f 4ec1 cb09 1ce6 c13f
00000400: 9853 f0b2 254a c0bf 2549 9214 644f c53f
00000410: f6a1 b19e d202 cb3f 7839 05bf a06f d23f
00000420: b76d dbb6 5cd2 b33f 2fa7 e005 dc8e c03f
00000430: 0000 00a0 2f70 ba3f e614 bcbc c2a4 b53f
00000440: 052f a700 c3b0 c1bf dbb6 6d7b 434a ca3f
00000450: 34d6 87e6 bb01 c23f 9224 4932 b470 cbbf
00000460: 68ac 0fed c77d d63f 2fa7 e0f5 0d0b b7bf
00000470: e1e5 147c 9040 b7bf b23e 34c6 d5af c53f
00000480: 052f a7c0 835b bf3f 591f 1aab 857f b9bf
00000490: e1e5 14dc 97c4 a83f 1f1a ebe3 dac0 d13f
000004a0: 108d f571 4108 b03f 34d6 8706 a74f 973f
000004b0: c13a da5c e01a f03f 1597 0c11 7516 f03f
000004c0: dea7 b864 57cf eb3f 8f36 ef13 f6c4 e93f
000004d0: 6508 d611 aea0 f03f 8275 b479 b16f ef3f
000004e0: 2258 472b f308 e23f eb68 f3be e44d ef3f
000004f0: e392 2178 5732 e73f 11ac a3ed 4950 ea3f
00000500: 5c32 04eb a852 dc3f 3bda bcef d5cc e33f
00000510: 1982 75e4 0779 da3f 8f36 efd3 a11b e33f
00000520: 2e19 82d5 efb5 df3f 69f3 3e45 2b86 8e3f
00000530: 2643 b0ae d6e2 c83f 5c32 044b 1dd7 d33f
00000540: f829 2e49 8790 dc3f ef53 5cd2 a0c9 c83f
00000550: 9321 58f7 195a bf3f 970c c1ae d9ca b63f
00000560: 71c9 10ac 64a5 94bf ef53 5cfa c34c c33f
00000570: 2258 472b 9d01 c13f 5c32 04eb af4d d03f
00000580: 2a2e 1982 b5fc d33f 11ac a3ed 7367 c43f
00000590: 9bf7 294e fa5f bcbf 5847 9b97 3eec cc3f
000005a0: c525 43b0 f819 cd3f a8b8 6428 20e8 d43f
000005b0: 69f3 3e15 575b bd3f 1982 7514 420e c53f
000005c0: 9fe2 92a1 f879 c13f 3fc5 25e3 9c77 bb3f
000005d0: 5847 9b57 fc64 c2bf 6dde a7d8 683e ca3f
000005e0: 7e8a 4b86 037f c23f 970c c1ba 9a60 c9bf
000005f0: c525 43d0 1d41 da3f e77d 8a6b 719b b0bf
00000600: 5c32 040b b32d babf 4c86 605d c65e cd3f
00000610: cefb 1407 746a c53f 37ef 53fc 2bf2 bcbf
00000620: 9321 58a7 91d2 a63f c525 4350 0c1d d33f
00000630: 5071 c980 3e16 b43f bd4f 7109 f846 923f
00000640: 1cc7 7100 3d14 f03f 8ee3 3884 0008 f03f
00000650: c771 1c83 8aac eb3f 8ee3 385e 4685 e93f
00000660: 1cc7 7110 f025 f13f abaa aad6 02a1 f03f
00000670: 721c c785 d60a e33f 5555 55cb ee30 f13f
00000680: 8ee3 386e ff6a ea3f 8ee3 38ae fdbe ed3f
00000690: 1cc7 71f6 176b e13f c771 1c53 e1f1 e73f
000006a0: abaa aace fc43 e03f e438 8e1b 1033 e73f
000006b0: 0000 0024 2ff9 e43f abaa aae0 ef33 b53f
000006c0: c771 1c05 ca02 d03f c771 1c4b 17ca da3f
000006d0: e438 8e97 7078 e23f 721c c789 e3a3 cd3f
000006e0: abaa aaff 2bb4 c83f abaa aa7b 9865 c13f
000006f0: 721c c711 bfb9 9c3f 1cc7 715a 7dbe cb3f
00000700: e438 8ef1 2b81 c73f e438 8e6d a56c d43f
00000710: c771 1cdf 3958 d63f c771 1c8b 5023 c73f
00000720: 8ee3 38b2 8f54 b7bf 0000 0084 da94 d23f
00000730: e438 8ef7 075f ce3f 8ee3 3876 1388 d73f
00000740: c771 1cc7 9c17 c43f 0000 0074 d7ce c93f
00000750: abaa aa9e 13b6 c53f 8ee3 3810 67cd c03f
00000760: c771 1cd3 c934 c3bf e438 8e47 ce0b ca3f
00000770: abaa aaf6 d3b4 c23f 5555 55a3 0365 c6bf
00000780: 398e e3f0 40ec dd3f abaa aaf2 7930 a1bf
00000790: 721c c73d 769c bbbf 8ee3 38ee d1b0 d23f
000007a0: c771 1c43 df48 cb3f 5555 55f5 28a1 bfbf
000007b0: 721c c715 28bb a43f 5555 55ad 7930 d43f
000007c0: abaa aac2 bd3c b83f 5555 5509 810a 8d3f
000007d0: dbb6 6d83 fb0f f03f b76d db02 f400 f03f
000007e0: 3dcf f37c b495 eb3f 1886 6118 1840 e93f
000007f0: 6218 86f9 8854 f13f dbb6 6d63 5b07 f13f
