data/SGD/iterates_H1_w10_d50_depth5_indim10.npy (npy, 160128 bytes, 1 tensors)

array f8 [20, 20, 50]
0.005137330889701843 0.0007943914283532649 0.0007875398790929466 -0.0008076415909454227 -0.0025857889885082842 -0.0011657864740118385 -0.0011128723341971636 8.51487714680843e-05
-0.00039017959265038373 0.0015347176976501942 4.711718531325459e-05 0.0009554512822069227 -0.0026544902101159097 2.275976468808949e-05 -0.0023635752778500317 -0.004036276824772358
-0.0008387257438153029 0.0017127419542521238 -0.00019682526355609297 -0.0011266315029934049 -0.0008640840975567698 0.00023603002540767193 2.784747164696455e-05 -0.0035958336386829617
3.473475342616439e-05 0.0016643045097589494 -0.0016153374640271068 -0.0024673052271828055 0.00017963977064937352 0.0003697168407961726 0.000934209453407675 0.0009561203420162201
-0.0008158556534908712 -0.0014186950586736202 0.0012823872989974915 0.001643153722397983 0.0028277800604701044 0.0001835661055520177 0.0013940375018864871 0.004551915563642979
0.0009910419187508523 -0.0019253574078902601 0.0008650967665016651 0.002943094316869974 -0.0002961716311983764 0.0012420410313643516 -0.0012395631801337004 0.0008073564223013819
0.0017658390616998075 0.0014999446691945195 0.008204462522691166 0.001409057480585132 0.001260024934340067 -0.0017087981230705172 -0.004224586376064533 -0.0018669767085009732
-0.0022078660077641944 0.00021473730786867137 -0.00047898691814594175 0.002197310548728785 -0.00038479705816260666 0.0017181474297005381 -0.0037926770557926313 3.1476707443141857e-05
-0.00285088609450975 -0.005966037713192604 -0.0014336562929423275 0.0020406287622864584 -0.00010719805986563851 -0.0005088053672020702 -0.0012342261915044808 0.00010102052977812048
0.0003837695497881017 -0.00547874830914913 0.00038128740207694873 0.0019031606765614975 -0.0023160357550541695 -0.003754346209855096 0.000438128033262753 -0.00015056527666495862
0.0010455860976582847 0.0013193889502184214 -0.0012410446888188253 -0.0013814823846710293 0.002160199754242156 0.0022924199347963206 0.003947662932143823 -0.00010914035138321688
0.0019647315446589446 0.006330034544540418 0.0012772586511297 -0.001991503217534439 0.001299945220691026 0.004508525019863973 -0.0011735398690467952 0.0018955396293234583
-0.0010345910433553964 0.0013906163968951315 0.0026190653915290495 0.0020467703941756408 0.013018391285167664 0.002248800086446715 0.0018329998473541774 -0.002863096479535559
-0.006364894047265454 -0.0027768006524527254 -0.0036674916806003575 0.00042608708686109787 -0.0006384769560322546 0.003079364793755266 -0.0009320977711764982 0.0027015982908481844
-0.0053413887650762895 -7.569982328129058e-06 -0.003502134100667068 -0.008503187314740248 -0.0022076513090798135 0.0025008121405595113 1.5278835068171728e-05 0.000217516587011288
-0.0017124421024999144 -6.80752296941545e-05 0.0009122498847819789 -0.008010341557769142 0.0008757220579985985 0.002257812803858245 -0.003235989426053604 -0.00548605924966384
0.000788247522218533 -0.0007700179406555787 0.0012051147831679911 0.0017416788982607576 -0.001840201964392802 -0.0013829889536208036 0.003277620540608709 0.0031011470412949517
0.005440794178569804 -0.0005351948089736076 0.0027733911256476933 0.008691432239601806 0.0017011932795867324 -0.002040148242281712 0.0019512062687997002 0.006613348107024723
-0.0022937267310727313 0.0027980121869441805 -0.0008381794976564694 0.0021301950969524227 0.00374805241614124 0.0027686748914990803 0.02125418874755746 0.00347407539680478
0.002536717412962777 -0.004409147724203887 -0.009309087536435147 -0.004017141804129618 -0.005736058020628378 0.0007979638204665579 -0.0009401890327085237 0.00432251798385968
-0.0016562161331645168 0.004034192308966742 -0.0075886884979048715 -0.0001583183270146246 -0.004422713838303919 -0.012028698649135281 -0.003270513305562686 0.0031943126031976255
0.0001959959918167442 0.0010695824863343332 -0.002359557518979809 -0.00028939050341742574 0.0017620799929422679 -0.01163198802711778 0.0016375005647891246 0.00282466441744053
-0.004510132347798494 -0.007967790886454407 0.0012941372563650252 -0.0015126874424196536 0.0014491070206964114 0.002224138266116869 -0.0027461237690151958 -0.0014766999157756323
0.004765290629546173 0.004136420217663294 0.007552809005633729 -0.0012066125613064734 0.004002986876599369 0.012014810247804786 0.002376205436732681 -0.0020311642972538706
0.00300778855081098 0.009625696546596582 -0.0037917966236833667 0.004130170562258753 -0.0007011967875277165 0.0031073823567388244 0.005330062578203248 0.0037778857599211034
0.037490791731721 0.005493396353105911 0.003449276805945879 -0.006720871205389913 -0.013850615004129294 -0.005910001527000632 -0.00906259970765354 0.0015316576496439262
-0.0015627546583548086 0.006297716741553611 -0.0027215439250640986 0.006061478647299939 -0.011284957038393864 -0.0005797390658699442 -0.005884309189342376 -0.01755395082808617
-0.004918196015447999 0.004389550152053643 0.000503866039657118 0.002103766302752774 -0.0033417414476086074 -0.0006165338034204777 0.0033175128563824627 -0.0174970859532348
0.002974536078302966 0.0038542087034632764 -0.006497573860946836 -0.012001200158718146 0.0021230498395097028 -0.002447867733685093 0.001869462584080692 0.0027782870133200455
-0.004301639828352361 -0.0017952747035047247 0.006974936139562892 0.005581114741895969 0.010929565508073816 -0.0024122967495511854 0.00612628355803382 0.01730141881853342
0.003596642753109336 -0.0018663933587959036 0.004955281147785071 0.014513261176438795 -0.006031559430994093 0.006361288603835015 -0.00074654795510772 0.004542238072543923
0.007835962470077599 0.005367954892183964 0.0858641481470494 0.010139619585104464 0.004804264684762096 -0.011585441578756132 -0.023646100058353374 -0.009940296181455432
00000000: 295c 8fc2 e10a 753f a470 3d9a d607 4a3f
00000010: 3333 3303 5dce 493f c3f5 281c fd76 4abf
00000020: 48e1 7ae4 ca2e 65bf 1f85 ebb1 a919 53bf
00000030: 1f85 eb91 b93b 52bf 14ae 47c1 3c52 163f
00000040: 713d 0a97 2092 39bf 48e1 7a94 1225 593f
00000050: 8fc2 f528 f6b3 083f 14ae 4701 e84e 4f3f
00000060: 48e1 7a94 debe 65bf ec51 b81e 87dd f73e
00000070: 0ad7 a3d0 c65c 63bf f628 5ccf 5788 70bf
00000080: 1f85 ebd1 bd7b 4bbf b81e 85ab c20f 5c3f
00000090: 3d0a d723 5ccc 29bf d7a3 705d 6f75 52bf
000000a0: 85eb 5178 7650 4cbf ae47 e17a daef 2e3f
000000b0: e17a 14ae 3f33 fd3e c3f5 287c 0275 6dbf
000000c0: a470 3d0a 0536 023f c3f5 285c 9944 5b3f
000000d0: 52b8 1e65 3777 5abf 85eb 5168 5036 64bf
000000e0: 14ae 47e1 b58b 273f d7a3 70bd d13a 383f
000000f0: 6666 6686 b79c 4e3f cdcc cccc 8454 4f3f
00000100: cdcc ccac e4bb 4abf 85eb 5138 703e 57bf
00000110: 0ad7 a3e0 b802 553f 0000 00e0 e2eb 5a3f
00000120: c3f5 28dc 482a 673f 713d 0ad7 740f 283f
00000130: ec51 b85e 04d7 563f 7b14 ae87 07a5 723f
00000140: 85eb 5128 bb3c 503f 6666 66c6 888b 5fbf
00000150: 8fc2 f528 f558 4c3f ae47 e1ba 1d1c 683f
00000160: 85eb 5178 ef68 33bf 713d 0a67 7f59 543f
00000170: 48e1 7ad4 1a4f 54bf 713d 0ab7 9874 4a3f
00000180: 14ae 4741 77ee 5c3f 3333 3353 3993 583f
00000190: 91cf ba51 80cd 803f 3eeb 06f3 0316 573f
000001a0: d60d a678 eda4 543f 239f 7503 38ff 5bbf
000001b0: b46e 30c5 cc4d 71bf 8329 f2f9 aa96 5ebf
000001c0: 9f75 8309 3b16 62bf 8a7c d66d 6325 2c3f
000001d0: 7dd6 0d26 1164 3fbf 6f30 451e 1800 623f
000001e0: 0ea6 c8c7 d237 39bf ad1b 4cc1 6e26 5c3f
000001f0: a6c8 67fd d111 6fbf 53e4 b36e bb80 003f
00000200: ad1b 4cd1 bd5a 67bf 8a7c d60d d86f 78bf
00000210: bbc1 14b9 307d 57bf 9f75 8339 82b7 603f
00000220: b46e 30a5 f019 1cbf d0ba c134 2bac 40bf
00000230: f259 3748 b838 54bf dd60 8a7c 5f7b 1a3f
00000240: 68dd 60aa 9526 393f c214 f94c e270 76bf
00000250: f9ac 1bec f0fc 383f 2af2 5937 6f2e 5f3f
00000260: 68dd 603a 14f9 62bf 7dd6 0d46 6fc1 6ebf
00000270: 3eeb 0693 91b6 3c3f c967 dde0 21bc 23bf
00000280: 7dd6 0d86 8121 513f bbc1 1419 eb9d 553f
00000290: 618a 7c96 5155 54bf 68dd 606a 5ba2 56bf
000002a0: 9f75 8369 44b2 613f d0ba c194 8dc7 623f
000002b0: 3eeb 06b3 6c2b 703f 9822 9ff5 489c 1cbf
000002c0: 2af2 5937 5718 603f 9822 9fb5 85ed 793f
000002d0: d60d a608 36ed 543f 7dd6 0d26 7c50 60bf
000002e0: a6c8 678d 5d4c 553f f259 37f8 8777 723f
000002f0: 453e ebd6 2e3a 53bf 8a7c d62d 780e 5f3f
00000300: dd60 8aac 63f3 50bf dd60 8afc aac8 563f
00000310: 618a 7c06 9474 653f c214 f97c 63c4 603f
00000320: 34d6 87e6 62a9 8a3f 54f0 725a 136c 623f
00000330: cc29 7899 2808 5e3f 3f34 d637 5974 67bf
00000340: 637d 683c 1312 7abf 7d68 ac7f 5fbf 66bf
00000350: 54f0 729a 490b 6ebf 54f0 721a 8eec 3b3f
00000360: 15bc 9cd2 eeeb 44bf 15bc 9c62 e539 693f
00000370: c7fa d0b8 008b 4ebf 4ec1 cb89 a921 663f
00000380: 88c6 fa20 dae0 75bf 2fa7 e0e5 34c0 dfbe
00000390: 6edb b6ed 81b0 6cbf dbb6 6d7b 1e6a 81bf
000003a0: ac0f 8dc5 c715 62bf dbb6 6d4b 957c 643f
000003b0: 68ac 0f8d 6105 f03e 0a5e 4e41 a582 2c3f
000003c0: a7e0 e5b4 800e 5cbf 54f0 728a 73d8 11bf
000003d0: 2fa7 e0b5 81e4 4d3f c1cb 29d8 b967 80bf
000003e0: e614 bccc 16b2 4c3f a7e0 e504 fa7e 623f
000003f0: c1cb 2998 5c82 6abf 88c6 fad0 8c78 76bf
00000400: d158 1faa 4cd4 493f 7d68 acef 603b 49bf
00000410: 2a78 3925 9ebe 533f d158 1f7a 2189 5c3f
00000420: 8397 53d0 5d26 5ebf a7e0 e514 ada8 56bf
00000430: 88c6 fa20 abd9 6a3f 1f1a eba3 9367 693f
00000440: 88c6 fa10 1649 763f 4ec1 cb19 8a89 41bf
00000450: 2fa7 e005 39b8 663f 4ec1 cb49 d0cc 813f
00000460: 0000 0060 52df 5b3f fbd0 583f 80b6 60bf
00000470: 3905 2fc7 f3f7 5f3f eb43 631d 9916 7b3f
00000480: cc29 7829 4bca 62bf d687 c65a dbeb 663f
00000490: 1f1a ebc3 2877 4bbf c7fa d0c8 5773 613f
000004a0: 8df5 a151 3cb4 6e3f 9d82 9703 55ae 663f
000004b0: 7e8a 4b76 a8c3 953f 08d6 d106 aa75 6c3f
000004c0: d2e6 7dca e1c7 643f 1982 7594 530f 72bf
000004d0: 545c 3294 a410 83bf 970c c14a 4774 70bf
000004e0: 8275 b459 b17e 77bf 9fe2 9241 ce25 4a3f
000004f0: 7a9f e292 e0ce 4ebf b964 0816 7db4 713f
00000500: e392 2188 ac22 5bbf 8a4b 8640 2886 703f
00000510: 2643 b00e 5115 7fbf 7a9f e212 48c0 24bf
00000520: dea7 b834 8d1d 72bf d2e6 7d9a 80a2 88bf
00000530: b964 0876 c3ca 6abf 69f3 3e85 f52a 6a3f
00000540: 0000 00c0 88b0 293f 3fc5 2573 2786 513f
00000550: 71c9 10cc 5954 63bf 76b4 79bf 2af7 32bf
00000560: 37ef 53fc b2de 5c3f dabc 4f01 83d2 87bf
00000570: 1d6d ded7 2cd4 5a3f bd4f 7129 c023 673f
00000580: eb68 f36e 3779 72bf 0dc1 3aca 6a51 80bf
00000590: 37ef 534c 0134 553f b964 08c6 abc8 58bf
000005a0: 5071 c9d0 febd 573f c910 ac23 5b38 623f
000005b0: 3204 ebf8 097f 66bf b964 0876 ba31 58bf
000005c0: 43b0 8ef6 c484 733f 3204 ebd8 59f1 703f
000005d0: 970c c1ba b1ef 7e3f 9321 585f e6c4 53bf
000005e0: e77d 8a9b 6f65 703f 6dde a788 389b 883f
000005f0: 1982 7594 4377 633f 9321 5807 a9a3 60bf
00000600: 2643 b02e caa3 683f eb68 f31e a3b6 833f
00000610: 3bda bc4f f90f 6fbf 1d6d de37 ccea 703f
00000620: b479 9fa2 10fa 46bf 3fc5 2533 a774 693f
00000630: 9321 58c7 f9d4 753f f829 2ef9 ccf2 6e3f
00000640: 721c c738 fe31 a33f 398e e35a 3e80 763f
00000650: 1cc7 7162 a841 6c3f 1cc7 7120 5887 7bbf
00000660: 721c c713 b65d 8cbf 1cc7 71f4 1535 78bf
00000670: 398e e38a 698f 82bf 398e e3e0 3c18 593f
00000680: e438 8e09 ab9a 59bf c771 1c77 a2cb 793f
00000690: 398e e3c4 7d4b 66bf 398e e3c8 ebd3 783f
000006a0: 5555 554b 911c 87bf 0000 002a 34ff 42bf
000006b0: 1cc7 7138 251a 78bf 398e e3b2 a9f9 91bf
000006c0: abaa aa30 1a25 74bf e438 8ee5 c6fa 713f
000006d0: 8ee3 b814 bc82 403f 0000 00ef ea3b 613f
000006e0: 5555 55c7 2360 6bbf 398e e342 dc33 44bf
000006f0: c771 1c27 542d 6b3f 721c c78f c1ea 91bf
00000700: abaa aae5 0d5e 683f abaa aa8a dc92 6f3f
00000710: 721c c733 339d 7abf e438 8ed1 1594 88bf
00000720: c771 1cb4 5b64 613f e438 8efb 8c0d 64bf
00000730: 8ee3 382a 18a1 5e3f e438 8e7b 7dc2 663f
00000740: c771 1ca6 989e 71bf 398e e388 ed69 5dbf
00000750: 721c c729 c091 7c3f abaa aa14 39dc 763f
00000760: 5555 5573 3d62 863f 8ee3 b8f4 f3c2 63bf
00000770: 1cc7 71b8 df17 793f 0000 0090 76b7 913f
00000780: 0000 00e0 b476 6d3f 0000 009c 3894 5ebf
00000790: e438 8e27 fd4b 743f 398e e3f0 20b9 8d3f
000007a0: 0000 0068 8cb4 78bf 8ee3 3868 4b0e 7a3f
000007b0: abaa aa86 7f76 48bf e438 8ebf e19a 723f
000007c0: 5555 5514 4d0c 803f 5555 556b b5fc 753f
000007d0: 0cc3 305c 31fb b53f 8661 18b4 14c4 843f
000007e0: cff3 3cfb a2ad 733f 6218 86a5 1bba 87bf
000007f0: 6edb b6e9 ae36 98bf 8661 18f8 935b 84bf
