data/SGD/iterates_H2_w10_d50.npy (npy, 160128 bytes, 1 tensors)

array f8 [20, 20, 50]
0	0x3fe3ebf951eb851f	0.6225554084777832
1	0x3f862152af5c28f6	0.01080574605613947
2	0x3fa86399c6666666	0.047634892910718915
3	0x3fad0d1d8147ae14	0.056740686446428296
4	0xbf8fdf7e7851eb85	-0.01556299977004528
5	0xbfaabca68e147ae1	-0.05222053989768028
6	0xbfa2f1ab2e147ae1	-0.037000035643577574
7	0xbfa7d15efc28f5c3	-0.04651924923062325
8	0xbfbfca19d999999a	-0.12417756617069245
9	0x3fab4abfd851eb85	0.05330466762185097
10	0xbfaf3534a3d70a3d	-0.060952801704406735
11	0x3fa2b290f5c28f5c	0.03651860237121582
12	0xbfa17dcabeb851ec	-0.03416284158825875
13	0x3fb9eeefc6666666	0.10130213350057601
14	0x3f8ab058c147ae14	0.01303166713565588
15	0xbfc0db93dd70a3d7	-0.13170097649097443
16	0xbf5c4b29beb851ec	-0.0017269046464934946
17	0xbf9362265999999a	-0.018929099291563035
18	0xbfb258b10a3d70a4	-0.07166582584381104
19	0x3fbeab086e147ae1	0.11979725539684295
20	0x3f99a697e0000000	0.025049565359950066
21	0xbfa7644e28f5c28f	-0.04568714380264282
22	0xbfc1a2ff90a3d70a	-0.13778681337833404
23	0x3fc0a6a74147ae14	0.1300858563184738
24	0xbfbbbfe66b851eb8	-0.10839691281318664
25	0x3f8d184fc28f5c29	0.01420652687549591
26	0x3fb5ff83028f5c29	0.08593005001544952
27	0xbfbed343d999999a	-0.12041114866733552
28	0x3fa7e39453333333	0.046658167988061904
29	0x3fc191635ae147ae	0.13724939286708832
30	0xbfadbda2f1eb851f	-0.058087436705827715
31	0xbfa8a7028e147ae1	-0.04814918503165245
32	0xbfc04c6e73333333	-0.12733250260353088
33	0xbfc1e72af70a3d71	-0.13986718237400056
34	0xbfa4291ce51eb852	-0.03937616631388664
35	0x3fbb4bf82ccccccd	0.10662795156240464
36	0xbf43043497ae147b	-0.0005803353118244559
37	0xbfbb5365fc28f5c3	-0.10674130827188492
38	0x3fb7399e8b851eb8	0.09072295099496841
39	0x3f8f7d808e147ae1	0.0153760951384902
40	0x3fc0e47591eb851f	0.1319720232486725
41	0xbfc17b9488f5c28f	-0.13658386886119842
42	0xbfc08306f47ae148	-0.12899863183498383
43	0x3f9001dbbf5c28f6	0.01563208919018507
44	0xbfbcabd8dd70a3d7	-0.11199717909097671
45	0xbfbf189200000000	-0.12146866321563721
46	0x3fb9731b55c28f5c	0.09941264003515243
47	0xbfbdc703d3333333	-0.11631797701120376
48	0xbfbcced608f5c28f	-0.1125310680270195
49	0x3fa495c9bd70a3d7	0.04020529210567474
50	0x3fe7e97b4dd67c8a	0.74725117876723
51	0x3f8022885acf914c	0.007878365775419248
52	0x3fa3cb71d9f22983	0.038661535124520995
53	0x3fa9cb0520000000	0.05037704482674599
54	0xbf8ca98061bacf91	-0.013995173437571203
55	0xbfaa264df759f22a	-0.05107349056649853
56	0xbfa4e29d7914c1bb	-0.04079143622437039
57	0xbfa7213cf914c1bb	-0.04517546215572873
58	0xbfbf9e5f9c8a60dd	-0.12351033756056347
59	0x3fab449c05306eb4	0.05325782359451861
60	0xbfaf399ebacf914c	-0.060986481002859166
61	0x3fa304e0a45306eb	0.03714658742820894
62	0xbfa1316665306eb4	-0.03358001694888682
63	0x3fba00ad92298376	0.10157284563457644
64	0x3f8d2c1e08a60dd6	0.01424430335897046
65	0xbfc0df03714c1bad	-0.13180583030790896
66	0xbf61eb05606eb3e4	-0.0021872620595417714
67	0xbf92a7de4eb3e453	-0.01821849208224464
68	0xbfb2083368a60dd6	-0.07043763451479576
69	0x3fbe895ef759f22a	0.11928361452914574
70	0x3f999cbc48a60dd6	0.025011960920449848
71	0xbfa7af0ae60dd67d	-0.04625734384800937
72	0xbfc193d4a0000000	-0.13732393085956573
73	0x3fc0b474c0000000	0.13050708174705505
74	0xbfbbc954306eb3e4	-0.10854078466827805
75	0x3f8dc8dc93e45307	0.014543269408514371
76	0x3fb5ea2ea7c8a60e	0.08560458751949104
77	0xbfbedec413e45307	-0.12058663831369297
78	0x3fa7dc33506eb3e4	0.04660187107888428
79	0x3fc1a8246cf914c2	0.1379437954039187
80	0xbfadf35748a60dd6	-0.05849716913055729
81	0xbfa8a9fc660dd67d	-0.0481718897416785
82	0xbfc0449e59f22983	-0.127094072264594
83	0xbfc1dfc34c1bacf9	-0.139641201173937
84	0xbfa42c8f3914c1bb	-0.039402461736588866
85	0x3fbb395a6c1bacf9	0.10634389056547268
86	0xbf518a23cf229837	-0.001070532770009359
87	0xbfbb67d9b83759f2	-0.10705338237253395
88	0x3fb717d446eb3e45	0.09020735484522742
89	0x3f900e0e4298375a	0.015678618254291045
90	0x3fc0ef26ec1bacf9	0.1322983410712835
91	0xbfc16abd245306eb	-0.13606991075180672
92	0xbfc087b3eeb3e453	-0.1291413226643124
93	0x3f907cfba914c1bb	0.01610177249421139
94	0xbfbca033559f2298	-0.11181946602222081
95	0xbfbf1f0a460dd67d	-0.12156738481811576
96	0x3fb9701fc983759f	0.09936712903750909
97	0xbfbdc60db759f22a	-0.11630330778457024
98	0xbfbcc8946b3e4530	-0.1124356042694401
99	0x3fa470ec260dd67d	0.03992402996565845
100	0x3feaad42de0a72f0	0.8336500488981908
101	0x3f77491ce9249249	0.005684960300901106
102	0x3f9e3579df58d0fb	0.02950086999608546
103	0x3fa6330fbac687d6	0.043358317899460694
104	0xbf89d63b943eb1a2	-0.01261564775617147
105	0xbfa991deb2f05398	-0.04994102415381646
106	0xbfa6f1f7f397829d	-0.04481482361348308
107	0xbfa6724f00a72f05	-0.04384085543605746
108	0xbfbf7a425d6343eb	-0.1229592779157113
109	0x3fab49e224924925	0.0532980603831155
110	0xbfaf4c66872f0539	-0.061129764558709394
111	0x3fa35753f0fac688	0.03777563397069367
112	0xbfa0ebbb0343eb1a	-0.03304848112926191
113	0x3fba170680a72f05	0.1019138397306812
114	0x3f8fc8e1687d6344	0.015519867898250113
115	0xbfc0e0f44a72f054	-0.13186505923465808
116	0xbf657166c14e5e0a	-0.002617550557669328
117	0xbf91fccc89249249	-0.01756591403058597
118	0xbfb1b1d30d0fac68	-0.0691196352851634
119	0x3fbe6852487d6344	0.11877931852121743
120	0x3f99a78c2343eb1a	0.025053205158637494
121	0xbfa7ef6f1ac687d6	-0.04674861146783342
122	0xbfc18749c0a72f05	-0.1369411650360847
123	0x3fc0c0cf943eb1a2	0.13088412035484703
124	0xbfbbcf5b9829cbc1	-0.10863277878688306
125	0x3f8e6aa210539783	0.014851823924299406
126	0x3fb5d5608687d634	0.08528712543905997
127	0xbfbeed2ea343eb1a	-0.12080661283463848
128	0x3fa7d11090539783	0.046516912096008965
129	0x3fc1bd43f0fac688	0.13858842150289186
130	0xbfae2ce329249249	-0.05893621327621596
131	0xbfa8a37ccdb6db6e	-0.0481223107448646
132	0xbfc03c20072f0539	-0.12683487272992425
133	0xbfc1d8220539782a	-0.13940835242368738
134	0xbfa42df2672f0539	-0.03941304692808462
135	0x3fbb29af197829cc	0.10610479709445214
136	0xbf59addc20539783	-0.001567330329004219
137	0xbfbb7fae2c687d63	-0.10741699775870965
138	0x3fb6f37414e5e0a7	0.08965230474666673
139	0x3f90640521a1f58d	0.016006546190046534
140	0x3fc0fa0e2f053978	0.1326310853568875
141	0xbfc1594a07d6343f	-0.13553738958981573
142	0xbfc08d5d65e0a72f	-0.12931411241998478
143	0x3f91032cc1f58d10	0.0166136735327998
144	0xbfbc91692c687d63	-0.11159379324134515
145	0xbfbf2718472f0539	-0.12169028985865261
146	0x3fb96b1052f05398	0.0992899134146924
147	0xbfbdc51614e5e0a7	-0.11628854761318284
148	0xbfbcc4e525e0a72f	-0.11237938093895815
149	0x3fa44dd336343eb2	0.039656257979115664
150	0x3fec7888c9f79b47	0.8897136635467654
151	0x3f70d6754ac10c97	0.00411077325049116
152	0x3f9539d11a7de6d2	0.020728366128856042
153	0x3fa28d01268eb043	0.036232028919898095
154	0xbf876548d60864b9	-0.011423653632890983
155	0xbfa90523ec9714fc	-0.048867342596659896
156	0xbfa8ffe084325c54	-0.04882718671540745
157	0xbfa5cb9c66d1d608	-0.04256905322192145
158	0xbfbf5cdf6b04325c	-0.12251087534623067
159	0x3fab56d17e6d1d61	0.05339674633301673
160	0xbfaf683574fbcda4	-0.061341925173020756
161	0x3fa3a6a369714fbd	0.03838072454587358
162	0xbfa0ade6d2e29f7a	-0.03257676433832919
163	0x3fba2fd4e864b8a8	0.10229235337894471
164	0x3f913136668eb043	0.01678929329834512
165	0xbfc0e1c75f79b476	-0.13189022218594787
166	0xbf68a8402da3ac11	-0.0030099156839376103
167	0xbf9162f833ef368f	-0.016979101342988797
168	0xbfb15ad20fbcda3b	-0.0677920616552478
169	0x3fbe48fd8fbcda3b	0.11830124625417053
170	0x3f99c05ecc10c971	0.025147896962331943
171	0xbfa825ef2da3ac11	-0.04716441566582586
172	0xbfc17d18925c53ef	-0.13663012644306557
173	0x3fc0cba589f79b47	0.13121480213814093
174	0xbfbbd2c0429f79b4	-0.10868455530678639
175	0x3f8efb6e69714fbd	0.01512800463948582
176	0x3fb5c1c054758219	0.08498766004550652
177	0xbfbefd12ac9714fc	-0.12104908670069742
178	0x3fa7c38b053ef369	0.04641375006710897
179	0x3fc1d07053ef368f	0.13917354677544266
180	0xbfae66d9b82192e3	-0.05937843678183243
181	0xbfa8968318a7de6d	-0.04802331615422593
182	0xbfc0337b29f79b47	-0.12657107876949622
183	0xbfc1d0a8b0c97150	-0.1391802657334531
184	0xbfa42dc805c53ef3	-0.03941178389015745
185	0x3fbb1cbb5ac10c97	0.10590716329265813
186	0xbf60c99baf79b476	-0.0020492592555486034
187	0xbfbb98ed1ac10c97	-0.10780221846748571
188	0x3fb6ceaf3c53ef37	0.08909125540588723
189	0x3f90bb50760864b9	0.01633954735197982
190	0x3fc104abd14fbcda	0.13295505256926426
191	0xbfc14819368eb043	-0.1350127712624972
192	0xbfc09384ad1d6086	-0.12950190022343494
193	0x3f918be83de6d1d6	0.01713526609246848
194	0xbfbc80fb314fbcda	-0.11134309724706118
195	0xbfbf2fee9ac10c97	-0.12182513502289037
196	0x3fb964b1f1d60865	0.09919273523522205
197	0xbfbdc42e7d60864c	-0.11627474366152873
198	0xbfbcc325a192e29f	-0.11235270685836916
199	0x3fa42d55e6d1d608	0.039408382822255617
200	0x3fed9f6bd5c71c72	0.9257105994555686
201	0x3f68595f5c000000	0.0029723036277573556
202	0x3f89c3d5c9555555	0.01258055706663678
203	0x3f9e03928071c71c	0.029310502137781844
204	0xbf85424cc871c71c	-0.010380363337592118
205	0xbfa8818a8071c71c	-0.047863319567922086
206	0xbfaafc386f1c71c7	-0.05270553928696447
207	0xbfa52f0faf1c71c7	-0.04137467396342092
208	0xbfbf445ec8000000	-0.12213699705898762
209	0x3fab67eb0a38e38e	0.05352720737250315
210	0xbfaf886f4c000000	-0.06158778956159949
211	0x3fa3f1d035555555	0.03895426417390505
212	0xbfa076ec25c71c72	-0.032157306300683156
213	0x3fba4987131c71c7	0.10268444267825948
214	0x3f9273a0ee000000	0.018019213224761188
215	0xbfc0e1e9331c71c7	-0.13189425464305612
216	0xbf6b97d334e38e39	-0.0033682942513324735
217	0xbf90d7cb2e71c71c	-0.016448187551254198
218	0xbfb105f9d78e38e4	-0.06649743568980032
219	0x3fbe2b9314000000	0.11785239446908236
220	0x3f99e0f301555555	0.02527217574728032
221	0xbfa854cd65c71c72	-0.047521990465207234
222	0xbfc174a1e9555555	-0.13637184041241804
223	0x3fc0d53d84000000	0.13150757737457752
224	0xbfbbd46f28e38e39	-0.10871023891700639
225	0x3f8f7d9fb071c71c	0.015376327106625669
226	0x3fb5af6340e38e39	0.08470745405389203
227	0xbfbf0d68b4e38e39	-0.12129835525734557
228	0x3fa7b4c816aaaaab	0.046301129118849836
229	0x3fc1e1e94a38e38e	0.13970676540500587
230	0xbfae9f6be9555555	-0.059810039742539324
231	0xbfa885e4178e38e4	-0.04789650714438823
232	0xbfc02afb5071c71c	-0.1263116972727908
233	0xbfc1c9807f8e38e4	-0.13896185138987172
234	0xbfa42ca0d71c71c7	-0.03940298677318626
235	0x3fbb11d339c71c72	0.1057407394465473
236	0xbf648d049038e38e	-0.0025086487892420134
237	0xbfbbb24ef1c71c72	-0.1081895199086931
238	0x3fb6aab396aaaaab	0.08854219845185678
239	0x3f9110ff1f8e38e4	0.01666639928912951
240	0x3fc10ecee71c71c7	0.13326441082689497
241	0xbfc1378c09555555	-0.13450766044358411
242	0xbfc099d15e38e38e	-0.1296941480702824
243	0x3f921262fc71c71c	0.017648264558778867
244	0xbfbc700095c71c72	-0.11108401924785641
245	0xbfbf38fc0f8e38e4	-0.12196326617979342
246	0x3fb95daa8d555555	0.09908548307915528
247	0xbfbdc35dc78e38e4	-0.11626230356180006
248	0xbfbcc29ccd555555	-0.11234455121060212
249	0x3fa40f54cd555555	0.039179468216995396
250	0x3fee671431e79e7a	0.9500828718855268
251	0x3f610f16953cf3cf	0.0020823899339163852
252	0x3f72d91b94f3cf3d	0.0046015813270406354
253	0x3f96cda1c93cf3cf	0.022268798740004144
254	0xbf8339d820924925	-0.009387672895432584
255	0xbfa7fe493edb6db7	-0.04686192409800632
