data/SGD/iterates_H1_w10_d50_depth1_indim100.npy (npy, 160128 bytes, 1 tensors)

array f8 [20, 20, 50]
00000000: ae47 e17a 3456 e83f 1f85 eb71 5b9c 8bbf
00000010: 0ad7 a3e0 7853 c0bf cdcc cc8c b3d2 a4bf
00000020: 85eb 5118 0536 ac3f 1f85 ebf1 73b5 b8bf
00000030: 14ae 4741 72a1 aa3f a470 3d4a 3394 9a3f
00000040: d7a3 707d 8da3 a23f 9a99 99f9 3017 a43f
00000050: 7b14 ae07 51d8 a7bf a470 3dea 952e 9f3f
00000060: 1f85 ebb1 7370 a13f a470 3d0a 6b8f a83f
00000070: cdcc cc0c 70b8 a03f 1f85 eb91 9080 b9bf
00000080: ec51 b8fe ed8e bc3f 85eb 51d8 b1b6 a4bf
00000090: cdcc ccac 5aba b53f a470 3dea a1cc a4bf
000000a0: a470 3d5a 32a8 b13f 1f85 eb11 2bc4 a4bf
000000b0: 713d 0a57 dc94 7bbf 3333 33f3 19a1 b63f
000000c0: 3333 3333 3898 b2bf a470 3dca 4c79 963f
000000d0: 9a99 9999 3c45 b0bf 5c8f c235 49ca 98bf
000000e0: f628 5c6f 6a1c b9bf ae47 e1ba 0bc2 a7bf
000000f0: 52b8 1e15 89c8 a13f 3d0a d783 2282 84bf
00000100: c3f5 281c 0000 71bf 85eb 5178 07f7 af3f
00000110: b81e 85cb 542e 9c3f 52b8 1e05 a080 bbbf
00000120: 5c8f c235 a71c a53f 5c8f c295 edef c2bf
00000130: f628 5c8f 9a95 97bf b81e 85eb 7baa 94bf
00000140: 0000 0000 1906 b5bf c3f5 285c c495 733f
00000150: 5c8f c2a5 b691 b2bf 3d0a d703 5780 83bf
00000160: 3333 3333 3177 abbf e17a 14de 77a5 a43f
00000170: 295c 8ff2 8b03 953f 8fc2 f548 76a4 afbf
00000180: 5c8f c2e5 cc30 b03f ae47 e14a 0818 a3bf
00000190: bbc1 14d9 7e98 ed3f 68dd 605a 9ba8 88bf
000001a0: b46e 3005 494e bfbf 3045 3e8b 6c4d aebf
000001b0: c967 dde0 c9f2 aa3f c967 dd20 1293 b7bf
000001c0: f259 3728 0182 9f3f e4b3 6e70 bd3f a03f
000001d0: 2af2 59b7 1299 a43f 3045 3e4b 6f19 a53f
000001e0: 15f9 ac5b 1dae abbf d0ba c144 6f6e a43f
000001f0: d60d a628 8d29 a23f 3045 3ecb 2b7e ad3f
00000200: c967 dd60 b198 a63f 68dd 60ea 7905 bcbf
00000210: eb06 5364 236d bf3f f259 37d8 9090 a4bf
00000220: dd60 8a9c e2db b93f 8329 f299 6477 a6bf
00000230: 239f 75e3 3f0d b33f 9f75 83e9 bf81 a5bf
00000240: 0000 0000 db9d 65bf bbc1 1459 9a92 b93f
00000250: 8a7c d66d 8719 b5bf ad1b 4c91 a9c3 9e3f
00000260: 91cf ba21 682d b4bf ad1b 4c71 bb48 99bf
00000270: 8a7c d60d 25aa bcbf 453e ebc6 a6d5 a6bf
00000280: 6f30 45be ce26 9d3f ad1b 4c51 1a28 71bf
00000290: 453e eb06 478e 71bf 5a37 98c2 9170 b13f
000002a0: 5a37 9862 ad47 a13f 8a7c d62d 57e6 bfbf
000002b0: e4b3 6e40 96e2 a03f 239f 7503 1073 c5bf
000002c0: 5a37 9822 b963 a2bf c967 dd40 5d9a 96bf
000002d0: eb06 53a4 851c b6bf 7683 29f2 d8d7 893f
000002e0: 618a 7c36 dbde b5bf 3eeb 0653 3247 3b3f
000002f0: 68dd 600a 7a06 abbf d0ba c194 c333 a83f
00000300: 9f75 8349 2aa5 9a3f f259 3738 17a0 aebf
00000310: 2af2 5917 8859 b13f f9ac 1b4c daaa aabf
00000320: 4992 24a9 ad49 ef3f d687 c6ba f3a9 7fbf
00000330: eb43 63bd cb10 bcbf 7d68 ac4f f207 b3bf
00000340: a2b1 3ef4 1259 a73f e614 bc8c 08ff b3bf
00000350: cc29 78b9 a857 673f 2fa7 e045 2d75 a13f
00000360: b23e 3436 c15b a23f 4463 7d68 757a a43f
00000370: 7839 050f 003e acbf 5e4e c16b 6d1f a83f
00000380: 9d82 9783 8ef2 a03f 4ec1 cb59 ebaf b03f
00000390: 0000 00c0 c9e0 aa3f b76d dbb6 92ed bbbf
000003a0: 4463 7d28 7378 be3f a7e0 e5f4 ee58 a2bf
000003b0: 8397 53d0 b66d bc3f 54f0 728a cae3 a5bf
000003c0: 7d68 ac8f 74c0 b23f 8397 53d0 ef0f a5bf
000003d0: 3905 2fa7 61a3 643f 0000 0000 32fa b93f
000003e0: a2b1 3e14 3eeb b5bf ac0f 8dd5 43f9 a13f
000003f0: 54f0 72ca dd88 b5bf fbd0 58ff d3c9 99bf
00000400: 108d f5e1 5be2 bdbf fbd0 584f 7736 a2bf
00000410: 9853 f0e2 a49e 953f 052f a760 8e9f 633f
00000420: 9224 4992 a67b 62bf d687 c6ba c1d5 b03f
00000430: 6edb b62d ec40 a23f 9d82 97b3 d652 c0bf
00000440: a2b1 3ed4 0a55 963f 8df5 a1d1 a953 c6bf
00000450: b76d db96 a84b a8bf 9d82 9753 bb40 94bf
00000460: 7839 05ef c35e b5bf 3905 2fc7 19de 953f
00000470: a2b1 3e94 48bd b7bf 0000 00d0 c86d 8a3f
00000480: 637d 684c 518b a7bf 1aeb 4383 d7a0 a73f
00000490: 108d f5c1 e1b2 9a3f 7d68 ac8f 8210 adbf
000004a0: 108d f511 e6ad b03f fbd0 587f 7510 aebf
000004b0: c13a dabc 60bb ef3f 08d6 d1c6 d0cc 71bf
000004c0: 5071 c950 fe65 b9bf cefb 1417 04d7 b5bf
000004d0: bd4f 7119 90e2 a33f fc14 973c dc5d b0bf
000004e0: 04eb 6803 4428 97bf dea7 b8c4 320e a23f
000004f0: 5071 c9f0 2079 9e3f 8f36 efb3 ad70 a33f
00000500: 3204 eb08 17ba abbf 9bf7 29ae 25e3 aa3f
00000510: b479 9f62 3f9f 9e3f 9fe2 92f1 5528 b23f
00000520: 37ef 539c b895 ae3f 71c9 10cc ba1b bbbf
00000530: 8f36 efb3 3868 bc3f c910 ac43 f2d4 9ebf
00000540: 0000 0080 2f6a be3f 2a2e 1982 98d8 a4bf
00000550: fc14 974c df10 b23f dabc 4fd1 4b4b a4bf
00000560: bd4f 71c9 5697 7d3f 8660 1d8d 07ab b93f
00000570: 9321 58a7 9f0f b6bf cefb 14b7 b3b0 a33f
00000580: 5847 9b77 f707 b6bf a4cd fb94 afa0 9abf
00000590: a4cd fbf4 d458 bebf d2e6 7d0a 22f3 99bf
000005a0: 5071 c9b0 4cb6 8c3f 8660 1d4d 2953 813f
000005b0: e77d 8a4b 1606 293f 1d6d de47 d68c af3f
000005c0: 2e19 82f5 1d75 a23f dabc 4f31 4418 c0bf
000005d0: 43b0 8ed6 4a22 863f 1597 0c41 efad c6bf
000005e0: 2258 47bb 3c65 adbf 2258 471b 3277 90bf
000005f0: 8660 1dad 0721 b4bf c525 4310 c53e 9e3f
00000600: c910 aca3 4006 b9bf 2258 474b 9074 993f
00000610: 7e8a 4bc6 b17d a3bf 970c c11a bde6 a53f
00000620: cefb 14d7 fb22 993f dabc 4fd1 bca7 abbf
00000630: 611d 6d5e 831f af3f cefb 1437 b0e9 afbf
00000640: 5555 55f9 a2dd ef3f 721c c7a9 f7d0 62bf
00000650: 0000 00fc 83a0 b7bf e438 8e3b f4d6 b7bf
00000660: c771 1ce9 e327 a13f 5555 5559 2ba6 aabf
00000670: c771 1c02 836b a6bf 0000 00b0 ef79 a23f
00000680: 1cc7 71ea 43ac 983f e438 8e33 256d a23f
00000690: e438 8e9b 2af3 aabf 398e e304 970b ad3f
000006a0: 721c c755 f28d 9b3f c771 1cd7 7d4a b33f
000006b0: e438 8ef9 d804 b13f 0000 0014 b538 babf
000006c0: 1cc7 7108 5138 ba3f 721c c729 f2b1 98bf
000006d0: 0000 007a 0d16 c03f 721c c7d9 4eef a3bf
000006e0: 5555 5545 c469 b13f c771 1c23 eb88 a3bf
000006f0: 398e e378 d2e6 863f 8ee3 38ba c243 b93f
00000700: e438 8ef7 14f8 b5bf abaa aa26 5fee a43f
00000710: e438 8e33 944c b6bf c771 1c47 f3cc 9bbf
00000720: 721c c735 629f bebf 398e e3c8 1224 90bf
00000730: abaa aace eeaf 7e3f c771 1c0f 7d2d 8c3f
00000740: abaa aa4a d4dc 643f e438 8e47 5f90 ad3f
00000750: 1cc7 71d0 1a75 a23f 721c c705 8973 bfbf
00000760: 1cc7 71dc 6e87 4a3f abaa aa4e a0e9 c6bf
00000770: 1cc7 715a 03e8 b0bf 0000 0070 0dbb 88bf
00000780: c771 1c0f 60db b2bf 398e e38a 15e5 a23f
00000790: 1cc7 719c f313 babf c771 1c01 873b a23f
000007a0: e438 8e1b 9e49 9fbf 721c c7f9 860e a43f
000007b0: c771 1c73 6c4f 973f 8ee3 386a 298c aabf
000007c0: 8ee3 38c2 65ef ac3f abaa aa1e d59e b0bf
000007d0: 4992 24f1 52ec ef3f c330 0ca3 32a8 52bf
000007e0: cff3 3caf a178 b6bf 0cc3 3014 055a b9bf
000007f0: 8661 1836 58ff 9d3f dbb6 6d9b 9c78 a5bf
0.7605230712890625 -0.013481821455061436 -0.12754736870527267 -0.04067002385854721 0.055099639147520064 -0.09651875168085099 0.05201298758387565 0.025955964475870133
0.036404058039188385 0.03923943564295769 -0.046572239100933076 0.030451147481799126 0.034061065167188646 0.04796919345855713 0.03265714794397354 -0.09961799204349518
0.11155593365430833 -0.04045634999871254 0.08487478941679001 -0.040623721927404405 0.06897272780537606 -0.04055914491415024 -0.006733761504292488 0.08839571177959442
-0.07263518571853637 0.0219470976293087 -0.0635564684867859 -0.02420915976166725 -0.09808984011411667 -0.04640232712030411 0.03473308928310871 -0.010013837479054927
-0.004150391034781933 0.062431558072566985 0.02752048961818218 -0.10743141293525696 0.041234231293201445 -0.14794702351093292 -0.023031630516052247 -0.02018159508705139
-0.08212429285049438 0.004781500846147538 -0.07253591105341911 -0.00952213268727064 -0.05364373922348022 0.040324922427535055 0.02052134197205305 -0.061801620870828626
0.06324463471770286 -0.0372927276045084 0.9248651733269563 -0.012040342040662025 -0.12228828789414586 -0.05918444823977109 0.05263357992107804 -0.0920878725277411
0.03076936538658432 0.03173629758325783 0.04023035514999081 0.04120967668053266 -0.05406276458824003 0.0399050494605625 0.035473262035363426 0.05760323387142774
0.04413370425636704 -0.10945856067779902 0.12275906752895664 -0.04016544951780422 0.10101143190184154 -0.04387964610312436 0.0744209223099657 -0.042005536322658125
-0.002638747915625572 0.09989323305922586 -0.08242079192722165 0.030043267720454448 -0.07881785224418382 -0.024691513815038913 -0.11197120273435437 -0.04459878137788257
0.028468351710487057 -0.004188635638235389 -0.0042860769742244 0.06812392235607714 0.03374997929141328 -0.12460846776092374 0.03297872101334301 -0.16757393044394417
-0.03591707751557634 -0.02207322796252934 -0.08637271177124332 0.012618727579310134 -0.08543176727520453 0.0004162309515113766 -0.05278378845872106 0.047269927891525065
0.026020680176647933 -0.05981514512284382 0.06777239389516213 -0.052084752836742916 0.9777439406939915 -0.0077304382979565735 -0.10963128446316232 -0.0743400043978983
0.04560145598893263 -0.07811025081544506 0.002849416294116147 0.03409711339948129 0.035856283060750185 0.03999678516874508 -0.05516052420954315 0.04711477222795389
0.03310056072564758 0.06518431608470118 0.05249624699354172 -0.10909382786069598 0.11902541864891442 -0.035834758181353 0.11104910455796184 -0.04275353374529858
0.0732491350903803 -0.04113721292541952 0.0025193125997879065 0.10147392749786377 -0.0856207656312962 0.03510486585449199 -0.08411966507532159 -0.025183975658550555
-0.11673521296102174 -0.03557179301825105 0.021112991667979836 0.0023954182445090643 -0.0022562268589224133 0.06576166925381641 0.03565156991992678 -0.12752803582317976
0.021808785633469115 -0.17442820297212017 -0.04745222894208772 -0.019778182007828538 -0.08347725472888168 0.02135505941601432 -0.09273198718319134 0.012904709670692682
-0.04598478372303807 0.04614900090560621 0.02607300516446026 -0.056766586340203574 0.06515348375755914 -0.05871932200935422 0.9916232765698042 -0.004345717939135969
-0.09921254608474794 -0.08531213344120589 0.03883791266039747 -0.06393219451190996 -0.022614538868064762 0.03526457454093167 0.029758944221940198 0.03796904393639721
-0.05415412887442307 0.05251424551987257 0.029904356379000865 0.07092797420308238 0.05973603161143475 -0.1058918712813346 0.1109652938168557 -0.030109200840357873
0.11880776286125183 -0.040714994317195455 0.07056995029332208 -0.0396369641310856 0.007224406253118984 0.10026595301803995 -0.08617589793732909 0.038457504366753534
-0.08605906171876876 -0.026003592937696177 -0.11854296666188319 -0.025341541185730794 0.014019583840472777 0.00845939890466264 0.00019091627270471855 0.06162137629800155
0.036049782008421224 -0.12574055106913457 0.010807594940921322 -0.1771830623267127 -0.05741300378910831 -0.01607969562049772 -0.07862899757799555 0.029536322705814095
-0.09775165553952826 0.02485871753182079 -0.03806834741205466 0.042776021495705745 0.024547514917909123 -0.05401411109039041 0.06078730132736144 -0.06232977554690643
0.9958052511016527 -0.002296909062554025 -0.09229302313178778 -0.09312368825905853 0.03350746365160578 -0.05204902139181892 -0.04378899956484222 0.03608654998242855
0.02409463995395021 0.03598896269169119 -0.0526364626776841 0.056729049059665866 0.02690867088838584 0.07535540105568038 0.06648021786370212 -0.10242778528481722
0.10242182212985224 -0.02411630992881126 0.1256729932501912 -0.03893515022678508 0.0680201215048631 -0.03815398028948241 0.011182445825801956 0.09869019552651379
-0.08581667941891485 0.04088113162045678 -0.08710600145988995 -0.027149010863569047 -0.1196195012372401 -0.015762609015736315 0.007492001381857942 0.013758637450842394
0.0025467058488478265 0.05774209736328986 0.03604968828666541 -0.12285667792376545 0.0008096019090670678 -0.1790047058214744 -0.06604023893467253 -0.012075524311512709
-0.07365990036891566 0.03690402336522109 -0.10186693734592861 0.035610407720216446 -0.03055426638780369 0.03917333411259784 0.022763914609741833 -0.05185059949548708
0.05651395793797241 -0.0649235916013519 0.9975981435605458 -0.001138734293081576 -0.08777819183610734 -0.09902984373981044 0.02929437475367671 -0.04193581960030964
