data/SGD/iterates_H1_w10_d50_depth2_indim10.npy (npy, 160128 bytes, 1 tensors)

array f8 [20, 20, 50]
0.02869465373456478 -0.020649818480014803 -0.012074797339737415 0.020533456280827523 0.0055306326597929 0.0127931060642004 -0.0011941631883382797 0.008340119197964669
0.00842159504070878 -0.010084013845771551 0.03080947309732437 -0.004149863002821803 0.0018973102001473307 -5.5944547057151794e-05 -0.012736911214888095 0.0076821418851614
0.00946757908910513 0.00051187664270401 -0.007978238649666309 0.012430892921984196 -0.0074962547793984416 0.005963450036942959 0.03031462088227272 -0.01589934293180704
0.0008066902495920659 0.012841488383710385 -0.0050549119338393214 0.013298255763947964 -0.005104259997606278 0.025759991481900214 -0.004876521313562989 -0.007458118814975023
-0.0008045973815023899 -0.0043742645531892775 -0.028187404945492746 0.005534144463017583 -0.005979803316295147 -0.005619980115443468 0.015601035878062249 -0.0053065723273903135
0.016958037354052068 0.021011854857206344 0.004027853501029312 0.01631886750459671 0.022871633470058442 0.009790737591683864 -0.015218321420252322 -0.01858075499534607
-0.02015100583434105 0.008897155597805977 0.06620844941888307 -0.027697680971106968 -0.008537352034771765 0.02263255014612868 0.00656842120696564 0.010821091816634746
-0.007510433640532397 0.016032445106051257 0.010741499466569843 -0.015991004007692274 0.04040906678985905 0.00048595466776876837 0.00043403701793805167 0.0013786224660941877
-0.01485438712847394 0.0036161632176387954 0.013444095724136443 -0.00020342289998724654 -0.01357113174792077 0.021338520697443873 -0.010081158195798462 0.008859649061451893
0.03916917776537908 -0.027024498335211665 -0.0023907368398598723 0.018684211740824016 -0.010042619513901504 0.013639880268759019 -0.011924888850567309 0.031196229663249607
-0.0037907860871102357 -0.012726956814829563 -0.0028671462944633254 -0.009300312354556611 -0.03298161868509408 0.011624114235510697 -0.012698618002940674 -0.003063990530004171
0.02376576913268985 -0.0004578291035785868 0.023344819736037706 0.02841702355323611 0.0001746093055132676 0.02790252899600042 0.02321210634466764 0.010727276194941354
-0.017387258039938437 -0.022918100594668776 -0.025355216518447205 0.015217342489474529 0.1651601087377996 -0.05396080477049156 -0.0032089604326162716 0.03797657540714254
0.007742675724534356 0.011747666895959755 -0.02597707161223706 0.034093319457404465 0.01485373857146015 -0.026748819884901145 0.06357234594773273 0.003112126692977487
-0.005216507005923409 0.0005985948599266762 -0.019535083665835614 0.0013563814477957025 0.022203990334302794 0.0004418494978121349 -0.025482835115066597 0.04233203917665749
-0.01193843958709313 0.012061368579006925 0.06280134177329588 -0.049759202655784936 -0.0040107341388202445 0.03263497006680284 -0.02364776629422392 0.020288158892368784
-0.025778375128854294 0.048862781869817754 -0.0023730226331485473 -0.019625462895753433 -0.005825844669372452 -0.010975665631418934 -0.04399131968313334 0.02081565211089898
-0.02391310853465479 -0.0021383232182861133 0.04250662960112095 0.004751446338522495 0.03578925596512094 0.04522598474001398 -0.005724180342477499 0.05327085253535485
0.03045890476478606 0.016150439006029343 -0.02260961906262198 -0.0348678962232507 -0.04084635814841913 0.027066752485626816 0.28815161986429183 -0.06536432523585733
-0.004915584216550847 0.06165238546177012 0.014715409349100511 0.02095800097344718 -0.06373445789680862 0.056706125618981536 0.019504609624626208 -0.04187070199700653
0.08156978467204531 0.0030026723054375074 -0.00572162972129576 -0.001504489415340492 -0.02169294719446878 0.00152092780841545 0.031772254080679574 -0.002574886974008357
-0.0392743854432321 0.06447673872968213 -0.012453322146148955 0.01291080129897741 0.0870324437979792 -0.07595414711070843 -0.003992376154380255 0.05122045696270271
-0.03863349530968021 0.032299175690554204 -0.04595514481551335 0.06578702925414336 -0.0028272968121483676 -0.02416072338514152 -0.01024528602748865 -0.005693165936553088
-0.057192773665072486 0.030786395775245837 -0.036043681784487164 -0.0025491045347079025 0.062449847088485465 0.004202689647247068 0.047899984892030234 0.06103331629247939
-0.015904886505879522 0.07967985610737176 0.040814111192451145 0.02248230562774373 -0.02901726078669556 -0.04852225640635999 -0.059707971595105575 0.039348211902819695
0.37623704100648564 -0.06675893011399442 -0.0069218078004066935 0.06599822640419006 0.015751359046488587 0.024652106567777485 -0.09671320256570147 0.06795994650262098
0.02337885307820721 -0.05068914982904163 0.09231239567614263 7.112713744087766e-05 -0.004378141969532913 -0.0027272936034326753 -0.01925154553545225 -0.0001303370841520114
0.03677402048682173 -0.0007064432267927461 -0.04519331204291019 0.08083973902588089 -0.012315298317440061 0.01202239417923718 0.10082279968385895 -0.09724831575941709
-0.0025671154208895233 0.06155255620574786 -0.046658069257520966 0.041946580426560506 -0.05994757070826987 0.07356484156722824 -0.0010854520320814724 -0.027399087531699076
-0.011247853819643043 -0.003188501965875427 -0.06805379642173648 0.0363524637133297 -0.0448126244203498 -0.005281629200908355 0.07456216821447015 0.004967311122325352
0.05297115222654409 0.06919100399439533 -0.026859903119556192 0.09489402537130648 0.046734028935639396 0.025315241487179365 -0.03256187626781563 -0.0553464961445166
-0.07075576763600111 0.04920176698619293 0.4967351025413899 -0.07825994238789592 -0.019595628706849225 0.07260900633853107 0.025356696203484068 0.029321028471236958
00000000: d7a3 709d 2162 9d3f c3f5 28dc 3925 95bf
00000010: d7a3 70dd abba 88bf cdcc ccec b806 953f
00000020: 6666 66e6 49a7 763f 14ae 47a1 4533 8a3f
00000030: 5c8f c2f5 ae90 53bf 9a99 99d9 9f14 813f
00000040: a470 3d5a 573f 813f d7a3 706d eda6 84bf
00000050: d7a3 70bd 848c 9f3f e17a 145e 72ff 70bf
00000060: 0ad7 a350 e515 5f3f 0000 0000 c054 0dbf
00000070: 8fc2 f548 cf15 8abf 295c 8f42 4f77 7f3f
00000080: 48e1 7af4 bc63 833f 85eb 51b8 eec5 403f
00000090: 0ad7 a310 e556 80bf 48e1 7a34 5e75 893f
000000a0: 1f85 eb91 64b4 7ebf e17a 146e 216d 783f
000000b0: 52b8 1ec5 cb0a 9f3f 7b14 aed7 ea47 90bf
000000c0: ec51 b81e 026f 4a3f 52b8 1e65 a34c 8a3f
000000d0: 713d 0a97 75b4 74bf cdcc ccac 1d3c 8b3f
000000e0: c3f5 285c 34e8 74bf 3d0a d7c3 d360 9a3f
000000f0: 8fc2 f538 67f9 73bf 6666 6686 678c 7ebf
00000100: 85eb 51b8 735d 4abf 3333 33b3 bfea 71bf
00000110: 9a99 99b9 28dd 9cbf 7b14 ae97 f8aa 763f
00000120: ae47 e13a 477e 78bf cdcc ccec f904 77bf
00000130: 713d 0a97 6ff3 8f3f 9a99 9929 58bc 75bf
00000140: f628 5c9f 725d 913f 5c8f c2b5 2184 953f
00000150: 8fc2 f5b0 827f 703f 8fc2 f5a8 e4b5 903f
00000160: 713d 0a57 a96b 973f e17a 148e 2a0d 843f
00000170: 6666 6686 c82a 8fbf c3f5 285c d506 93bf
00000180: c3f5 281c 77a2 94bf 295c 8f02 ac38 823f
00000190: c214 f974 09f3 b03f 0ea6 c8e7 c75c 9cbf
000001a0: 6f30 45fe 077c 81bf 4c91 cfba fc2c 973f
000001b0: eb06 5324 7de7 7a3f 15f9 ac5b 5e29 863f
000001c0: 8a7c d6ad 42c3 7ebf 9822 9f2d cf6a 903f
000001d0: 2af2 59a7 a3ff 853f c214 f91c f25f 90bf
000001e0: d60d a648 7fb0 a43f 0ea6 c867 f7d8 3f3f
000001f0: f9ac 1bcc ee71 3c3f 8329 f299 5c96 563f
00000200: 2af2 5917 fa6b 8ebf f259 37d8 a49f 6d3f
00000210: 15f9 acfb 9388 8b3f 0ea6 c867 bda9 2abf
00000220: f259 3778 2ecb 8bbf 7683 29e2 c3d9 953f
00000230: 7dd6 0d26 6ea5 84bf 0ea6 c8f7 0125 823f
00000240: 3eeb 0683 fb0d a43f 7683 2962 4fac 9bbf
00000250: ad1b 4c11 bd95 63bf 9f75 8339 f421 933f
00000260: 3eeb 0693 3991 84bf a6c8 67bd 39ef 8b3f
00000270: c214 f97c 136c 88bf d60d a688 e7f1 9f3f
00000280: d60d a6c8 da0d 6fbf 68dd 603a 9710 8abf
00000290: 7683 2972 d77c 67bf 3045 3ecb 0a0c 83bf
000002a0: 3045 3e7b f7e2 a0bf 0753 e433 62ce 873f
000002b0: f259 37a8 bb01 8abf 0753 e463 a719 69bf
000002c0: d0ba c1c4 0d56 983f 453e eb06 1901 3ebf
000002d0: b46e 3055 b4e7 973f 3045 3e2b 5a19 9d3f
000002e0: 239f 7583 eae2 263f 7dd6 0d06 7b92 9c3f
000002f0: 618a 7c16 eac4 973f 239f 75a3 2ef8 853f
00000300: 5a37 9822 f7cd 91bf 7683 29b2 d777 97bf
00000310: 453e ebc6 b7f6 99bf 5a37 9822 452a 8f3f
00000320: c7fa d068 f723 c53f bc9c 8227 c0a0 abbf
00000330: 9d82 9783 ad49 6abf d687 c66a aa71 a33f
00000340: 8397 53b0 c8b6 7f3f 88c6 fa28 290f 883f
00000350: e1e5 14c4 bb99 9abf c1cb 29f8 ad74 a13f
00000360: 591f 1a0b a36b 8e3f 54f0 72ea 0a64 9bbf
00000370: d687 c6fa 4646 b03f 5e4e c14b 9a7e 693f
00000380: 3f34 d66f e75d 75bf 637d 68ac 609d 433f
00000390: 2fa7 e045 0101 94bf eb43 637d 1339 563f
000003a0: 0a5e 4e91 a4bc 963f 2549 9224 01f5 3c3f
000003b0: 6edb b61d 2c18 9abf 7d68 ac87 8bac a53f
000003c0: e614 bc3c 2e73 88bf e614 bc7c a1b3 883f
000003d0: 68ac 0fad bf13 b03f c1cb 29c8 097a a9bf
000003e0: fbd0 583f 8f6d 70bf 9224 49e2 87b5 a03f
000003f0: dbb6 6dbb 1e37 98bf 5e4e c14b 6bc6 943f
00000400: 4463 7d78 a565 9abf a2b1 3ee4 8a04 a93f
00000410: 1aeb 43d3 9670 63bf 2a78 3985 b218 94bf
00000420: 2a78 3945 d7dc 77bf bc9c 82e7 687a 86bf
00000430: f6a1 b1be 0786 a6bf a2b1 3ec4 b250 953f
00000440: 637d 688c ad7c 98bf 0a5e 4e89 6384 61bf
00000450: 0000 00d0 6dc3 a53f d158 1faa 4076 733f
00000460: 3f34 d627 f852 a23f d687 c63a dc27 a73f
00000470: 2fa7 e0f5 3c72 77bf 9853 f032 5146 ab3f
00000480: fbd0 587f 9e30 9f3f eb43 639d bd89 903f
00000490: 4ec1 cbd9 f926 97bf 1f1a eb73 34da a1bf
000004a0: c7fa d058 d0e9 a4bf 9853 f002 63b7 9b3f
000004b0: d6d1 e67d 1371 d23f b08e 3667 b7bb b0bf
000004c0: b08e 3617 5d22 74bf 43b0 8ec6 e690 af3f
000004d0: b08e 36cf 1c23 8e3f cefb 14a3 0376 953f
000004e0: 7e8a 4bc4 e650 b0bf b964 08d6 9508 ad3f
000004f0: 6508 d631 04f9 933f 76b4 799f 1370 a5bf
00000500: 2e19 82e5 c1e1 b43f 2258 476b 0f99 683f
00000510: 8a4b 8648 906f 77bf 2e19 8235 49a6 58bf
00000520: 5c32 040b ad36 96bf fc14 97cc 3beb 583f
00000530: a8b8 64f0 7344 a03f 5c32 04eb ed17 65bf
00000540: 2a2e 19b2 c51b a4bf 545c 322c 8c81 b03f
00000550: 970c c19a 2081 89bf 970c c16a fa70 8a3f
00000560: aca3 cd1b c247 b63f 6508 d621 bb71 b3bf
00000570: c525 4350 4f5a 70bf cefb 1457 9139 aa3f
00000580: f33e c5fd c4c7 a3bf 43b0 8e7e 8489 a03f
00000590: e392 21c8 6e87 a7bf 3fc5 2533 6bd7 b03f
000005a0: 5c32 046b 4529 67bf 3fc5 25b3 96bd 98bf
000005b0: 04eb 6803 7bfb 84bf e392 2198 b751 77bf
000005c0: 3204 eb08 5f48 adbf 71c9 100c 7886 9f3f
000005d0: a4cd fb44 5174 a2bf e77d 8a13 dce1 64bf
000005e0: f33e c525 6df9 af3f bd4f 71e9 d636 713f
000005f0: f829 2ec9 5886 a83f 7a9f e242 c23f af3f
00000600: 43b0 8edd 5e49 90bf e392 2128 e665 b43f
00000610: 9fe2 9251 96e5 a43f 11ac a3fd 9905 973f
00000620: a8b8 6468 b3b6 9dbf 5071 c9c0 e8d7 a8bf
00000630: b479 9f12 0b92 aebf 43b0 8ee6 7225 a43f
00000640: abaa aa86 4414 d83f e438 8efd 1c17 b1bf
00000650: c771 1ca2 0a5a 7cbf 0000 0080 42e5 b03f
00000660: 398e e3cf 1f21 903f 1cc7 f1dd 663e 993f
00000670: c771 1c4a 32c2 b8bf abaa aab3 d265 b13f
00000680: e438 8e45 a0f0 973f e438 8ea1 edf3 a9bf
00000690: 1cc7 7100 c9a1 b73f abaa aaea 42a5 123f
000006a0: 8ee3 3889 d0ee 71bf abaa aa9a 8c57 66bf
000006b0: 398e e359 adb6 93bf c771 1c07 6315 21bf
000006c0: abaa aa5e 0bd4 a23f c771 1c47 1326 47bf
000006d0: 1cc7 71ea 9323 a7bf 5555 55c3 e9b1 b43f
000006e0: c771 1c5c c338 89bf e438 8e6e 329f 883f
000006f0: 5555 55e3 85cf b93f 721c c7ff 43e5 b8bf
00000700: 398e e398 a107 65bf 721c c70f d183 af3f
00000710: c771 1c03 91e3 a7bf 8ee3 38ae 057a a53f
00000720: 5555 55af 72b1 aebf abaa aa3c 25d5 b23f
00000730: abaa aa3e b7c8 51bf e438 8ea3 810e 9cbf
00000740: 1cc7 7162 1d09 87bf 5555 55f5 c51e 6abf
00000750: 0000 003e f96b b1bf e438 8e45 ca9c a23f
00000760: abaa aa28 aef1 a6bf 0000 008b 30a2 75bf
00000770: 0000 009a 8116 b33f c771 1c6d 9a58 743f
00000780: 398e e3ec 081f ab3f 5555 556b 80b6 b13f
00000790: 398e e395 2981 9bbf e438 8e8f f94a b83f
000007a0: 721c c7cb 85ed a73f c771 1c19 3dec 993f
000007b0: 5555 5543 f3ab a0bf 721c c73d 6056 acbf
000007c0: 0000 00cc 0c1d b2bf 8ee3 3858 f930 a93f
000007d0: c330 0c07 82ca df3f 4992 24f5 d708 b4bf
000007e0: 310c c361 e010 94bf e879 9efb 8096 b23f
000007f0: 6edb b613 1bf7 993f 9ee7 79e9 5406 9e3f
