data/SGD/iterates_H2_w1_d50_depth2_indim10.npy (npy, 160128 bytes, 1 tensors)

array f8 [20, 20, 50]
0	0x3fa1e94dfeb851ec	0.03498309835791588
1	0xbf970c3fae147ae1	-0.022507662773132323
2	0xbf8c4fdd9eb851ec	-0.013824206739664079
3	0x3f98883a7eb851ec	0.023957170471549036
4	0x3f7643c1cccccccd	0.005435711890459061
5	0x3f93a0126b851eb8	0.01916531354188919
6	0xbf4340b5f5c28f5c	-0.0005875481106340885
7	0x3f878bd4851eb852	0.011497173607349396
8	0x3f828cc01851eb85	0.009057522527873516
9	0xbf86657526666666	-0.010935702547430991
10	0x3fa3164b90a3d70a	0.037279473692178725
11	0xbf7ac551ca3d70a4	-0.006535834781825543
12	0x3f6217e67851eb85	0.002208662163466215
13	0xbf459afb47ae147b	-0.000659344382584095
14	0xbf8f4df29d70a3d7	-0.015285392217338085
15	0x3f858961851eb852	0.010515939593315125
16	0x3f899952028f5c29	0.012499466612935066
17	0x3f352e57ae147ae1	0.0003231967985630035
18	0xbf893ffb7ae147ae	-0.012329067885875702
19	0x3f90e7a3c51eb852	0.01650863543152809
20	0xbf802b7bb70a3d71	-0.007895437739789487
21	0x3f7673f16a3d70a4	0.005481665637344122
22	0x3fa222613e147ae1	0.035418547466397284
23	0xbf914ccd97ae147b	-0.016894543059170247
24	0x3f71ccf0aa3d70a4	0.0043458367325365545
25	0x3f912aab2eb851ec	0.016764330603182317
26	0xbf7b7307c8f5c28f	-0.006701498422771692
27	0x3f8e12a367ae147b	0.014683987237513066
28	0xbf7553cbd70a3d71	-0.0052068674564361575
29	0x3f9e6877ab851eb8	0.029695386737585067
30	0xbf77fe87a0000000	-0.005857972893863916
31	0xbf78a34d8e147ae1	-0.006015112828463316
32	0xbf63c44375c28f5c	-0.0024129216745495796
33	0xbf6f7faaeb851eb8	-0.0038450563699007033
34	0xbf9d7eb42ccccccd	-0.028803649172186852
35	0x3f7cff01451eb852	0.007079129181802273
36	0xbf8419cdda3d70a4	-0.009814842436462641
37	0xbf81814d851eb852	-0.008547406792640686
38	0x3f903619f3333333	0.01583138033747673
39	0xbf814b8343333333	-0.00844481037929654
40	0x3f9221558a3d70a4	0.017705284655094147
41	0x3f99c9a448f5c28f	0.025183264687657355
42	0x3f692e08deb851ec	0.0030737088434398176
43	0x3f9292a9270a3d71	0.018137591369450094
44	0x3f9ca0ccd3333333	0.02795715369284153
45	0x3f85db7315c28f5c	0.010672473050653934
46	0xbf92ad19d1eb851f	-0.01823845237493515
47	0xbf95ae7915c28f5c	-0.021173374131321906
48	0xbf9769801d70a3d7	-0.022863389775156975
49	0x3f7f4cee8a3d70a4	0.00764172725379467
50	0x3fb54f661eeb3e45	0.08324278120857638
51	0xbf9be7d014c1bad0	-0.027251483218089956
52	0xbf8677dfbc1bacf9	-0.010970828941444287
53	0x3f9e4c3d46eb3e45	0.02958770509104471
54	0x3f7a48bb767c8a61	0.0064170191542723696
55	0x3f96e97c20000000	0.02237504906952381
56	0xbf772220045306eb	-0.005647778573974564
57	0x3f937be68306eb3e	0.01902733015752322
58	0x3f8274377bacf915	0.009010728322774978
59	0xbf8eb4b66f914c1c	-0.014993119506618462
60	0x3fa9eb3486eb3e45	0.050622598142237275
61	0xbf6ce74b9c1bacf9	-0.003528258967767092
62	0x3f4bd4f4d14c1bad	0.0008493609808234347
63	0xbf4a941641bacf91	-0.0008111103702135182
64	0xbf932ba35c1bacf9	-0.018721153733093996
65	0x3f80f21da759f22a	0.008274299306543293
66	0x3f91145bc14c1bad	0.016679223702364677
67	0x3f577e2d06eb3e45	0.001433891269403535
68	0xbf946327facf914c	-0.019909500773694064
69	0x3f9b536ec06eb3e4	0.026685457701819973
70	0xbf865e1d3d67c8a6	-0.010921696125454194
71	0x3f78670945306eb4	0.005957637989037746
72	0x3fa93b38bacf914c	0.04927994995503812
73	0xbf9e94f85914c1bb	-0.029865150868489936
74	0x3f77a2f3b83759f2	0.005770637540499101
75	0x3f98058988a60dd6	0.023458622899409885
76	0xbf8ab82320000000	-0.013046526350080967
77	0x3f90f0e76d67c8a6	0.01654397588021852
78	0xbf8c81de5c8a60dd	-0.013919579695809531
79	0x3fa3883f859f2298	0.03814886575816451
80	0xbf7280842dd67c8a	-0.004517093967847727
81	0xbf83cca0c3e45307	-0.009667640665193667
82	0xbf75fee0ab3e4530	-0.005370023358311202
83	0xbf80baf8145306eb	-0.008169115181206851
84	0xbfa2210b42298376	-0.03540835554736692
85	0x3f8b3f44d45306eb	0.013304269532798915
86	0xbf90b09abe45306f	-0.016298692572761227
87	0xbf7d80fc93e45307	-0.007203089362765486
88	0x3f99605cd983759f	0.024781657005282672
89	0xbf7c6f380a60dd68	-0.00694200411640309
90	0x3f99f50313e45307	0.025348709191422205
91	0x3fa216e15c1bacf9	0.03533081292501978
92	0xbf5155dc0c8a60dd	-0.0010580681720622688
93	0x3fa07707d14c1bad	0.032158130930887686
94	0x3fa050f3506eb3e4	0.031867602890407715
95	0x3f8c82b8514c1bad	0.013921203595158216
96	0xbf948a9e6cf914c2	-0.02006003894918674
97	0xbf9bec7105306eb4	-0.02726914018795297
98	0xbf9ffd2a245306eb	-0.03123918387132722
99	0x3f8897e35298375a	0.012008453329169267
100	0x3fc8e5484e5e0a73	0.19449714495211232
101	0xbfa4e5e336343eb2	-0.04081640278502387
102	0xbf70dfdffd0fac68	-0.004119753794820637
103	0x3fa6fcb11d0fac68	0.04489663581610942
104	0x3f81b77840fac688	0.008650722010631343
105	0x3f9fa11a9f58d0fb	0.030888000465169246
106	0xbf91c42bb8000000	-0.017349894624203444
107	0x3fa1f8a0ba1f58d1	0.03510000488283683
108	0x3f85421a12492492	0.010379985507045473
109	0xbf9785ae98d0fac7	-0.022970893933456773
110	0x3fb3dd0e7eb1a1f6	0.07759180634605642
111	0xbf502f28f58d0fac	-0.0009878063194301663
112	0xbf635e307ac687d6	-0.002364248930647665
113	0xbf61e03f1d6343eb	-0.002182124396405962
114	0xbf9a96205cbc14e6	-0.02596331182487157
115	0x3f7b8d25a539782a	0.006726405193687094
116	0x3f9a19251b6db6db	0.02548654537115778
117	0x3f6ea1a00d0fac68	0.0037391782757274956
118	0xbfa1883ccedb6db7	-0.03424253487693412
119	0x3fa7db0017d6343f	0.04659271517730489
120	0xbf8fed3c34e5e0a7	-0.015589208950345613
121	0x3f7c0b275b6db6db	0.006846574534262929
122	0x3fb3b5f544924925	0.07699520992381233
123	0xbfab44d946343eb2	-0.05325964910491389
124	0x3f843226ce0a72f0	0.009861281550280293
125	0x3fa311fa1539782a	0.037246527758483985
126	0xbf99ea42743eb1a2	-0.025307691903138647
127	0x3f96a6d3e0539783	0.02212077194862828
128	0xbf9dbbc4e8d0fac7	-0.02903659506795966
129	0x3face72a3c14e5e1	0.05645114882868164
130	0xbf68e2e791a1f58d	-0.0030378840284003895
131	0xbf8f6b7d14e5e0a7	-0.015341736984496214
132	0xbf851e6ec0000000	-0.010311951860785484
133	0xbf8c3eee8ac687d6	-0.013791907892315363
134	0xbfa9169a2b1a1f59	-0.04900056625507316
135	0x3f987b4d2eb1a1f6	0.023907857871025194
136	0xbf9cd72e897829cc	-0.0281646033672958
137	0xbf7beaf6eb1a1f59	-0.006815876507637452
138	0x3fa5354e3539782a	0.0414223136874486
139	0xbf7951bfbc14e5e1	-0.006181477512023887
140	0x3fa41be46a1f58d1	0.039275300936127196
141	0x3fac02ffa397829d	0.054710377425867686
142	0xbf7f56efb03eb1a2	-0.0076512682752930845
143	0x3fad9b35a9249249	0.057824780366250446
144	0x3fa5b7d824924925	0.04241824575832912
145	0x3f954e9d4397829d	0.020807702303388898
146	0xbf999076b829cbc1	-0.024965147962983773
147	0xbfa4827dd2492492	-0.040058071059840064
148	0xbfa8bd1c887d6344	-0.048317805920936624
149	0x3f94ad33972f0539	0.02019196138622201
150	0x3fd560b8b90c9715	0.33402841635903374
151	0xbf9e9818d4325c54	-0.029877078963718454
152	0x3f47096754fbcda4	0.0007030252981778296
153	0x3fb1604c492e29f8	0.06787564074162578
154	0x3f9005420bcda3ac	0.015645057650008162
155	0x3fa71a18929f79b4	0.04512097158270781
156	0xbfa3ae4397ac10c9	-0.03843890406099743
157	0x3fac0a902c10c971	0.05476809060964428
158	0x3f89303fc7de6d1d	0.012299059187901801
159	0xbfa0ffd8b68eb043	-0.03320195415958029
160	0x3fbaced457582193	0.1047184670679882
161	0x3f51a94987582193	0.001077958875045669
162	0xbf7038aa3d3ef369	-0.003960289952314657
163	0xbf72e02aa1d60865	-0.004608313114092243
164	0xbfa0a0e373ef368f	-0.03247748174872555
165	0x3f767f40e64b8a7e	0.005492452157997206
166	0x3fa246bd353ef369	0.03569594645475755
167	0x3f74e0bbfef368eb	0.005097135886183528
168	0xbfa9ed4672e29f7a	-0.050638391040876266
169	0x3fb15d83c9f79b47	0.0678331726154343
170	0xbf94caafc3ef368f	-0.020304437955749818
171	0x3f7ae7e63582192e	0.0065688126125052326
172	0x3fbb991630000000	0.10780466720461845
173	0xbfb443c7e6d1d608	-0.07915925393339063
174	0x3f8fa00e368eb043	0.015442000427207008
175	0x3fab1ff2679b4758	0.05297811045387729
176	0xbfa38b6a9779b476	-0.038173037520075434
177	0x3f9ddf1aa29f79b4	0.02917138688632699
178	0xbfa83ed234758219	-0.04735428705567219
179	0x3fb37224d82192e3	0.07596044804229111
180	0xbf5b788b92e29f7a	-0.0016766894364454708
181	0xbf95348577de6d1d	-0.0207081655895368
182	0xbf912e8b0a192e2a	-0.016779110423426648
183	0xbf92fcfdacda3ac1	-0.018543208766056866
184	0xbfb068e4e82192e3	-0.06410055796875329
185	0x3fa209308eb04326	0.03522636167338637
186	0xbfa54d600368eb04	-0.04160594979881263
187	0xbf7c9ae9bb475822	-0.006983674062629704
188	0x3fae6aafd582192e	0.05940770608235578
189	0xbf7e716639b47582	-0.007432364767081425
190	0x3fabba489eb04326	0.054155606623800076
191	0x3fb3767304fbcda4	0.0760261428038605
192	0xbf8ee26e5b475822	-0.015080320511440762
193	0x3fb5fda2dc9714fc	0.08590143094541597
194	0x3fabeba37ef368eb	0.05453215527241347
195	0x3f9d633292192e2a	0.028698721091400405
196	0xbf9ec033fcda3ac1	-0.03003007155217108
197	0xbfabc5fd8714fbce	-0.054244921435831026
198	0xbfb1424ac1b47582	-0.06741778592227912
199	0x3f9cae621325c53f	0.02800896875254932
200	0x3fdbbbcb371c71c7	0.4333370245165295
201	0xbf80ad174071c71c	-0.008142644552410476
202	0x3f72645ff1000000	0.004490256091230549
203	0x3fb3e81d00e38e39	0.07776051780415906
204	0x3f936f59388e38e4	0.01897944839179723
205	0x3fab830bb638e38e	0.05373417472259866
206	0xbfacb572f61c71c7	-0.05607184652601265
207	0x3fb1396c3dc71c72	0.06728245266195801
208	0x3f8cbb4e5071c71c	0.014029132680863969
209	0xbfa4348a22000000	-0.039463345194235444
210	0x3fbf40fefd555555	0.122085511063536
211	0x3f5d06136eaaaaab	0.0017714681404565151
212	0xbf71e8956f38e38e	-0.00437219975315707
213	0xbf79ad191f1c71c7	-0.006268594866721994
214	0xbfa2000baf555555	-0.03515659823703269
215	0x3f71513419555555	0.004227832328372945
216	0x3fa5876de071c71c	0.04204886784363124
217	0x3f7977b96471c71c	0.0062176935090165995
218	0xbfaf02885c000000	-0.060566197615116835
219	0x3fb50745d31c71c7	0.08214222339706288
220	0xbf980b955638e38e	-0.023481686961733632
221	0x3f77f3341a71c71c	0.005847171333799552
222	0x3fc05a57d4000000	0.12775705195963383
223	0xbfb8dc02b11c71c7	-0.09710709403993355
224	0x3f940a164c38e38e	0.01956972923491978
225	0x3fb01b0e0471c71c	0.06291282280451721
226	0xbfa7a37e5c71c71c	-0.04616923216316435
227	0x3fa156e997c71c72	0.03386621454006268
228	0xbfaeb716a238e38e	-0.059990603735463485
229	0x3fb67880b5555555	0.08777622630198796
230	0x3ed1eb071c71c71c	4.272002519832717e-06
231	0xbf99090777555555	-0.024448506029633183
232	0xbf95bb1de4aaaaab	-0.021221606332498293
233	0xbf96710877c71c72	-0.02191556197228945
234	0xbfb2eb82be71c71c	-0.07390610837481087
235	0x3fa5a68109c71c72	0.04228595013005866
236	0xbfaa1286c3c71c72	-0.05092259540429546
237	0xbf7fe56b84000000	-0.007787151320371777
238	0x3fb2388641555555	0.07117499442150195
239	0xbf80d57e558e38e4	-0.00821970652193866
240	0x3fb03e1dd0e38e39	0.06344782209230794
241	0x3fb70c2fe671c71c	0.09002971054158276
242	0xbf956fdd5f71c71c	-0.020934542608706072
243	0x3fba9ac5131c71c7	0.10392410008029805
244	0x3fafb08682aaaaab	0.061893657160302006
245	0x3fa144a688000000	0.033726886846125126
246	0xbfa0c8f3b4aaaaab	-0.032783141902958356
247	0xbfb021f327c71c72	-0.06301803322922853
248	0xbfb44e3972000000	-0.07931860955432057
249	0x3fa0c59d611c71c7	0.03275768099249237
250	0x3fe1b90522db6db7	0.5538354569247791
251	0x3f8c53f47b0c30c3	0.01383200645934613
252	0x3f6861bda8f3cf3d	0.0029762939735692704
253	0x3fb71b0a78618618	0.09025636137950988
254	0x3f9c88c68e79e79e	0.027865507551247164
255	0x3fb068aa69e79e7a	0.0640970715099857
