data/SGD/iterates_H1_w10_d50.npy (npy, 160128 bytes, 1 tensors)

array f8 [20, 20, 50]
0	0x3fe6b6b14ccccccd	0.7098013401031494
1	0x3f7775a7d147ae14	0.005727439438924193
2	0x3f91ce40e947ae14	0.017388357389718292
3	0x3fa0f1787ccccccd	0.03309227488934994
4	0xbf7ceebca28f5c29	-0.007063614707440138
5	0xbfa4d30f13333333	-0.04067275151610374
6	0xbfaa80e3c0000000	-0.0517645999789238
7	0xbfa1571ebc28f5c3	-0.03386779829859734
8	0xbfbbdefa2a3d70a4	-0.10887111216783524
9	0x3fa89e3473333333	0.04808200746774673
10	0xbfac2705c6666666	-0.054985218495130536
11	0x3fa3cefa55c28f5c	0.03868849083781242
12	0xbf9abc559851eb85	-0.026109063550829887
13	0x3fb8c83280000000	0.09680476784706116
14	0x3f978d049999999a	0.022998878359794618
15	0xbfc0390b5ccccccd	-0.12674085646867753
16	0xbf7c2c03a51eb852	-0.006877912748605013
17	0xbf8473fe4d70a3d7	-0.009986864794045687
18	0xbfad018b93333333	-0.05665241405367851
19	0x3fbbbe6a13333333	0.10837424248456955
20	0x3f95f4f7147ae148	0.021442280411720277
21	0xbfab51face147ae1	-0.053359830528497694
22	0xbfbfac5aa0000000	-0.12372366338968277
23	0x3fc0d928028f5c29	0.13162708401679993
24	0xbfbb4cebb1eb851f	-0.10664246648550034
25	0x3f934ac3a147ae14	0.0188398902118206
26	0x3fb4175ae3d70a3d	0.07848136961460113
27	0xbfbe05afe51eb852	-0.11727427810430527
28	0x3fa78b8d13333333	0.04598656520247459
29	0x3fc2734a6e147ae1	0.14414339423179626
30	0xbfafeadc9999999a	-0.06233872771263123
31	0xbfa92a4780000000	-0.04915069043636322
32	0xbfbec60fd0a3d70a	-0.12020968288183212
33	0xbfc0ed0d947ae148	-0.1322342848777771
34	0xbfa3ccc4147ae148	-0.03867161512374878
35	0x3fb919b773333333	0.09804865419864654
36	0xbf82b92197ae147b	-0.009142172280699015
37	0xbfbb84581eb851ec	-0.10748816251754761
38	0x3fb4d05dc6666666	0.0813044175505638
39	0x3f935d5473333333	0.018910712748765945
40	0x3fc11cbc451eb852	0.13368943572044373
41	0xbfbfea87a51eb852	-0.12467239171266556
42	0xbfc071dc770a3d71	-0.12847476780414582
43	0x3f9797fa1851eb85	0.02304068349301815
44	0xbfbbc2c8547ae148	-0.10844089567661286
45	0xbfbec8bb347ae148	-0.12025041610002518
46	0x3fb90e0df851eb85	0.09787070572376251
47	0xbfbd207e50a3d70a	-0.1137770602107048
48	0xbfbb4bf90e147ae1	-0.10662800401449203
49	0x3fa0f3c5e8f5c28f	0.033109841048717496
50	0x3fea736cceb3e453	0.8265899693643725
51	0x3f6b8f17e7c8a60e	0.0033641306784104657
52	0xbf2bd1bacf914c1c	-0.00021224408536343962
53	0x3f917723ed45306f	0.017056046826198597
54	0xbf6de0c0c59f2298	-0.003647209651692695
55	0xbfa231b416eb3e45	-0.035535457418174356
56	0xbfaf59e893e45307	-0.061232822468957386
57	0xbf9cc6a4f4c1bad0	-0.028101518095747846
58	0xbfba6547af914c1c	-0.10310791050260132
59	0x3fa7e149a45306eb	0.04664068346893465
60	0xbfab5f342f914c1c	-0.0534607227388266
61	0x3fa46ce41bacf915	0.03989327276075209
62	0xbf97c008783759f2	-0.0231934855817943
63	0x3fb884c0b14c1bad	0.09577564552829072
64	0x3f9d0c60c45306eb	0.028367530806241808
65	0xbfbfc437c3759f23	-0.1240877964206644
66	0xbf821d34514c1bad	-0.00884476540660536
67	0xbf7b1427d0dd67c9	-0.006611018687033573
68	0xbfa8f641567c8a61	-0.04875377827399486
69	0x3fba77b3b4c1bad0	0.10338900721556432
70	0x3f958b65ea60dd68	0.02103957407981963
71	0xbfac6c4d5e45306f	-0.05551378036270271
72	0xbfbe69651e45306f	-0.11879569996853133
73	0x3fc0d706eb3e4530	0.13156210409628377
74	0xbfbae4024a60dd68	-0.10504164043310527
75	0x3f94e0d9cdd67c8a	0.02038898772081813
76	0x3fb348398298375a	0.07532081068367572
77	0xbfbdd92ac1bacf91	-0.11659495572786073
78	0x3fa711b612298376	0.045057000844059766
79	0x3fc2bb22f14c1bad	0.1463359525880298
80	0xbfb0912c26eb3e45	-0.06471515607994956
81	0xbfa8aa92c8a60dd6	-0.04817637156795811
82	0xbfbddee561bacf91	-0.11668237339000444
83	0xbfc07b26060dd67d	-0.12875819488151655
84	0xbfa374cc5f229837	-0.03800047551457946
85	0x3fb85f5c767c8a61	0.09520509617554175
86	0xbf8a93525bacf915	-0.012976306364745708
87	0xbfbbd8bcdf229837	-0.1087759060634149
88	0x3fb3901a40000000	0.07641758024692535
89	0x3f95739285306eb4	0.02094868600771234
90	0x3fc13669ccf914c2	0.1344730616421313
91	0xbfbe7c9a68a60dd6	-0.11908879332445763
92	0xbfc0806393e45307	-0.1289181205871943
93	0x3f9bce51ac1bacf9	0.02715423214878585
94	0xbfbb158d514c1bad	-0.10579760775372789
95	0xbfbec3fb93e45307	-0.1201779590667905
96	0x3fb8ac9e25306eb4	0.09638393791140737
97	0xbfbcd9d8e7c8a60e	-0.11269908579620155
98	0xbfbadb4fa8a60dd6	-0.10490892283819817
99	0x3f9f1c24a45306eb	0.030380795030175028
100	0x3fecc15f92f05398	0.8986051435373268
101	0x3f624dea90fac688	0.002234419000011926
102	0xbf901100bcbc14e6	-0.01568986083932069
103	0x3f575ca69a72f054	0.0014258982644568445
104	0xbf4d3cbb9e0a72f0	-0.0008922496891333436
105	0xbf9f83bf69249249	-0.030776015083704675
106	0xbfb20835ff053978	-0.07043778873523887
107	0xbf9735c7a343eb1a	-0.022666091289447278
108	0xbfb90c019829cbc1	-0.09783945050166577
109	0x3fa74ac1872f0539	0.045492217780984175
110	0xbfaac1a3f43eb1a2	-0.052258609356928845
111	0x3fa4fee5fe0a72f0	0.04100722051700767
112	0xbf952fb2e343eb1a	-0.020689768906758756
113	0x3fb85108ff58d0fb	0.09498649820381282
114	0x3fa1508cc7829cbc	0.03381767211367889
115	0xbfbf0573db6db6db	-0.12117694956915719
116	0xbf85b6f8d97829cc	-0.010602897774352103
117	0xbf6d155e8a0a72f0	-0.003550228735845422
118	0xbfa4cbf66c687d63	-0.040618611081522336
119	0x3fb933753397829d	0.09844143399778678
120	0x3f958d327b6db6db	0.02104643705700125
121	0xbfad3a20ad0fac68	-0.05708410370410705
122	0xbfbd4512b97829cc	-0.11433522251187539
123	0x3fc0c78638d0fac7	0.13108899854883857
124	0xbfba6201c687d634	-0.10305796715678
125	0x3f9636c3f0fac688	0.02169328840563492
126	0x3fb27c022f053978	0.07220472000083145
127	0xbfbdb6e6fcbc14e6	-0.11607211752205479
128	0x3fa6730da14e5e0a	0.043846536579788944
129	0x3fc2f507ab1a1f59	0.14810272078124845
130	0xbfb133c6ac687d63	-0.06719629010375665
131	0xbfa7e43304924925	-0.046662897403751104
132	0xbfbcec4d09249249	-0.11298066590513502
133	0xbfc006e850fac688	-0.12521079973298677
134	0xbfa30644fe0a72f0	-0.03715720749935325
135	0x3fb7ba40e9249249	0.09268575374569211
136	0xbf91341cac14e5e1	-0.016800354006795252
137	0xbfbc3e166e5e0a73	-0.11032238192096049
138	0x3fb23f19f8d0fac7	0.07127535175912235
139	0x3f97aeeae687d634	0.023128195114585817
140	0x3fc14d7b0f053978	0.13517702325266234
141	0xbfbd05172f053978	-0.11335892579993423
142	0xbfc09623814e5e0a	-0.1295818692567397
143	0x3fa026e170539783	0.031546635591253945
144	0xbfba4d8b00a72f05	-0.10274571195548894
145	0xbfbec61ed8d0fac7	-0.12021057885520313
146	0x3fb834b32db6db6e	0.09455413690635137
147	0xbfbc92fff58d0fac	-0.11161803955934485
148	0xbfba7aae51a1f58d	-0.10343446248039907
149	0x3f9c7006a14e5e0a	0.02777109488996924
150	0x3fee163239b47582	0.9402094962166958
151	0x3f5d95841ef368eb	0.001805666946714408
152	0xbf9d17e5db04325c	-0.02841147565145473
153	0xbf89bd4cdc8eb043	-0.012568092804791436
154	0x3f55beff360864b9	0.0013272754951059575
155	0xbf9b36a9da3ac10d	-0.026575712151214726
156	0xbfb42cb307de6d1d	-0.07880705778227477
157	0xbf922fda82e29f7a	-0.017760671843148647
158	0xbfb7d97e168eb043	-0.09316242266385281
159	0x3fa6d273c10c9715	0.04457437259251954
160	0xbfaa4239c8eb0432	-0.051286512161376044
161	0x3fa58355125c53ef	0.04201761101845835
162	0xbf930ce49c10c971	-0.018603870416151694
163	0x3fb82a17304325c5	0.09439225128439606
164	0x3fa3fe72be29f79b	0.03905066081368532
165	0xbfbe46a9dac10c97	-0.11826573935199956
166	0xbf88e281da3ac10d	-0.012150778267227236
167	0xbf4a3db4a7de6d1d	-0.0008008129222959768
168	0xbfa0c41634325c54	-0.03274602305571564
169	0x3fb7ff6f67de6d1d	0.09374138151035934
170	0x3f95cfd91b475822	0.021300689973792093
171	0xbfadcccddef368eb	-0.0582031569153559
172	0xbfbc41e1160864b9	-0.11038023746404492
173	0x3fc0b0535bcda3ac	0.13038103087026565
174	0xbfb9d6b1cc10c971	-0.10093222839421913
175	0x3f9753d6a9f79b47	0.022780756114936265
176	0x3fb1ba6a24325c54	0.06925071128567711
177	0xbfbd9bfb168eb043	-0.11566132832257474
178	0x3fa5bfd5d9b47582	0.042479212594325425
179	0x3fc3245a3714fbce	0.14954688729809934
180	0xbfb1d2ff4b04325c	-0.06962581235365789
181	0xbfa6f992f8a7de6d	-0.04487284932468758
182	0xbfbbfd23464b8a7e	-0.10933132616222882
183	0xbfbf2cee053ef369	-0.1217793238456132
184	0xbfa28cf99ef368eb	-0.03623180451696036
185	0x3fb729b6a4325c54	0.09048024662693993
186	0xbf94f18969f79b47	-0.02045263966820279
187	0xbfbca91ca9714fbd	-0.11195544373305118
188	0x3fb0f200325c53ef	0.06619263867862889
189	0x3f99ea01210c9715	0.025306718485032926
190	0x3fc161b91bcda3ac	0.13579477174360244
191	0xbfbb97481d60864c	-0.1077771255227386
192	0xbfc0aff878a7de6d	-0.13037019626038973
193	0x3fa264f4f64b8a7e	0.03592648989230883
194	0xbfb97ce67714fbce	-0.09956207663797942
195	0xbfbecb95c6d1d608	-0.12029396156307126
196	0x3fb7b264e5c53ef3	0.09256582841521403
197	0xbfbc4fc700864b8a	-0.11059230578238846
198	0xbfba26fbf25c53ef	-0.10215735117920109
199	0x3f99f29c5ac10c97	0.025339549102011274
200	0x3feeda80db8e38e4	0.9641727722353406
201	0x3f5bc31214e38e39	0.0016944576814744829
202	0xbfa3c46d1c38e38e	-0.03860798806676434
203	0xbf9933c901d8e38e	-0.024611607301469322
204	0x3f69f0c3dd1c71c7	0.0031665635550679225
205	0xbf977af492aaaaab	-0.02292997498686115
206	0xbfb610daa071c71c	-0.0861946717939443
207	0xbf8b6f4170e38e39	-0.01339579702148007
208	0xbfb6ca648d555555	-0.0890257687618335
209	0x3fa66f123238e38e	0.04381615508140789
210	0xbfa9d5c85b1c71c7	-0.05045915710636311
211	0x3fa5fb9bbdc71c72	0.04293524448035492
212	0xbf9144859038e38e	-0.016862952163339488
213	0x3fb80bfec871c71c	0.09393303292906946
214	0x3fa6804d5aaaaaab	0.043947617833813034
215	0xbfbd909fa5c71c72	-0.115488031361666
216	0xbf8bb2613071c71c	-0.013523825922877424
217	0x3f5bbd8bd1c71c72	0.0016931405472051767
218	0xbf99f4d54471c71c	-0.0253480265641378
219	0x3fb6dfe954e38e39	0.0893541176079048
220	0x3f963243e071c71c	0.021676121305467352
221	0xbfae37af4b8e38e4	-0.059018590901460916
222	0xbfbb5b475b8e38e4	-0.10686155305140549
223	0x3fc095b839555555	0.12956908034781614
224	0xbfb94be5d31c71c7	-0.09881435779647695
225	0x3f9845f74c71c71c	0.023704399147795305
226	0x3fb105876e000000	0.06649061618372798
227	0xbfbd858e2eaaaaab	-0.11531914367030065
228	0x3fa50434371c71c7	0.041047698714666896
229	0x3fc34cacc9c71c72	0.1507774338954025
230	0xbfb26a308b8e38e4	-0.07193282515638405
231	0xbfa602de9dc71c72	-0.04299064327238335
232	0xbfbb187640000000	-0.10584200918674469
233	0xbfbe589006aaaaab	-0.11853885805855195
234	0xbfa210f345555555	-0.03528557034830252
235	0x3fb6a9b679555555	0.08852711164702971
236	0xbf98741446aaaaab	-0.02388030701937775
237	0xbfbd130b1aaaaaab	-0.1135718288520972
238	0x3faf6579338e38e4	0.061321055930521756
239	0x3f9c11b114000000	0.027411238523200154
240	0x3fc1738a2b8e38e4	0.1363384926484691
241	0xbfba3b55b0000000	-0.10246787592768669
242	0xbfc0cb8848000000	-0.1312113143503666
243	0x3fa48e1752aaaaab	0.040146569100519024
244	0xbfb8ae73baaaaaab	-0.09641192729274432
245	0xbfbed1f3b8e38e39	-0.12039111389054193
246	0x3fb72dcc5c71c71c	0.09054257637924618
247	0xbfbc1178ac71c71c	-0.10964159212178654
248	0xbfb9dc5666aaaaab	-0.10101833349714677
249	0x3f97a3918c000000	0.02308490197174251
250	0x3fef51fac8618618	0.9787572778406597
251	0x3f5c051bf79e79e8	0.00171020251443787
252	0xbfa82b8af4618618	-0.04720720513502047
253	0xbfa226c02c000000	-0.0354518941603601
254	0x3f73cbff26555555	0.004833218268079993
255	0xbf940af915e79e7a	-0.019573108636818472
