data/SGD/iterates_H1_w10_d50_depth1_indim50.npy (npy, 160128 bytes, 1 tensors)

array f8 [20, 20, 50]
000000 1f 85 eb d1 1e e8 bf 3f c3 f5 28 5c 70 6c 84 3f
       0.12463562607765198 0.009972455799579621
000010 85 eb 51 98 86 bd 9d bf 1f 85 eb 11 09 22 a2 bf
       -0.02904329590499401 -0.03541591972112656
000020 71 3d 0a 17 f2 d6 b3 bf 3d 0a d7 53 60 e6 a2 3f
       -0.07749856054782868 0.0369138815253973
000030 14 ae 47 f1 89 23 91 bf 5c 8f c2 f5 c4 46 9e 3f
       -0.016737132407724856 0.02956683874130249
000040 f6 28 5c cf d4 ba a1 3f 5c 8f c2 15 b0 54 af 3f
       0.03462853461503983 0.061192991882562636
000050 1f 85 eb 51 a3 a0 60 3f e1 7a 14 0e 4b e0 71 bf
       0.0020297231525182725 -0.004364293273538351
000060 33 33 33 b3 61 e8 9b bf ec 51 b8 de 99 94 84 3f
       -0.027253653109073638 0.0100490590184927
000070 00 00 00 80 c1 6c 76 3f d7 a3 70 7d 2c ae 9e bf
       0.005474811419844627 -0.029961295276880264
000080 e1 7a 14 6e 8a 79 98 bf 71 3d 0a d7 e4 73 6e bf
       -0.02390114113688469 -0.0037173718959093095
000090 ec 51 b8 fe 50 30 81 bf 66 66 66 c6 93 01 91 bf
       -0.008392937444150449 -0.016607579216361044
0000a0 33 33 33 53 54 bf a2 bf 71 3d 0a d7 3f 73 5c 3f
       -0.03661597743630409 0.0017364619672298432
0000b0 7b 14 ae e7 ed 92 ad bf 71 3d 0a 57 b7 0f 60 bf
       -0.057761606723070145 -0.001960619054734707
0000c0 f6 28 5c 0f db f4 94 bf 1f 85 eb 51 88 6d 3f 3f
       -0.020465300381183625 0.0004795511066913605
0000d0 29 5c 8f 42 01 78 8b 3f 0a d7 a3 f0 70 05 9e 3f
       0.013412484973669052 0.029317631423473357
0000e0 14 ae 47 91 7c ad 91 bf 1f 85 eb 51 34 bb a5 3f
       -0.017263361327350138 0.042443881034851076
0000f0 52 b8 1e 05 50 33 60 3f e1 7a 14 7e 7f b8 a0 3f
       0.001977592743933201 0.03265760816633701
000100 48 e1 7a 24 57 a0 85 bf 9a 99 99 99 51 20 5e 3f
       -0.010559731293469668 0.0018387600779533387
000110 1f 85 eb f1 19 69 7d 3f ec 51 b8 be c8 8d 8b 3f
       0.00718031058087945 0.013454025574028493
000120 ae 47 e1 1a 3b 4d 99 bf 9a 99 99 d9 35 b1 97 3f
       -0.024708674922585487 0.023136941343545915
000130 5c 8f c2 15 4a e4 87 3f 29 5c 8f c2 65 65 a0 bf
       0.011665896214544773 -0.03202360153198242
000140 ae 47 e1 fa ed f8 ad 3f d7 a3 70 cd 1e 21 88 bf
       0.05853980720043182 -0.01178192200139165
000150 8f c2 f5 48 f5 9e 91 3f 5c 8f c2 b5 c4 9e 9a 3f
       0.01720793969929218 0.02599627837538719
000160 5c 8f c2 35 e5 b8 91 bf 8f c2 f5 68 7d 42 7c 3f
       -0.01730688229203224 0.006899347193539142
000170 1f 85 eb 11 0d 17 82 bf 5c 8f c2 15 49 8f 89 3f
       -0.00883302889764309 0.012480326630175113
000180 85 eb 51 58 e3 3c a0 bf 71 3d 0a 77 77 e8 9f 3f
       -0.03171453908085823 0.031160227432847024
000190 1c 4c 91 4f 51 58 ca 3f 68 dd 60 4a c4 e6 89 3f
       0.20582023987898956 0.012647183914039586
0001a0 a6 c8 67 bd 51 78 94 bf 4c 91 cf 5a 4d 43 9e bf
       -0.019990231690777314 -0.029553612392093684
0001b0 07 53 e4 73 6c ba b8 bf c2 14 f9 5c 9d e3 a2 3f
       -0.09659459905044453 0.03689281234668719
0001c0 76 83 29 32 15 40 98 bf 00 00 00 a0 36 9e 9b 3f
       -0.023681956469207198 0.026970723643898964
0001d0 3e eb 06 53 da f6 a2 3f 8a 7c d6 6d 74 a3 b3 3f
       0.03703958762658609 0.07671287232959592
0001e0 4c 91 cf da 6f 56 92 3f 91 cf ba 81 49 e4 87 bf
       0.017907855730201747 -0.011665891906296884
0001f0 a6 c8 67 7d b9 76 9d bf 23 9f 75 03 72 ad 98 3f
       -0.028773210791719926 0.024099141560696268
000200 98 22 9f f5 2c 4f 72 3f 37 98 22 df 3c a8 9c bf
       0.004470039008034242 -0.027985526198470913
000210 9f 75 83 b9 e3 55 94 bf 76 83 29 72 70 38 79 bf
       -0.019858892629476817 -0.006157340280510284
000220 6f 30 45 be b5 03 7b bf c2 14 f9 2c 58 9d 89 bf
       -0.006595334944290084 -0.012507141945329873
000230 83 29 f2 19 86 f7 a5 bf f2 59 37 f8 5b 44 66 bf
       -0.042904081980924345 -0.002718143108477061
000240 1c 4c 91 cf bf 14 b2 bf eb 06 53 44 e8 e9 77 bf
       -0.07062910859649246 -0.005838305752321675
000250 bb c1 14 d9 35 fc a0 bf 45 3e eb 86 8d d1 60 3f
       -0.033174212216525466 0.00205304758069483
000260 91 cf ba 41 35 2c 92 3f eb 06 53 e4 2b 8f a0 3f
       0.017746765267204593 0.032342311498281116
000270 f9 ac 1b 7c 3b 65 9b bf c2 14 f9 8c 2a 85 a8 3f
       -0.026753358316381235 0.04789097758161055
000280 23 9f 75 83 39 e1 1c 3f 83 29 f2 29 44 35 a6 3f
       0.00011016763243320826 0.04337513935122941
000290 9f 75 83 c9 f9 bf 92 bf ad 1b 4c d1 64 76 84 3f
       -0.018310454296501907 0.009991443288084623
0002a0 5a 37 98 62 0d c0 62 3f 30 45 3e 2b f7 ea 95 3f
       0.0022888432911320313 0.02140413476405917
0002b0 76 83 29 92 00 c5 99 bf 8a 7c d6 bd ed 34 a2 3f
       -0.0251655663690857 0.03556006376606387
0002c0 f2 59 37 b8 6d aa 93 3f 1c 4c 91 9f 46 8f a9 bf
       0.019204820984521427 -0.04992123315664562
0002d0 7d d6 0d 66 00 9d b0 3f 3e eb 06 33 9d d7 97 bf
       0.0648956536441236 -0.023283439864580695
0002e0 c2 14 f9 4c 32 3e 98 3f dd 60 8a bc 3d 32 9c 3f
       0.023674760768945154 0.027535404808617926
0002f0 6f 30 45 7e 61 1c 93 bf 23 9f 75 83 e7 41 43 bf
       -0.01866295178597038 -0.0005876903950765327
000300 45 3e eb 46 e4 f1 88 bf 6f 30 45 6e db 55 97 3f
       -0.012180121816896103 0.02278845654045408
000310 f9 ac 1b 8c e0 c8 a5 bf 00 00 00 60 69 cd 9c 3f
       -0.04254819593719534 0.028127333149313927
000320 2a 78 39 45 88 83 d5 3f 49 92 24 49 5d 29 63 bf
       0.3361530948658379 -0.002339060019169535
000330 a2 b1 3e 94 46 b0 8c bf 68 ac 0f 6d 78 54 9f bf
       -0.014008094214511161 -0.030595666557854534
000340 ac 0f 8d 65 e0 2b c0 bf d6 87 c6 0a 4f 0b a3 3f
       -0.12633900602861325 0.037195653977746865
000350 bc 9c 82 07 0c 7f a0 bf e1 e5 14 5c d8 24 98 3f
       -0.03221929160764023 0.023578053112236822
000360 eb 43 63 7d 44 ea a5 3f 15 bc 9c a2 f4 31 b7 3f
       0.042802944475290726 0.09060601205850134
000370 39 05 2f e7 5f 77 a4 3f cc 29 78 79 2c bc 94 bf
       0.039973256083167326 -0.020249075807478964
000380 e1 e5 14 5c f5 69 a1 bf e1 e5 14 4c ba c4 a7 3f
       -0.03401152371447914 0.046422788417156864
000390 5e 4e c1 cb 0c ee 63 3f f0 72 0a 5e 49 46 9d bf
       0.0024328470154076206 -0.02858843456725685
0003a0 78 39 05 2f e3 d3 80 bf 8d f5 a1 b1 cf 6a 6d bf
       -0.008216643211792926 -0.0035909706612630766
0003b0 83 97 53 b0 53 09 67 bf 3f 34 d6 87 50 ff 7d bf
       -0.0028120646044155775 -0.007323565075592119
0003c0 c7 fa d0 d8 52 45 ab bf 6e db b6 9d f1 2a 8d bf
       -0.053263272253834475 -0.014242065072591816
0003d0 a7 e0 e5 f4 cf 7b b7 bf 83 97 53 f0 c7 ff 78 bf
       -0.09173297623590547 -0.006103306780664289
0003e0 0a 5e 4e a1 92 ce aa bf 1f 1a eb 43 03 74 23 3f
       -0.05235727519101026 0.00014841594562238576
0003f0 68 ac 0f 8d ab 49 8e 3f 15 bc 9c 32 a3 8e a3 3f
       0.014788952104899347 0.03819761269402747
000400 fb d0 58 7f ff f0 9f bf 00 00 00 80 64 f3 ac 3f
       -0.031192772052421863 0.05654443800449371
000410 c7 fa d0 98 a0 8d 61 3f 1f 1a eb 23 b0 33 ad 3f
       0.0021427284869156324 0.057034973511282276
000420 db b6 6d fb 53 a9 a1 bf ac 0f 8d 95 9c a5 99 3f
       -0.034494995538677485 0.02504582083498945
000430 e1 e5 14 1c 30 1f 75 bf 2f a7 e0 35 42 26 a1 3f
       -0.005156696251384458 0.03349501521763753
000440 39 05 2f c7 5d 5a 9f bf 25 49 92 e4 4f d3 a8 3f
       -0.030618157655913 0.0484871832387788
000450 2f a7 e0 25 7a dd 9b 3f c1 cb 29 78 5b 90 b2 bf
       0.02721205574213242 -0.07251521762536496
000460 34 d6 87 c6 8a 6e b2 3f 63 7d 68 3c 13 92 a3 bf
       0.07199923846186423 -0.03822383987812363
000470 54 f0 72 2a 17 a1 a3 3f 2a 78 39 65 6d bf 9d 3f
       0.03833839791465779 0.029050549796345283
000480 e6 14 bc 3c 51 19 95 bf 2f a7 e0 e5 f3 3c 86 bf
       -0.020604390460921794 -0.010858445599371073
000490 59 1f 1a cb 5c 17 95 bf db b6 6d bb c0 e7 a0 3f
       -0.020596933266033932 0.03301813400217465
0004a0 15 bc 9c e2 b2 9d ad bf 1a eb 43 03 22 d3 9d 3f
       -0.05784377113592868 0.029125720452593297
0004b0 f3 3e c5 75 22 91 dd 3f 2e 19 82 35 c1 0d 9a bf
       0.46198331357025707 -0.025443095103150508
0004c0 7a 9f e2 32 1d b0 89 bf 00 00 00 b0 b4 e4 a6 bf
       -0.01254294215716788 -0.04471363686025143
0004d0 e7 7d 8a bb fa d3 c2 bf c5 25 43 80 af a0 a6 3f
       -0.14709409863733855 0.044194683463114205
0004e0 22 58 47 0b 2b 09 a8 bf b9 64 08 96 c6 e4 9f 3f
       -0.04694494736365608 0.031146147639536468
0004f0 2a 2e 19 42 47 49 aa 3f 15 97 0c 61 e2 cf b9 3f
       0.051340319460532705 0.10082831258167986
000500 1d 6d de 87 09 c6 a8 3f ef 53 5c 32 0b 65 9a bf
       0.04838590415530517 -0.02577607626797723
000510 37 ef 53 2c e7 ce a6 bf 93 21 58 f7 a7 95 b1 3f
       -0.04454729477035218 0.06868982113531379
000520 2e 19 82 75 84 63 1a 3f ef 53 5c 62 21 a0 a2 bf
       0.00010066505399395208 -0.036377948052326185
000530 b0 8e 36 ef 57 b6 4a bf 5c 32 04 eb ca ff 69 bf
       -0.0008151940696063589 -0.0031737292521312587
000540 eb 68 f3 be 0b c2 6a 3f 08 d6 d1 e6 a7 0c 68 bf
       0.003266356412138118 -0.00293572228707251
000550 f8 29 2e 49 d8 b4 b0 bf bd 4f 71 01 14 60 9b bf
       -0.06525947367314433 -0.026733696544695585
000560 c1 3a da 5c b3 4d be bf 08 d6 d1 66 f0 55 7b bf
       -0.11837311760812509 -0.006673754757789314
000570 ce fb 14 37 cc 87 b0 bf e7 7d 8a 4b cb 50 60 bf
       -0.06457210869574156 -0.001991650639254539
000580 b4 79 9f 62 69 f8 81 3f a4 cd fb 74 e2 80 a1 3f
       0.008774588892205816 0.03418643644354383
000590 71 c9 10 4c b1 ba a0 bf a4 cd fb a4 4c ad b1 3f
       -0.03267435124907337 0.06905058887405474
0005a0 50 71 c9 90 20 e1 53 3f 4c 86 60 9d 38 41 b2 3f
       0.0012133424781018594 0.07130769579136959
0005b0 93 21 58 77 d3 2f a7 bf 3b da bc 6f 1b e9 a1 3f
       -0.04528675872649326 0.0349815915964666
0005c0 00 00 00 e0 ed f6 87 bf d6 d1 e6 5d 04 d9 a5 3f
       -0.011701448820531368 0.042671333754160365
0005d0 3f c5 25 93 26 df a3 bf de a7 b8 44 0a bd ac 3f
       -0.03881187959894782 0.056129761589843716
0005e0 61 1d 6d fe f6 73 9b 3f a8 b8 64 78 88 f1 b6 bf
       0.026809558180756258 -0.08962300242703469
0005f0 da bc 4f 71 85 5e b3 3f b9 64 08 06 7f 4e ab bf
       0.07566102997201388 -0.053333253370689566
000600 2e 19 82 25 eb e3 a9 3f 04 eb 68 a3 d8 7c a0 3f
       0.05056700547088365 0.032202501246919396
000610 15 97 0c 81 c8 42 92 bf b4 79 9f ca 60 cc 98 bf
       -0.01783288276342095 -0.024217140547870122
000620 82 75 b4 e9 22 0c 9d bf 22 58 47 fb 41 d1 a3 3f
       -0.028366609110084713 0.038705884860675846
000630 c9 10 ac 63 2c 57 b3 bf 69 f3 3e 95 f9 e1 a1 3f
       -0.07554891045953406 0.03492717692231546
000640 55 55 55 8d 07 68 e2 3f 00 00 00 1c 52 05 a3 bf
       0.5751989136139551 -0.03714996902272105
000650 55 55 55 63 d6 c1 92 bf e4 38 8e 85 e7 48 af bf
       -0.01831755620272209 -0.06110309129063454
000660 39 8e e3 3a f0 e9 c4 bf 8e e3 38 7e 39 5f ad 3f
       -0.163389233354893 0.05736713090704547
000670 00 00 00 a8 f6 0d b0 bf 39 8e e3 44 48 fe a3 3f
       -0.06271306611597538 0.039049394997871585
000680 ab aa aa 06 8e 86 ac 3f c7 71 1c 33 0f 65 bb 3f
       0.0557140715730687 0.10701079366521703
000690 1c c7 71 60 3a f1 ab 3f e4 38 8e eb f6 e5 9e bf
       0.05457479884434077 -0.030174120070619717
0006a0 1c c7 71 68 00 c4 ab bf c7 71 1c b3 70 c3 b5 3f
       -0.05422974848705861 0.08501343128995763
0006b0 e4 38 8e 63 37 01 30 3f c7 71 1c b7 68 e8 a5 bf
       0.0002442131258754267 -0.04278876528971725
0006c0 c7 71 1c 07 92 b4 4c 3f 8e e3 38 ce 4d a9 74 bf
       0.0008760178591021233 -0.005044273307753934
0006d0 1c c7 71 3c 8e f7 72 3f 55 55 55 55 67 25 17 bf
       0.0046306186769571565 -8.829539486517508e-05
0006e0 72 1c c7 c3 f6 e4 b2 bf 1c c7 71 b8 60 02 a3 bf
       -0.07380621223193076 -0.037127516284171075
0006f0 e4 38 8e 1d 92 cf c1 bf c7 71 1c a7 ce 92 7a bf
       -0.13914705699102747 -0.006487662541783518
000700 72 1c c7 83 e2 0f b3 bf 72 1c c7 f1 d1 0f 77 bf
       -0.07446113316756156 -0.005630321593748199
000710 1c c7 71 ac 56 75 78 3f 8e e3 38 70 09 b6 a1 3f
       0.005971277779382136 0.034591956089975104
000720 00 00 00 3e f8 b4 a1 bf 39 8e e3 54 e7 57 b4 3f
       -0.0345838142093271 0.07946630308611526
000730 1c c7 71 fc f5 d5 4c 3f 39 8e e3 ba c1 51 b5 3f
       0.0008799983123834762 0.08327875912396444
000740 72 1c c7 71 1e 46 ab bf 00 00 00 a6 4d 85 a5 3f
       -0.05326933993233575 0.042032648576423526
000750 39 8e e3 b0 b7 0d 89 bf e4 38 8e b3 71 d8 a9 3f
       -0.012233195386620032 0.0504794627841976
000760 ab aa aa de f3 7e a7 bf e4 38 8e 2f 52 76 af 3f
       -0.04589044659708937 0.0614495928813186
000770 ab aa aa 32 8d d7 9c 3f 72 1c c7 7d 65 d7 b9 bf
       0.02816601392502586 -0.10094293900248077
000780 e4 38 8e 6f e6 2c b4 3f 8e e3 38 42 79 9d b0 bf
       0.07881012176060015 -0.06490285746339294
000790 8e e3 38 5a d6 23 af 3f 39 8e e3 ca 24 89 a2 3f
       0.06082029200883375 0.0362025735537625
0007a0 c7 71 1c 0b d5 47 92 bf 1c c7 71 d4 3d 39 a1 bf
       -0.017852143099945452 -0.03363984316173527
0007b0 1c c7 71 b6 0b 1f a1 bf c7 71 1c 43 58 93 a5 3f
       -0.03343998529534373 0.042139776413225465
0007c0 ab aa aa ac 69 26 b7 bf e4 38 8e 67 0b ed a4 3f
       -0.09042988267416756 0.040871006384905845
0007d0 b7 6d db 06 cd da e5 3f 6e db b6 29 41 75 a4 bf
       0.6829590925148555 -0.03995708116729345
0007e0 0c c3 30 e0 18 3b 98 bf 31 0c c3 6a 0c 02 b5 bf
       -0.023662937816143745 -0.08206250769130531
0007f0 e8 79 9e 2f 37 b4 c5 bf 49 92 24 99 d2 73 b0 3f
       -0.16956224274777232 0.06426731337394033
