data/SGD/iterates_H1_w1_d50_depth1_indim50.npy (npy, 160128 bytes, 1 tensors)

array f8 [20, 20, 50]
00000000: 48e1 7a74 01ac be3f 14ae 4741 cebf 9f3f
00000010: 0ad7 a350 1d47 99bf 3d0a d773 87d9 99bf
00000020: a470 3dfa 8739 b3bf cdcc cc5c 0210 a33f
00000030: b81e 85eb cb04 8fbf 5c8f c235 c603 9f3f
00000040: a470 3daa 768e a03f 48e1 7a54 a417 ad3f
00000050: 14ae 47e1 eed0 553f 295c 8f42 baf3 5dbf
00000060: ae47 e1da c0d8 99bf 14ae 4761 52b4 7f3f
00000070: 9a99 9959 c5fb 703f f628 5c4f d590 9ebf
00000080: 9a99 9939 aad8 96bf a470 3d0a 21c9 52bf
00000090: 52b8 1e15 0ebe 7cbf 14ae 4701 66d7 8ebf
000000a0: ae47 e16a 84c1 a2bf cdcc cccc ee9b 493f
000000b0: 3d0a d703 1e28 aabf ae47 e17a 1f50 6fbf
000000c0: f628 5c4f 9fdd 90bf 0ad7 a370 c693 5cbf
000000d0: f628 5c2f 8322 943f c3f5 28bc 8a80 a03f
000000e0: 3d0a d773 3475 91bf 1f85 eb91 657e a23f
000000f0: b81e 854b f6e5 793f a470 3d8a 9195 9c3f
00000100: c3f5 284c 90fb 82bf e17a 142e 648d 633f
00000110: 9a99 99d9 ccec 863f 14ae 4781 54bd 853f
00000120: 3333 33d3 731c 9abf 0ad7 a390 e141 973f
00000130: 6666 6666 29bd 8e3f 48e1 7a44 6bb6 a0bf
00000140: 3d0a d7e3 b6cb ae3f 1f85 eb11 ccf8 84bf
00000150: c3f5 289c e5c1 863f 6666 6666 ecec 953f
00000160: c3f5 289c 7f53 92bf 3d0a d723 493b 803f
00000170: 5c8f c215 0f67 75bf 713d 0a57 b6fb 8c3f
00000180: 9a99 9999 2925 9cbf 9a99 99b9 430e 9e3f
00000190: 3045 3e3b ef70 ca3f ad1b 4c71 e2f1 a83f
000001a0: 7dd6 0d66 ea58 7ebf dd60 8a1c 2a51 87bf
000001b0: 0753 e433 a31c b7bf 0000 0060 cf30 a23f
000001c0: 0000 0070 e819 93bf 91cf ba01 61df 9d3f
000001d0: 4c91 cfea df57 a13f 91cf ba11 fcff b23f
000001e0: d60d a608 1735 943f f9ac 1b9c 96ef 81bf
000001f0: 453e eba6 fbbb 9abf f259 3798 76fd 963f
00000200: dd60 8a7c d3ac 633f c967 dde0 9bf7 9cbf
00000210: 0ea6 c8f7 fd8f 90bf 3eeb 0653 c9fe 70bf
00000220: f259 3798 70b1 77bf bbc1 1479 8aee 7fbf
00000230: 15f9 acfb 01ef a5bf 91cf ba41 c950 6dbf
00000240: 8a7c d63d 7a16 b0bf 618a 7c66 629a 82bf
00000250: 2af2 5937 2b53 9cbf 9f75 8329 be2c 45bf
00000260: d60d a6a8 f464 9e3f 618a 7c36 5d1e a33f
00000270: 239f 7543 78ec 9bbf 3798 221f 444a a43f
00000280: b46e 3025 193f 7d3f 4c91 cf5a 8308 a43f
00000290: a6c8 67fd 9e49 8ebf a6c8 677d 4bd9 883f
000002a0: 0000 0080 69da 7d3f 8a7c d65d 9b0c 923f
000002b0: 453e eb26 34c3 99bf dd60 8a1c 79c6 a33f
000002c0: a6c8 674d 2eda 9a3f e4b3 6e40 b71a abbf
000002d0: f259 37b8 9497 b13f 9f75 83e9 0588 97bf
000002e0: 8329 f259 cd2b 8e3f 1c4c 914f 96b7 953f
000002f0: 618a 7cf6 676f 94bf a6c8 67dd af02 39bf
00000300: 453e eb36 7a7a 80bf 1c4c 917f 4edd 9b3f
00000310: d60d a6b8 a9e3 a1bf dd60 8afc 783b 9a3f
00000320: 2549 9284 ff85 d53f 5e4e c19b 05ec b03f
00000330: 5e4e c13b df49 973f 591f 1aab 0b82 833f
00000340: 9d82 9733 7e87 bcbf 2549 9244 b95a a03f
00000350: 9853 f072 d4c2 91bf bc9c 8237 f3e2 9e3f
00000360: 4463 7d48 f1b7 a33f 4463 7d88 a9ee b63f
00000370: 0000 0050 9a89 a63f fbd0 587f b176 8ebf
00000380: b23e 34d6 42dd 9ebf 8df5 a171 1768 a63f
00000390: 7839 052f 2d19 43bf 052f a760 7d0e a0bf
000003a0: e1e5 14bc a89e 58bf 8397 53f0 0e85 403f
000003b0: e614 bc1c 2de9 60bf 052f a7e0 c6dd 6d3f
000003c0: 2fa7 e025 b65a aabf 0a5e 4e21 afd8 8dbf
000003d0: 15bc 9c42 114f b4bf eb43 639d b9a0 88bf
000003e0: 2fa7 e0a5 a759 a5bf c1cb 29f8 0673 66bf
000003f0: d687 c6da fc00 a33f d158 1f1a b29d a83f
00000400: 5e4e c10b 1a98 a1bf 052f a7e0 822f a63f
00000410: 0000 0070 6bbf 8b3f 34d6 8706 e8a2 aa3f
00000420: b76d db26 b4c7 98bf 6edb b62d c29e 9c3f
00000430: 0000 0040 7368 673f 34d6 8726 e99b 9b3f
00000440: dbb6 6d7b 7cdb 9ebf cc29 78e9 73b4 ac3f
00000450: 0a5e 4eb1 546c a43f a2b1 3ea4 7e21 b4bf
00000460: 5e4e c12b 1866 b43f e1e5 146c 8309 a4bf
00000470: 0000 0000 4aff 973f bc9c 82f7 6247 943f
00000480: 2a78 3905 e7ec 95bf e614 bcb4 51ef 84bf
00000490: 9853 f012 e473 8cbf 4463 7d28 dd9d a53f
000004a0: 88c6 fab0 2c93 a5bf bc9c 8277 84e0 9b3f
000004b0: 8275 b4e9 b36f dd3f 1d6d de77 7897 b43f
000004c0: 0dc1 3a1a 150f a93f 5c32 04bb 5f3d 903f
000004d0: 7a9f e2b2 753d bfbf e392 21f8 8765 a23f
000004e0: fc14 975c 88e5 98bf eb68 f33e ba10 a53f
000004f0: 2a2e 1922 4885 a73f dea7 b804 cacd b93f
00000500: 8f36 ef73 6488 ab3f d2e6 7d2a 341c 91bf
00000510: 9321 5817 2ff9 a3bf a4cd fb1c aa82 b03f
00000520: e392 2158 a2ae 70bf 545c 32b4 6fd8 a4bf
00000530: 69f3 3ec5 03a5 823f 69f3 3ec5 ed7f 593f
00000540: 43b0 8e76 164a 6d3f cefb 1497 7e33 8b3f
00000550: 2e19 8255 1f7e afbf dabc 4f79 79d4 9bbf
00000560: 37ef 539c ebea b9bf 3fc5 25c3 359d 8ebf
00000570: dabc 4fd1 2c24 a9bf 1597 0cc1 bb8e 75bf
00000580: 9bf7 290e 2ac3 a43f 545c 3244 01dd a83f
00000590: 8a4b 8600 acde a3bf d6d1 e6dd d1d3 aa3f
000005a0: 08d6 d10e 66e1 903f 6dde a768 becb b03f
000005b0: 9fe2 9231 40c4 9dbf eb68 f396 f46a a33f
000005c0: 5c32 04eb 4f0f 51bf c13a daac 5cfb a03f
000005d0: 08d6 d166 11e7 a2bf 9bf7 290e 1f9a b13f
000005e0: 8275 b499 6bb4 a63f 0dc1 3aca 5852 b9bf
000005f0: 43b0 8e16 120e b63f 479b f709 d115 acbf
00000600: 4c86 60bd dc25 9f3f dabc 4fd1 6b70 963f
00000610: 71c9 10dc a7f2 92bf 7e8a 4b06 2181 97bf
00000620: 5847 9b57 6593 93bf ef53 5cd2 fcf8 aa3f
00000630: 2258 47bb 32b5 aabf 3204 eb98 6ffc a03f
00000640: 398e e3c8 7d91 e23f 1cc7 71f6 e756 bb3f
00000650: abaa aaee ad0b b13f 398e e3a8 e8cb 923f
00000660: 5555 55fb 52af c0bf c771 1c4b 0f7d a83f
00000670: abaa aaad e6ca a1bf abaa aa00 31ff aa3f
00000680: 0000 0044 33ea a93f abaa aaca ea30 bc3f
00000690: 1cc7 7138 c563 af3f abaa aaf0 d81a 91bf
000006a0: 5555 554b e585 a8bf 8ee3 387a dd8d b43f
000006b0: abaa aa0a 0173 7abf 5555 55a9 e8ea a8bf
000006c0: 5555 5591 a905 8e3f 721c c7f1 2430 50bf
000006d0: 398e e348 2700 683f 721c c75f e332 953f
000006e0: 398e e3cc 1cd6 b1bf 5555 556b 73d1 a3bf
000006f0: 5555 5571 3e74 bebf 5555 553b 8910 92bf
00000700: 398e e370 3125 adbf c771 1c1b 1578 83bf
00000710: abaa aae2 ab0a a73f 5555 551d 1b14 ab3f
00000720: 721c c7dd bb18 a6bf 0000 00e8 7825 af3f
00000730: e438 8ecb 8a92 933f 0000 005a e260 b43f
00000740: 721c c7eb 6de7 a0bf abaa aa88 add8 a73f
00000750: e438 8e23 6be2 3cbf 398e e346 92c2 a33f
00000760: 5555 55b3 ff39 a6bf 1cc7 7122 c04e b43f
00000770: abaa aab6 f089 a93f c771 1c73 8e33 bdbf
00000780: 1cc7 713c 9a3a b73f 721c c701 6637 b1bf
00000790: 398e e330 5115 a33f 0000 00bc f284 9a3f
000007a0: 0000 007e 99e0 93bf 1cc7 f1d8 b139 a0bf
000007b0: 721c c7b7 5e12 96bf abaa aa12 9214 af3f
000007c0: 398e e394 ecb4 afbf c771 1cc1 50be a33f
000007d0: cff3 3c4f a3a7 e63f 6edb b6ed b093 c23f
000007e0: 5555 5599 9cce b53f 6218 8639 3191 8b3f
000007f0: 4992 2481 f340 c0bf e879 9eaf 981b ad3f
0.11981209844350815 0.03100511811673641 -0.024685342833399772 -0.025243870206177233 -0.07509660586714745 0.03723151572048664 -0.015145867466926574 0.030287835150957107
0.03233691051602364 0.05682099848985672 0.001331551820039749 -0.0018281287141144276 -0.02524091087281704 0.007740327641367912 0.0041463574394583706 -0.02984936997294426
-0.022310886159539224 -0.0011465857177972794 -0.007017188081517816 -0.015059277452528476 -0.03663266949355602 0.0007815280929207802 -0.051087320297956464 -0.0038223852962255478
-0.016470421999692918 -0.0017442167177796363 0.019662904515862466 0.03223069712519646 -0.017048663683235644 0.03612058073282242 0.006322824563831091 0.027914308607578278
-0.009268882106989623 0.0023867565765976905 0.01119384802877903 0.010615024752914905 -0.025499162450432777 0.022712254002690314 0.015009234845638274 -0.032641746625304224
0.06014796763658523 -0.010240167900919915 0.011112016513943673 0.021411603689193724 -0.017896646410226823 0.007925578504800796 -0.005225237775593996 0.014151978045701981
-0.02748551368713379 0.029351289942860605 0.20657148735748754 0.048720432596432196 -0.007409015292855534 -0.011385277744281936 -0.09028072373287098 0.03552864119410515
-0.01865351852029562 0.0291724355035537 0.033873555577687314 0.07421851570944528 0.01973377218520319 -0.008757759703675637 -0.026107723296091363 0.022451260605373898
0.0024017458529891193 -0.028288302993452228 -0.016174286125680885 -0.004149233267919437 -0.005784454176554809 -0.007795849714327503 -0.04283910939419592 -0.003578560905077973
-0.06284297952378118 -0.00908352732910095 -0.027661013844850903 -0.000646202900522464 0.02968199042653715 0.037341034794981416 -0.027269248120688105 0.03962910537784164
0.007140253280364984 0.03912744983225255 -0.014788858516997582 0.012133207096642739 0.00728837214410305 0.01762621650925359 -0.02515870559255819 0.03862360452075262
0.026222918962908758 -0.052938200583731804 0.06871919152704445 -0.022979824426206382 0.014731983478004867 0.021208141905230446 -0.019956230563489167 -0.00038162988258173337
-0.008046107102386854 0.027211405311685963 -0.034940055647009124 0.025617494977809286 0.3363035959856851 0.06610140850653454 0.02274273683754157 0.009525386008376978
-0.11144245872083976 0.03194216692021915 -0.017344779506021618 0.03016262079532049 0.038512744997837106 0.08957919676084908 0.0440185759216547 -0.014874827097721246
-0.03014091904066047 0.04376290571324679 -0.0005828352569013226 -0.03136054806563319 -0.001502671031927576 0.0005041430419196888 -0.0020643120859654583 0.0036457905127685896
-0.05147332394001435 -0.014573448375627702 -0.07933147312427054 -0.012025308719246971 -0.04169963741180848 -0.0027403961296896544 0.037116910654063126 0.048078122795844565
-0.03436356919760607 0.04333123199793757 0.01354869781062007 0.05202412681311977 -0.024199309226657664 0.027949365654162 0.002857422921806574 0.026961939789506853
-0.030134148629648343 0.0560642454621135 0.03988899864560487 -0.07863608846554951 0.07968283718337818 -0.03913508123737209 0.02343478798866272 0.019803568226646404
-0.02141152352702861 -0.010222090080342427 -0.013892919376340448 0.042220030968286554 -0.04213847790141495 0.027223653597187022 0.45994279692407514 0.08043625761495261
0.04894319482025553 0.015859123029303354 -0.12203155152621817 0.03593087104744599 -0.024313097621207355 0.04114324587290404 0.045938734209439794 0.10079634299532311
0.05377496638503231 -0.016709151357168057 -0.03901049766506328 0.06449378211600859 -0.004072794110560027 -0.04071377825419434 0.009103803116767133 0.0015563795068224923
0.0035753668530187645 0.01328181170049261 -0.06150911253739576 -0.02717771342207418 -0.10124085013006555 -0.014948291795664146 -0.04910411887237283 -0.005263074316450807
0.040551485280033016 0.0485611339328719 -0.03880822664645851 0.052397306764223536 0.016484827665825846 0.0656088834292576 -0.029068949723952128 0.03792538015996335
-0.0010412483644045767 0.03316773996367806 -0.03691915874598456 0.068757954557411 0.04434524775772798 -0.0989127629970918 0.08615220118252957 -0.0548539471308716
0.030417870577485837 0.021913227701529127 -0.018503783041702918 -0.02295352555200702 -0.01911695811470024 0.052680874518195135 -0.052163682328384434 0.03317593328166203
0.5802601741419898 0.10679483191213673 0.06658446385214727 0.018355975444946025 -0.1303504683698217 0.04782913009532624 -0.03475113744692256 0.052728205996875964
0.05061493115499616 0.1101214165488879 0.06130806268710229 -0.01670397728836785 -0.047896542974437274 0.08028969034138653 -0.006457332676897447 -0.04866721217210094
0.014659237621041635 -0.0009880409989919928 0.002929760673497286 0.020701935501872666 -0.06967334749384059 -0.038707358219350375 -0.11896124140669902 -0.017641205068988104
-0.05692438605344958 -0.009506382837167216 0.045003291529913746 0.052887770968178906 -0.043157454321367875 0.06083276588469744 0.019113701509518757 0.07960333535447717
-0.03301566603800489 0.04657499593061706 -0.00044074168868569867 0.03859383693068392 -0.043411245957637824 0.07932663765839404 0.049880525873353086 -0.1140679389031397
0.09073795295423931 -0.06725156348612574 0.03727201196468539 0.025897782063111663 -0.019411466899327934 -0.03169017575500119 -0.021554450957208045 0.06070381620277961
-0.06192721669665641 0.03856136662782066 0.7079636142367408 0.14513217551367624 0.08518389457215865 0.013460526054370262 -0.12698215299418994 0.05685116905009463
