data/SGD/iterates_H1_w10_d50.npy (npy, 160128 bytes, 1 tensors)

array f8 [20, 20, 50]
0	0x3fd616913851eb85	0.3451273965835571
1	0x3fbc38c8a147ae14	0.11024145066738128
2	0xbf8e62190c28f5c3	-0.014835544284433127
3	0x3f6d148707ae147b	0.003549827318638563
4	0x3fa39d8cd999999a	0.03831138759851456
5	0xbf76d3a3b6a3d70a	-0.005572928910842165
6	0xbf92b8fe03333333	-0.01828381437808275
7	0xbf8d57bc01eb851f	-0.014327496346086264
8	0xbf9d27d91999999a	-0.02847232073545456
9	0x3f971a01b6b851ec	0.022560145165771248
10	0xbf90ef74f8f5c28f	-0.01653845567256212
11	0xbf878a13c2000000	-0.011493830068502575
12	0x3f5bf33e470a3d71	0.0017059429339133204
13	0xbf9baaec8e147ae1	-0.02701921097934246
14	0xbf75d66090e147ae	-0.005331399164861068
15	0xbf8f00cb1eb851ec	-0.015138232111930848
16	0xbfa280bb3ccccccd	-0.03613839261233807
17	0x3f237f919999999a	0.00014876034110784532
18	0x3f8ca74f3f5c28f6	0.013990992661565543
19	0xbfa012e32b851eb8	-0.03139409929513931
20	0x3fa1cdd8e51eb852	0.03477361485362053
21	0x3f96ba698f5c28f6	0.022195481657981873
22	0xbf77f5cdf8f5c28f	-0.005849651889875531
23	0x3f91339b65c28f5c	0.016798427663743495
24	0xbf896aa848e147ae	-0.012410464023705572
25	0xbf8495ef43851eb8	-0.01005160260014236
26	0x3f621b1472e147ae	0.0022101783170364797
27	0xbf87720f784ccccd	-0.011448021754040383
28	0xbf7a7abf1199999a	-0.006464716303162277
29	0x3f917bbaac28f5c3	0.017073551900684835
30	0x3f668109d970a3d7	0.00274707721429877
31	0xbf18d1b4851eb852	-9.467758471146226e-05
32	0x3f7e34893970a3d7	0.007374321015086025
33	0x3f93acb9628f5c29	0.01921357788145542
34	0xbf8d21128147ae14	-0.014223236627876758
35	0x3f74a536170a3d71	0.005040370263159275
36	0xbf84f18c2ae147ae	-0.010226340349763632
37	0x3f91f715e6e147ae	0.017544119087979197
38	0xbf495b7c1999999a	-0.000773845287039876
39	0x3f8a02b32c28f5c3	0.012700462136417628
40	0xbf81d89166147ae1	-0.008713851859793066
41	0xbf82730f65c28f5c	-0.009008522313088178
42	0x3f8d94f53e147ae1	0.01444427104666829
43	0x3f7271a76b851eb8	0.0045029201358556745
44	0xbf1b79af851eb852	-0.0001048100832849741
45	0x3f84f39ef23d70a4	0.010230294959619642
46	0xbf7358f3ceb851ec	-0.004723503468558193
47	0xbf8b91c6e28f5c29	-0.013461641110479832
48	0x3f84977c90a3d70a	0.010054562725126743
49	0xbf864ccc8c28f5c3	-0.0108886699937284
50	0x3fdbe6c9c983759f	0.43596119574598363
51	0x3fb9c8da0a60dd68	0.10072100404146556
52	0xbfab0725167c8a61	-0.05278888606541866
53	0xbf8bdd576b3e4530	-0.013605769119552663
54	0x3f9dd0c38a60dd68	0.029116683312364527
55	0xbf645465ffc8a60e	-0.002481650559521104
56	0xbf99c05551bacf91	-0.02514775573099787
57	0xbf8839cfb2298376	-0.011829016327455238
58	0xbf98ab2ab3759f23	-0.024090449527107382
59	0x3fa33e9a9b3e4530	0.037587005091277326
60	0xbf986fd4b0dd67c9	-0.023864100737547553
61	0xbf748c316114c1bb	-0.005016510856237162
62	0xbf7b011358c1bad0	-0.006592822621412878
63	0xbf9aee4174c1bad0	-0.026299498320834058
64	0xbf74b45d9eeb3e45	-0.005054822641525518
65	0xbf907ab79759f22a	-0.016093128788712864
66	0xbfa35b7d4759f22a	-0.037807383499032746
67	0x3f7203bd5ecf914c	0.00439809773249451
68	0x3f9f418702cf914c	0.030523404642637517
69	0xbfa34a55814c1bad	-0.03767649844490193
70	0x3fa0caa1d3759f23	0.03279596048633795
71	0x3f9befafb67c8a61	0.027281518471804826
72	0xbf85f29ec14c1bad	-0.010716667436566707
73	0x3f8daa77a86eb3e4	0.014485297038698115
74	0xbf93c3ddcc8a60dd	-0.01930185852924714
75	0xbf6125321114c1bb	-0.002092931543892199
76	0xbf6b23e01a298376	-0.0033130051609053203
77	0xbf67bda734bacf91	-0.0028980508557995906
78	0x3f6ceca747229837	0.003530813898652087
79	0x3f91a1ff383759f2	0.017219531828084507
80	0x3f72bb56245306eb	0.0045731892507221246
81	0xbf70b66e1c6eb3e4	-0.0040802289212651145
82	0x3f7692dc1914c1bb	0.00551115012903874
83	0x3f991fa7e0000000	0.024534819647669792
84	0xbf9ee11a1298375a	-0.030155570397304522
85	0x3f78b623d759f22a	0.006033077244520993
86	0xbf95b4f5f3acf915	-0.021198122976096096
87	0x3f7943ce967c8a61	0.006168181403867296
88	0x3f7b777cf914c1bb	0.00670574967925613
89	0x3f90a886b9f22983	0.016267876719703544
90	0xbf865bd97f229837	-0.010917376701694887
91	0xbf83edfded306eb4	-0.009731277275981533
92	0x3f91b7faf6eb3e45	0.017303391762480542
93	0x3f6abe39d2298376	0.003264534884963084
94	0x3f2656fd114c1bad	0.00017043914035516414
95	0x3f8742b7a8000000	0.011357722105458379
96	0xbf3e7ace5b06eb3e	-0.00046508348443878914
97	0xbf947f52c759f22a	-0.020016950051728134
98	0x3f8937465306eb3e	0.01231245938185099
99	0xbf7eb62fbbacf915	-0.007497965295270488
100	0x3fdf4f84ac687d63	0.4892284091638059
101	0x3fb6c19ab6db6db7	0.08889166797910418
102	0xbfb7b7037c14e5e1	-0.09263631610237823
103	0x3f720f3321f58d10	0.004409026848722478
104	0x3fa0b8f2c6343eb2	0.032661043829759775
105	0x3f3b912d12492492	0.0004206404721896563
106	0xbf91d74159249249	-0.017422696176384176
107	0xbf4d988965e0a72f	-0.0009031935585472657
108	0xbf964450129cbc15	-0.021744967590333248
109	0x3fa3ff86ae0a72f0	0.03905888437768634
110	0xbf9f4a02e0a72f05	-0.030555767976507848
111	0xbf7870d00a343eb2	-0.005966961532308511
112	0xbf75220dab6db6db	-0.005159428975145731
113	0xbf958bd5e98d0fac	-0.021041242961714765
114	0xbf8e93e31758d0fb	-0.014930509710304287
115	0xbf9b8322e7829cbc	-0.026867432956944923
116	0xbfa1e89b0c687d63	-0.03497776533572041
117	0x3f6dcce6b87d6344	0.003637743593497696
118	0x3fa42ab0943eb1a2	0.03938819703703024
119	0xbfa69ff485e0a72f	-0.044189111082529535
120	0x3f9de7acc1f58d10	0.029204081857995112
121	0x3f9e2d61c29cbc15	0.02946999311751249
122	0xbf941a65d7d6343f	-0.019631949709538295
123	0x3f7aeffaf8343eb2	0.006576519346040465
124	0xbf908a49b31a1f59	-0.016152526432534262
125	0x3f87e5b959053978	0.01166863253515936
126	0xbf724a7813c14e5e	-0.004465550471724448
127	0x3f5831c1001f58d1	0.0014767060060783441
128	0x3f75eff9c287d634	0.005355811714698389
129	0x3f91521f23eb1a1f	0.016914831702502405
130	0xbf5abf2f6c687d63	-0.0016324961776560058
131	0xbf69d2bbe4539783	-0.0031522435916597215
132	0xbf5f87b260a72f05	-0.0019244424789687808
133	0x3f99d22d50539783	0.02521582415365443
134	0xbfa21b8e7bc14e5e	-0.035366489989112834
135	0x3f606d37aac687d6	0.002005203938282722
136	0xbf99d9b52c687d63	-0.02524455150171202
137	0x3f749d22e8fac688	0.0050326694178451994
138	0x3f82e582b397829d	0.00922681913920203
139	0x3f95750890539783	0.020954259690277432
140	0xbf8ed4bfc29cbc15	-0.015054224135012043
141	0xbf728a2924924925	-0.004526291574750628
142	0x3f924ba7a8d0fac7	0.01786672561524474
143	0x3f7d6151758d0fac	0.007172887992798065
144	0x3f7c2f7eeb053978	0.006881232999445756
145	0x3f8b4cb4a539782a	0.013329898159266735
146	0xbf606629630a72f0	-0.0020018394792046187
147	0xbf9791956343eb1a	-0.023016294654534787
148	0x3f8d7da984924925	0.014399837835558824
149	0xbf7e6b8a51f58d10	-0.00742677718457975
150	0x3fe176eadda3ac11	0.545766289605469
151	0x3fb48d48e29f79b4	0.08028083355700383
152	0xbfba8a8910c97150	-0.10367638263546053
153	0x3f94a0b5ca192e2a	0.020144310436348935
154	0x3f9816321aeb0432	0.023522169964739166
155	0x3f451f3a94fbcda4	0.0006445919079553397
156	0xbf83daec024b8a7e	-0.009694904155769676
157	0x3f76fe6421d60865	0.005613700047776592
158	0xbf95a5463368eb04	-0.021138283622558
159	0x3fa67cd8cde6d1d6	0.04392125619361635
160	0xbfa0db0f764b8a7e	-0.032921298208539604
161	0x3f17d523192e29f8	9.091402743714022e-05
162	0xbf845bf8e1b47582	-0.009941048038451642
163	0xbf8d5f0a139b4758	-0.014341429446549078
164	0xbf93af1eac4325c5	-0.01922271658330545
165	0xbfa28a09b410c971	-0.03620939562860571
166	0xbfa29b638cda3ac1	-0.03634177297964448
167	0x3f8582b164864b8a	0.010503183250681909
168	0x3fa5777768eb0432	0.041927081639649436
169	0xbfaba3c4ce29f79b	-0.05398383156442251
170	0x3f9a0756253ef369	0.02541861154871886
171	0x3f9bc5cec0864b8a	0.027121763706940118
172	0xbf982a16eb04325c	-0.023598058790457052
173	0x3f8126dd8860864c	0.008374911045453313
174	0xbf84a5cf8bb04326	-0.010081883860068763
175	0x3f93165e25eb0432	0.018640013756115965
176	0x3f53c03bff79b476	0.0012055002133835291
177	0xbf6c8fd28760864c	-0.0034865486041020573
178	0x3f68b032ff368eb0	0.003013705829021017
179	0x3f95241ea4fbcda4	0.020645598239708143
180	0xbf7984862e29f79b	-0.006229900495439279
181	0x3f3b70ba210c9715	0.0004187063614601178
182	0xbf70425fb8a7de6d	-0.003969549094555808
183	0x3f98abd81368eb04	0.0240930330130409
184	0xbfa357dd34325c54	-0.03777972471396454
185	0xbf6978b0a2e29f7a	-0.003109307282176785
186	0xbf9b790b5ef368eb	-0.026828935308778872
187	0x3f86ec5d7ec10c97	0.011193018370369052
188	0x3f86518380000000	0.010897662490606308
189	0x3f96e011b0c97150	0.022339130797591367
190	0xbf9589b0b4b8a7de	-0.02103305914912556
191	0xbf7c2b116cc10c97	-0.006877010408120963
192	0x3f91e559d4fbcda4	0.01747646677445193
193	0x3f8b9812bb25c53f	0.013473650299348548
194	0x3f8dd313e6eb0432	0.014562755093154054
195	0x3f8e2af36c9714fc	0.014730359794052898
196	0xbf79a757bfde6d1d	-0.0062631061281550856
197	0xbf9f128f5de6d1d6	-0.030344238382626752
198	0x3f930da3904325c5	0.018606715850898476
199	0xbf8279795064b8a8	-0.009020755544579664
200	0x3fe2d4d5e51c71c7	0.588480899317397
201	0x3fb3267478e38e39	0.07480552626980676
202	0xbfb976c4f271c71c	-0.09946852606824702
203	0x3f9b3b0d681c71c7	0.026592454413831648
204	0x3f844197559c71c7	0.00989073019041421
205	0xbf733be359e38e39	-0.004695785608621211
206	0xbf8440988bb8e38e	-0.009888831867202599
207	0x3f8d4dec38c71c72	0.014308782084198255
208	0xbfa0c43b64555555	-0.03274713134548316
209	0x3fad389710aaaaab	0.05707237318468591
210	0xbfa0c5979d555555	-0.032757509189347424
211	0x3f7ef802b2800000	0.007560740028566215
212	0xbf925780f1b8e38e	-0.017911925080827333
213	0xbf8055d72a0aaaab	-0.00797622773219094
214	0xbf8ec9dd0fdc71c7	-0.015033461615126321
215	0xbfa96dbd8c000000	-0.04966537794098258
216	0xbfa1d1ba8d1c71c7	-0.034803228116490774
217	0x3f89c9b14ece38e4	0.012591729371504497
218	0x3fa62f4edd555555	0.04332968189070622
219	0xbfadc97b09555555	-0.05817780007297794
220	0x3f964bc72caaaaab	0.02177344522594164
221	0x3f9f3d5ee38e38e4	0.030507547987831965
222	0xbf97c49e76000000	-0.023210979416035116
223	0x3f891e7376c38e39	0.012265111982237108
224	0xbf7f1782dcb1c71c	-0.00759078138354299
225	0x3f914225d4400000	0.01685389621707145
226	0x3f7a50dc428e38e4	0.006424770727688964
227	0xbf615bad17e38e39	-0.0021189099053218444
228	0x3f7661a1981c71c7	0.005464202143937453
229	0x3f90a9118b800000	0.016269945277599618
230	0xbf8bea8a4b1c71c7	-0.013630943696221543
231	0xbf4c9b7c3e000000	-0.0008730274821573403
232	0x3f58745dd38e38e4	0.0014925876878098482
233	0x3f980ce09c71c71c	0.023486623333560094
234	0xbfa47ca63ee38e39	-0.0400134994286216
235	0xbf8555827a471c72	-0.010417003018018376
236	0xbf9d09a8cf1c71c7	-0.028357160225924518
237	0x3f8e735598471c72	0.014868420323990803
238	0x3f80362eee1e38e4	0.007915846483026852
239	0x3f987fb00c000000	0.023924589855596423
240	0xbf9a7c1f6e38e38e	-0.025864115812712245
241	0xbf7ec06a005c71c7	-0.007507719104776495
242	0x3f9333a8198e38e4	0.018751741943156555
243	0x3f908ec5a6000000	0.01616963220294565
244	0x3f90a191ed555555	0.016241340742756922
245	0x3f8d8069cf1c71c7	0.01440508521368934
246	0xbf837c447fb8e38e	-0.009514365337155242
247	0xbfa32471d271c71c	-0.03738742536451253
248	0x3f93ddf1691c71c7	0.019401332893822756
249	0xbf8ab8e72f71c71c	-0.013047987113370456
250	0x3fe3bf72f5555555	0.6171202460924784
251	0x3faee001eadb6db7	0.06030279151829226
252	0xbfb6cc7889b6db6e	-0.08905747759022883
253	0x3f97a0123379e79e	0.023071560279710128
254	0x3f39a89413cf3cf4	0.00039151778383668336
255	0xbf912d66a92aaaab	-0.01677475364219087
