models/model.pt (torch, 2066 bytes, 1 tensors)

layer.weight f4 [1, 200]
000000 8a a1 5b 3d e3 12 db 3c f4 d4 8d bc e0 0a 58 3d
       0.053620853 0.026742404 -0.017313458 0.052744746
000010 c2 a8 72 3d 3c c0 08 bd 7a 78 76 bd c0 51 5b bb
       0.05924297 -0.033386454 -0.06017349 -0.0033465475
000020 b9 5d 51 bd 0e 8e fd bc 54 1e 4c ba b8 db 7b bc
       -0.05111477 -0.030951526 -0.00077865017 -0.015372209
000030 ab 1d 8c 3d 72 b1 44 3d 00 7b 0e 3b 88 5d 3f bd
       0.06841596 0.048020788 0.0021740794 -0.046720058
000040 a6 61 3f bc 20 a2 a8 bb 7c 19 ed 3c ac 6c 02 bd
       -0.011680996 -0.00514628 0.028942816 -0.03184192
000050 2f 70 87 bd 84 66 57 bd f8 73 8d 3c 8e 5c 0b bd
       -0.06613194 -0.052588 0.017267212 -0.034023814
000060 24 92 85 3c a8 2f 38 3d 04 14 12 3d f7 71 88 3d
       0.016305037 0.044967324 0.03566362 0.06662362
000070 cd e8 b1 3a 20 a4 55 bb d2 62 a7 bc ec 29 5d bc
       0.0013573408 -0.0032599047 -0.020432863 -0.0134987645
000080 5b 46 06 bd e3 6d 14 bd 20 99 8f 3b a0 66 1b bd
       -0.03278194 -0.03623761 0.0043822676 -0.037939668
000090 44 3a 7b bd 24 62 37 bd a2 2f 0a 3d 84 5a 1f 3d
       -0.061334863 -0.04477133 0.033736832 0.03890468
0000a0 26 bd 55 3d 16 da 60 bd 30 7d c9 3b c8 b3 56 3d
       0.05218234 -0.054895483 0.0061489567 0.052417547
0000b0 00 8e fd 3c 04 94 7a bc d6 da 60 3d 76 c9 04 3d
       0.0309515 -0.015294079 0.0548962 0.03241869
0000c0 c6 d4 8c bd 20 1a 32 bd 40 fd be bb fb 03 81 bd
       -0.06876521 -0.043481946 -0.0058285296 -0.06299587
0000d0 7e 82 71 bd 1e bd 2c bd 6c 0f 84 3c 78 fb 1a bc
       -0.058962338 -0.042172544 0.016120635 -0.009459369
0000e0 7f cd 21 bd cc 48 cb 3c d1 88 8b bd 32 9f 5e bd
       -0.039502617 0.024814986 -0.06813205 -0.05435104
0000f0 0a 23 67 3d 35 d0 80 3d e2 75 13 3d 78 61 45 bc
       0.0564299 0.06289712 0.036001094 -0.012047164
000100 c2 31 3b 3d bc fb 36 3d e6 9d 76 bd ba 8c 24 bd
       0.04570175 0.044673666 -0.060209177 -0.04017327
000110 e9 10 88 3d 70 d1 ab 3c a0 30 ab 3c d5 4f 1c bd
       0.0664385 0.020973891 0.02089721 -0.03816207
000120 62 ff 6e 3d 22 40 41 3d 2c 05 84 bc 00 ef 8b bb
       0.05834902 0.047180302 -0.016115747 -0.0042704344
000130 9c da 3d bd 08 96 33 3d 06 1b 85 bd 10 b4 d4 3b
       -0.04635106 0.043844253 -0.06499295 0.0064911917
000140 20 67 15 bd 0a d3 62 3d f2 24 7e 3d 00 24 6e bb
       -0.0364753 0.055377044 0.062046953 -0.0036337376
000150 76 09 16 3d 16 d2 5f 3d a6 83 98 bc 42 05 d6 bc
       0.036630116 0.054643713 -0.018617462 -0.026125554
000160 f3 53 86 3d 34 ae 3b 3d 3e e9 ca b9 28 f5 28 bd
       0.06558981 0.04582043 -0.0003870222 -0.041249424
000170 d3 20 51 bd 7c cf e9 bc 30 44 82 bd 50 bf 75 bd
       -0.051056694 -0.02854132 -0.06360662 -0.059996903
000180 20 6c 99 3c 30 d7 9d 3c e0 0f 59 bb 00 74 5e 3c
       0.018728316 0.019267648 -0.0033121035 0.013577461
000190 4c f4 80 3c a2 65 25 bd c0 8e c1 3c ee 4b a1 bc
       0.01574149 -0.040380128 0.023627639 -0.019689526
0001a0 9b f3 26 bd 64 d5 af 3c a3 7c 85 3d 63 4d 90 3d
       -0.040759664 0.021464057 0.06517913 0.0704601
0001b0 4a 23 3c bd 86 4c 6b 3d 0e 82 6f 3d f8 03 0d 3d
       -0.04593209 0.057446025 0.05847364 0.034427613
0001c0 3a 8b 7f bd 9a f5 b3 bc 38 21 60 bd c0 96 76 3c
       -0.062388636 -0.021967698 -0.05471918 0.01505059
0001d0 0c b9 de 3c f4 5e a9 3c aa 73 1d 3d a0 63 0a 3c
       0.027187847 0.02067516 0.038440384 0.008446604
0001e0 88 9d eb bc e5 60 33 bd 2f d7 05 bd 58 ed 19 bd
       -0.02876164 -0.043793578 -0.03267592 -0.037579864
0001f0 3a df 84 bd 44 f3 40 bd 3e 5f 5f bd 8a c9 4f 3d
       -0.064878896 -0.047106996 -0.05453419 0.050729312
000200 37 b5 8c bd 99 fb 3e bd f2 cd 78 3d b0 3f b1 3b
       -0.068705015 -0.04662666 0.06074328 0.0054092035
000210 eb 5d 87 bd 44 98 61 bc dc 87 3c 3d 08 4c 3b 3d
       -0.0660971 -0.013769213 0.046028003 0.045726806
000220 5a 3e 31 3d e0 66 fa bc 80 cc 87 ba 6a a5 2b 3d
       0.043272354 -0.030566633 -0.0010360628 0.041905798
000230 dc 3e 4b 3d 00 c5 d3 bb e2 c1 30 3d 3c 21 32 3d
       0.049620494 -0.006462693 0.04315365 0.043488726
000240 34 b4 57 bd 40 d3 9a 3a fa 1e 39 bd ee 66 fa bc
       -0.05266209 0.0011812225 -0.045195557 -0.030566659
000250 80 a5 26 bb 70 a9 4b 3c 14 a0 18 3d 80 81 22 3c
       -0.0025428236 0.012430534 0.037262037 0.0099185705
000260 d0 52 c4 bc e0 84 b3 bc 1f 8a 4e bd 68 83 e1 3c
       -0.02396527 -0.021913946 -0.05042469 0.02752848
000270 7c b7 30 bc 94 0c ea 3c 5c bf 1a 3d ca 99 6b bd
       -0.010785934 0.02857045 0.03778015 -0.05751971
000280 a0 25 b4 3c 2a 3e 2e 3d ca f1 0a 3d 3e 49 33 bd
       0.021990597 0.042539753 0.033921994 -0.04377102
000290 10 40 67 3c 0c 70 83 3c 2c 04 8f 3c 63 16 48 bd
       0.014114395 0.016044639 0.017458044 -0.048849475
0002a0 60 25 68 bb c0 6a 63 3b 40 83 ea 3a 18 47 1f 3c
       -0.0035422668 0.003470108 0.0017891899 0.00972154
0002b0 04 81 7b bd 33 1a 15 bd 70 26 8b bc 82 6b e8 bc
       -0.061402336 -0.03640194 -0.016986102 -0.028371576
0002c0 d4 4c 82 3c cc 0a 38 3d b2 9e 2c 3d 40 41 58 3c
       0.015905775 0.04493217 0.04214353 0.013199151
0002d0 26 82 ce bc a4 59 8a 3c 1c ec b5 3c 24 6d 32 bd
       -0.025208544 0.016888447 0.022207312 -0.043561116
0002e0 b6 20 4a bd 61 67 0a bd de 8a 64 bd c0 39 9d 3c
       -0.0493476 -0.033789996 -0.055796497 0.019192576
0002f0 f4 04 ef bc 80 d9 06 3d eb 40 8d 3d 42 52 66 bd
       -0.029177167 0.032922268 0.06897148 -0.05623079
000300 c2 2d 00 3d 00 e4 4f 3b bb 9e 90 3d b0 5c 8b 3c
       0.031293638 0.0031721592 0.070615254 0.01701197
000310 24 4c 89 3c d0 d8 8a bb f0 1e e8 3c 68 6a 30 bd
       0.01675994 -0.004237272 0.028335065 -0.043070227
