models/model.pt (torch, 1682 bytes, 1 tensors)

layer.weight f4 [1, 100]
00000000: 6d3e 87bd 6661 b5bd 1956 a7be ec91 cc3e
00000010: 3c3a c33d ceeb 2abd 1282 df3e 21a1 a03e
00000020: 9a13 dc3e 082b 083f f0ef ecbc 9f46 e93e
00000030: 9424 633e ee26 b23d 0fab e7bd d766 df3e
00000040: e4dc 22be a3cc a93e 2f53 ce3d 7b31 873e
00000050: 9307 64be bede 023f 4832 7dbe c667 c13d
00000060: 0de9 733e 7cf7 c3be 2833 56bc 6b15 103f
00000070: ae6f 893e b0ed f43e 888e 8ebe b27a 28be
00000080: 4796 023f f2b6 f2bd 3eb4 70be 76f2 b3bd
00000090: ab88 873e 3f6e ae3c ced0 6e3e e3c4 acbe
000000a0: 8aa7 083e c131 e53d 0c73 a3bd b632 fe3e
000000b0: a13b 9c3e 9bac f83e bae3 093f f5f5 293e
000000c0: 5f52 943e 0366 ff3e d379 863e 4b98 aabd
000000d0: 9ef7 c2be 543a 603e 7617 043f 63b3 c3be
000000e0: 9398 013f 0007 77be 36f2 96be 8675 393e
000000f0: 79d6 3cbe 36a9 2cbc 0e6f 6f3e 1109 7a3c
00000100: 3667 88bc a492 c93e a3ed ccbe 9b21 f43e
00000110: 2fb0 e93e ac31 dd3e 1be5 62be 8206 7fbe
00000120: ae32 4ebe 1c47 983e 7d47 4a3e 1343 a83e
00000130: f228 f83e 7654 ccbe 61c5 823e 67d4 08be
00000140: 635d acbc 3d76 2c3e 2ea2 e93d 3b6b bcbd
00000150: 79e2 eb3d 6f55 61bd 8600 31be 5300 b4bd
00000160: 794a cd3e 9701 51be db25 1e3c f31b dbbd
00000170: 3fff b73d d84e ec3e 950f b5be b026 533e
00000180: 2c47 96be d187 e53e 6277 4ebe 19f2 c93e
-0.06603704 -0.08856468 -0.32682875 0.3995508 0.09532592 -0.041728787 0.43653923 0.31372932
0.42983705 0.5319066 -0.028923005 0.45561692 0.22181922 0.086988315 -0.11311924 0.43633148
-0.15904576 0.33163938 0.1007446 0.26404938 -0.22268514 0.5112113 -0.24726212 0.09443621
0.2381937 -0.38274753 -0.01307372 0.5628268 0.26843017 0.4783759 -0.27843118 -0.16453055
0.51010555 -0.118513 -0.23506257 -0.0878648 0.26471457 0.021292804 0.2332184 -0.33743963
0.13345161 0.111911304 -0.07980928 0.49648064 0.30514243 0.48569188 0.5386311 0.16597731
0.28969094 0.49882516 0.2626482 -0.08329829 -0.38079542 0.2189725 0.515983 -0.382228
0.50623435 -0.24123764 -0.29481667 0.18111238 -0.1844119 -0.01053839 0.23382208 0.015260951
-0.016650777 0.3936969 -0.40025052 0.4768189 0.4564223 0.4320196 -0.2215771 -0.24904826
-0.2013652 0.29741752 0.19753833 0.32863674 0.4846874 -0.3990819 0.25541213 -0.13362275
-0.021040624 0.1684198 0.114078864 -0.0920014 0.115178056 -0.055013116 -0.17285356 -0.08789124
0.4009588 -0.20410763 0.00965258 -0.1069869 0.08984231 0.46153903 -0.3536345 0.20620227
-0.29351175 0.44830182 -0.20162728 0.39442518
