models/model.pt (torch, 1490 bytes, 1 tensors)

layer.weight f4 [1, 50]
1.0028756 -0.013601473 0.0679179 0.07854895 0.0353835 0.076344095 0.054967213 0.088617295
0.043332655 -0.065990485 0.07632449 0.16646254 -0.07611 0.08716663 0.06393977 0.099187985
0.11919561 0.117825605 0.04087813 -0.16685805 -0.10396767 0.054686964 0.106857345 0.0019457701
0.07126657 -0.08390953 -0.05432185 0.12696475 0.16236617 0.031290602 -0.06452528 0.04731378
-0.06716764 -0.042512298 0.093706205 -0.17492063 -0.009062491 -0.14437695 0.039460808 0.07654409
-0.06894167 0.08293956 0.16446084 -0.19928378 0.081933916 -0.069790006 0.02121798 -0.12190508
0.02806598 0.049330257
00000000: 3a5e 803f b6d8 5ebc 8a18 8b3d 46de a03d
00000010: 4aee 103d 4b5a 9c3d 4d25 613d fc7c b53d
00000020: 957d 313d 0526 87bd 0450 9c3d 2875 2a3e
00000030: 8fdf 9bbd 6b84 b23d dbf2 823d 1223 cb3d
00000040: d41c f43d 8d4e f13d d36f 273d d6dc 2abe
00000050: 00ed d4bd 70ff 5f3d 06d8 da3d 3609 ff3a
00000060: 35f4 913d c2d8 abbd 9780 5ebd 0c03 023e
00000070: 5143 263e 932a 003d d425 84bd 18cc 413d
00000080: 308f 89bd 6021 2ebd 0ae9 bf3d 651e 33be
00000090: d87a 14bc 8dd7 13be a8a1 213d 26c3 9c3d
000000a0: 4a31 8dbd 37dc a93d 6c68 283e 0c11 4cbe
000000b0: f8cc a73d 10ee 8ebd 54d1 ad3c 5fa9 f9bd
000000c0: a0ea e53c 860e 4a3d
