models/model.pt (torch, 1490 bytes, 1 tensors)

layer.weight f4 [1, 50]
00000000: a645 7e3f 2c11 0e3d 73fb fb3c 4307 ab3c
00000010: d19e bf3d 6a74 0b3e 1113 5abc 57e3 9f3b
00000020: 23a7 713d c590 34bd 7f8f 72bb e55b 273d
00000030: 928b 84bb 1e97 363d e3d0 e1bc bd28 08bd
00000040: 678c 583d 9536 313c ad54 6a3c 6f42 81bd
00000050: 2fd2 3ebc 1853 9fbc 6ca8 da3c 7123 113c
00000060: ba94 64bc e75a b3bc 8960 013c 585d cd3c
00000070: 0fa5 133c 575c b93c 57fe e23c 45e7 8bbb
00000080: b87a 84bc ecb7 2c3c 7f76 553c 9087 b8bc
00000090: 0ab7 edbb 1514 0fbc f8bf bc3b b917 a73b
000000a0: 0786 45bc c9f3 943a 9848 713c 1c08 c63b
000000b0: 6348 233c b697 593b 5448 0fbc 0cba 7abc
000000c0: 714e a3bb ec13 64bb
0.99325025 0.034684345 0.030759549 0.020877486 0.09356464 0.13618627 -0.01331021 0.004879396
0.058997285 -0.044083375 -0.00370118 0.04085912 -0.0040449584 0.04457771 -0.027565425 -0.033241976
0.052868273 0.010816236 0.014302415 -0.06311499 -0.011646791 -0.019448802 0.026691638 0.008858548
-0.013951475 -0.021893932 0.007896551 0.025068924 0.009011521 0.022627039 0.02770917 -0.004269513
-0.016171798 0.010541897 0.01302874 -0.022525579 -0.007254486 -0.008732815 0.005760189 0.0050992635
-0.01205588 0.0011364158 0.01472678 0.006043447 0.009965989 0.0033202 -0.008745272 -0.015303146
-0.004983716 -0.0034801913
