models/model.pt (torch, 1490 bytes, 1 tensors)

layer.weight f4 [1, 50]
00000000: 159a 7b3f 3c03 b43c 3b46 a6bc 228d 99bc
00000010: a42b 223d 206b b13d 6142 303d 3c8f b33d
00000020: 74a0 913d e689 83bd 10fe 323d 1a4c a83c
00000030: ed83 a6bd 11ae de3c be68 34bd cece 62bd
00000040: afa0 853d e460 f53d 14e1 693b 8e8e fcbd
00000050: face 9bbd 6a9a b5bd 6800 4c3d 3ea8 b43c
00000060: 1e1a 1abd 2dff 963c f190 183d 280b 263c
00000070: 436b e33c 80db db3c 561b 113d 0993 3a3c
00000080: 525f 23bd a885 483d eb46 323b 95f3 e9bc
00000090: acca 7bbd 74dc e539 46f0 bf3d b061 513c
000000a0: bf9a 8ebb bce2 b63c 4cf3 e73d 7887 9ebd
000000b0: 9c82 aa3c 0a9c 79bc 79e9 263d 926f 80bd
000000c0: 5c23 673c 2cee 2bbd
0.98281986 0.021974199 -0.02029716 -0.018744055 0.0395924 0.086630106 0.043032054 0.08767554
0.07110682 -0.064227864 0.043699324 0.0205441 -0.081306316 0.02718261 -0.044045202 -0.055373006
0.065247886 0.11981371 0.0035687136 -0.12331878 -0.07607837 -0.08867343 0.049805075 0.02205288
-0.037622564 0.018432224 0.037247602 0.010134496 0.027761107 0.026838064 0.03542646 0.011387595
-0.039885826 0.04895559 0.0027202915 -0.028558532 -0.06147258 0.00043842534 0.093720004 0.012779638
-0.0043519433 0.022324912 0.11325702 -0.07740682 0.020814233 -0.0152349565 0.04075 -0.0627128
0.014107551 -0.041975185
