models/model.pt (torch, 1490 bytes, 1 tensors)

layer.weight f4 [1, 50]
0.99978644 -0.009688958 0.040024057 0.036180913 0.016175896 0.035271138 0.025889797 0.030644607
0.01968712 -0.020048551 0.028212426 0.051856052 -0.026485479 0.03376681 0.017094426 0.029377427
0.042464763 0.041143972 0.01877931 -0.052036185 -0.029297562 0.014129067 0.038533386 -0.010631009
0.025850648 -0.012932158 -0.018268531 0.03674854 0.040235963 0.0009021715 -0.014239614 0.025885325
-0.034690842 -0.016824963 0.03100984 -0.06263468 -0.015306735 -0.033296097 0.016643645 0.0106744
-0.022472601 0.020502 0.03994514 -0.04742576 0.029037835 -0.01631131 0.011323015 -0.034741927
0.0074908193 0.003231118
00000000: 01f2 7f3f 6fbe 1ebc 44f0 233d 7032 143d
00000010: 5083 843c 7878 103d d716 d43c 660a fb3c
00000020: e246 a13c dc3c a4bc bf1d e73c 0367 543d
00000030: 13f8 d8bc 114f 0a3d 9c09 8c3c eea8 f03c
00000040: 88ef 2d3d 9586 283d 11d7 993c e523 55bd
00000050: 7101 f0bc 9a7d 673c 2fd5 1d3d af2d 2ebc
00000060: bdc4 d33c 67e1 53bc e3a7 95bc a385 163d
00000070: 77ce 243d b47f 6c3a 454d 69bc 760d d43c
00000080: fc17 0ebd 81d4 89bc 5908 fe3c 9c46 80bd
00000090: 1ac9 7abc 7d61 08bd 4158 883c aee3 2e3c
000000a0: 7618 b8bc cff3 a73c 849d 233d 8441 42bd
000000b0: c1e0 ed3c 4c9f 85bc 2b84 393c 8d4d 0ebd
000000c0: 8c75 f53b 2ac1 533b
