models/model.pt (torch, 8796 bytes, 10 tensors)

input.weight f4 [10, 50]
00000000: 1386 be3d 5547 8cbd 6a50 123c 98c7 abbd
00000010: a96e 0f3e bd4d d03c a2ed 193e 56ea d3bd
00000020: 58f9 873c f8a3 7f3c 2d46 e2bd 6562 8c3d
00000030: d748 8f3d bf2f 613d e314 04be 12b9 4b3d
00000040: 3b5d 6e3c fc11 cebd 1917 453b 319e 3f3d
00000050: cd3b 2cbd 3b0c 623d 58c4 c0bb 7ad5 8dbd
00000060: 640f b2bc adcb 8abd 6fd8 94bd 38c8 04be
00000070: f60f dcbc 48ed e83d 8146 e43c 7e60 aebd
00000080: 9527 95bd 7d00 0f3d 3149 0bbe bee4 a739
00000090: 7e47 663d 96c8 a13d 383f 003e c2da 2abc
000000a0: 62ea c7bd f066 0cbc 343c e0bd c216 2b3c
000000b0: 5028 0cbc e0f4 babd e829 8abd b4a6 933d
000000c0: b46b f83d 5365 df3b 12e0 61be b2d5 e53d
000000d0: 0c6c fcbd d370 f8bd 1cfa 0dbd bef3 cd3d
000000e0: 81e0 eebb ca5b 863c eb22 84bd 8a9d e73d
000000f0: f86c a63c cb95 a2bd 78f5 2cbd e909 31be
00000100: 433f 19be 062e 0d3d 6c43 31bd b9c2 cabd
00000110: 82c9 b63b 6a61 0c3e e893 4ebd 1e92 ecbd
00000120: b44a f2bd 6c31 8f3d 82f7 9bbd 21d1 b73d
00000130: 622f b83d 97f0 1c3c 9ef8 23be 21c7 ec3b
00000140: 2897 8dbc d437 c2bd c43e d63d be87 b23d
00000150: 51e2 03bd 2abe 843d 980c e33d fde1 083d
00000160: 7fa6 ab3c f736 303b afba 0c3e 31a4 9ebd
00000170: 5bd6 d5bd c698 ddbc 0a1f d63c 0430 283d
00000180: 8239 f83d 4fd5 b53c a679 3f3c b995 e9bc
00000190: edd6 493e ba5b 033d e4dd d93d c4fd bebd
000001a0: ec7e 613d 7fff c63d 3c4e fd3c 0b51 613b
000001b0: 1726 8b3d 9278 183c e85d aebd cac6 113d
000001c0: 84f8 843d 5b9e 7b3d 6cf4 9fbd 0c89 343d
000001d0: 7273 f73d a296 8f3d 9419 ea3d 17fa 33be
000001e0: 7121 bbbd 93b2 173e bb6f 4a3d ff72 61bd
000001f0: 5e9e 1fbd f757 acbd 211b 393c 3758 433d
00000200: a944 6cbd 3c93 88bd 2724 dabc 2ffa 9e3d
00000210: 903d 6d3d 0676 853d 5ff1 413d 785b 36be
00000220: 5d6f df3d f204 84bd 71c5 bdbd d328 e73d
00000230: 2e45 d73b 7697 0a3e 1ecd 34bd e36c 4fbd
00000240: f8c2 7b3d c712 0ebe 3116 89bd c246 e33d
00000250: 32dd 9d3d 5753 903d e48d a2bd e0d7 0a3c
00000260: 3d41 d53d 855e bcbd b59c 13bd 08c2 893d
00000270: 9bf1 453d 1872 13be 840d bf3d 403c 16bd
00000280: e1f3 a83d 7c06 0ebd 5f20 a1bd 8518 8d3d
00000290: d52e 533d ba36 b9bd 5b7f 273d 6b7d 89bd
000002a0: c7f5 893d af80 d2bd f030 103e 5ae8 b8bd
000002b0: 1a43 2f3d eafb f53d 412c eb3c 6f1d 8bbd
000002c0: 1ecf e5bc ff42 e9bd 5c3d 97bc 52ff 8dbd
000002d0: 0c24 7f3d 78a6 ed3d 790c e03d ac3f 653c
000002e0: 74da bf3d 1b1a d83d 6555 eebd 621d c0bd
000002f0: 727b 45bd bcb9 babc 1385 bfbd a159 ffbd
00000300: d626 ecbd 8782 b03c c503 03be 64e7 d6b5
00000310: 8c4a d73d a229 273d 0012 26bc 398b 893d
00000320: 58f2 d2bd b01c e33d 8296 f9bd 95c9 debc
00000330: c89b 10be 53d1 1bbc f4ee 0fbe 49b5 323d
00000340: ea35 b0bc 7fde 68bd f820 c93d d261 eb3d
00000350: b0bf cd3d 39b5 223d c45b 53bd 5c9e dc3d
00000360: 521f f9bd 60aa 4b3c d0f0 4b3d d7bf 153d
00000370: e995 05be 5c2b e5bd 4288 e2bb ac7c 38bd
00000380: d2ed 02bc 9d97 b1bd 5c77 c5bd 7d23 77bd
00000390: 5ee9 363d 4f5d e63d a3a6 083e 3615 8e3d
000003a0: 0c09 96bd d68a df3d 4422 84bd d9e3 02be
000003b0: 926b 02be ce67 6f3d 2875 0b3e 1f8a efbd
000003c0: 04be 83bd 517f b1bd d2ff 1cbb b489 8dbd
000003d0: b9bf 083c ad34 c03d e2f5 90bb e5cb 18bd
000003e0: 68c1 e73c 054b be3d ea4d 60be de59 91bc
000003f0: e454 bfbd f214 483d 3302 14bd f0d5 26be
0.093029164 -0.06849543 0.008930305 -0.08387679 0.14007057 0.025427694 0.15032056 -0.103474304
0.016598389 0.015603058 -0.11048541 0.06854705 0.06996315 0.054977175 -0.12898593 0.049737044
0.014548595 -0.10062024 0.0030073582 0.046781722 -0.042049218 0.055187445 -0.005882781 -0.06925483
-0.021735854 -0.06777129 -0.07267844 -0.12967002 -0.02686308 0.11373383 0.02786565 -0.08514498
-0.0728294 0.034912575 -0.13602139 0.00032023148 0.056220524 0.07899587 0.12524116 -0.0104281325
-0.09761502 -0.008569464 -0.10948983 0.010442438 -0.008554533 -0.091287374 -0.06746274 0.072095305
0.12129918 0.0068174987 -0.22058132 0.112224 -0.12325296 -0.121308945 -0.03466235 0.10056256
-0.0072899465 0.01640119 -0.064519726 0.11309345 0.020315632 -0.07938727 -0.042226285 -0.17288937
-0.14965539 0.03446772 -0.04327719 -0.09900422 0.005578221 0.13709036 -0.050434023 -0.11551307
-0.11830655 0.06991848 -0.07615568 0.08975435 0.089934126 0.009578845 -0.16012809 0.0072258865
-0.017283991 -0.094833046 0.1046119 0.08717297 -0.032198254 0.064815834 0.110863864 0.033418644
0.020953415 0.002688823 0.13743089 -0.07746161 -0.10441276 -0.027050387 0.026137847 0.041061416
0.12120344 0.02219644 0.011686718 -0.028513776 0.19710894 0.0320699 0.106380254 -0.09325746
0.055052683 0.09716701 0.030921094 0.003438058 0.067943744 0.00930609 -0.08514005 0.03558997
0.06492713 0.061430316 -0.07810292 0.04407601 0.12082566 0.07011153 0.1143066 -0.1757587
-0.09137238 0.14814214 0.04942296 -0.05504131 -0.03896939 -0.084152155 0.011297972 0.04769155
-0.057682667 -0.06668708 -0.026628567 0.077625625 0.05792004 0.06516652 0.04734933 -0.1780833
0.10909913 -0.06446256 -0.092661746 0.112870835 0.006569526 0.1353434 -0.044140927 -0.05064095
0.061465234 -0.1387435 -0.06693686 0.1109748 0.07708205 0.07047146 -0.0793722 0.00847432
0.10412834 -0.09197716 -0.03603812 0.06726462 0.048326116 -0.14398992 0.0932875 -0.036678553
0.08249641 -0.034674153 -0.078675024 0.06889442 0.051558334 -0.090436414 0.04089294 -0.06713375
0.067363314 -0.10278451 0.14081168 -0.090286925 0.042788602 0.120109394 0.028707625 -0.067927234
-0.028052863 -0.113897316 -0.018461876 -0.06933464 0.062290236 0.11604017 0.10939879 0.013992231
0.093678385 0.10551854 -0.116373815 -0.09380604 -0.04821343 -0.022793643 -0.09351554 -0.12468267
-0.11530845 0.021546615 -0.12794407 -1.6011586e-06 0.105122656 0.04081119 -0.0101361275 0.06716008
-0.1030013 0.11089456 -0.1218691 -0.027195731 -0.14121926 -0.009510356 -0.14055997 0.04362992
-0.021510083 -0.056852814 0.098207414 0.11493267 0.10046327 0.03972361 -0.051601186 0.10772392
-0.12164177 0.012430757 0.049790204 0.036559906 -0.13045467 -0.11189911 -0.006913216 -0.04504077
-0.007991271 -0.08671496 -0.096419066 -0.06033658 0.04465615 0.11248266 0.13344817 0.069376394
-0.07325944 0.10915153 -0.06451848 -0.1278223 -0.12736347 0.058448605 0.1361891 -0.116962664
-0.06432727 -0.08666862 -0.0023956192 -0.069110304 0.0083464915 0.09385047 -0.0044238428 -0.037303824
0.028290465 0.092916526 -0.21904722 -0.017743047 -0.093423635 0.0488481 -0.03613491 -0.16292548

0.weight f4 [10, 10]
00000000: 60cb 953e 1d44 953d 8d3c 27be 31b4 ebbd
00000010: 629d 403e 4c2a 963e e892 91be f763 6d3d
00000020: c1a1 813e d7a8 7e3e ab84 213c 74cd 1e3d
00000030: bc95 9b3e bdca 883e 5329 41be 4fbe b5bb
00000040: fb13 9bbd 612a 0abe 5acb 573e 78bf 01bd
00000050: 28aa 833e b316 fd3d 479e 30be 8c04 b73c
00000060: dfce 813e ee3f be3d 73e7 833c 04cc 93bc
00000070: fa2c a33d b3dd 16be 2ddb e6bd 1b27 90be
00000080: 40dc a63d 3720 003d 2b34 873e 15a0 6ebe
00000090: 7280 9a3e f57b 223e 5871 d9bd 7f5a b6be
000000a0: 24fa 97bd b337 a93e 93cd 56be 1d67 503e
000000b0: d6af 943c 947e c63e 1775 00be 2930 18be
000000c0: cc03 933e 4416 083e 6919 59be 239a 9f3e
000000d0: ecbc 11be 58ed 513b 1506 1c3e 1f85 a73e
000000e0: 7387 90be 4db8 3abe a50a 2b3e df28 5bbe
000000f0: 2062 dc3d 86e8 793e ce94 4cbd 2b1b a0be
00000100: abb5 c03d fb71 e9bd 4d4a 36be 2734 99be
00000110: 19d5 8dbe e9d1 e2bc cdf5 7bbe 52d8 da3b
00000120: a06b 95bc 3ad2 18bd 0d58 133e 3010 8abd
00000130: 040c a33e d576 e5bd 99c0 99be a6f6 52be
00000140: 0ab2 13be c2ab 263e 0c6a a2be 7f2e 83bc
00000150: 7d09 c83c f8c6 bc3e db93 85be 2c6d 9dbe
00000160: 5e49 603d d2c0 5e3e 514f 08bd 53ca 783e
00000170: 343d 7d3d b320 273d 8afc 973c 8802 8e3e
00000180: 0016 213e 06c3 463e e2c5 693e 95de 15be
0.29256725 0.07288382 -0.16331692 -0.11508978 0.18810037 0.29329145 -0.28432393 0.057956662
0.2531872 0.24869095 0.009858291 0.038770154 0.30387676 0.26717177 -0.1886342 -0.005546368
-0.0757217 -0.13492729 0.21073666 -0.03167674 0.25715756 0.12357845 -0.17247878 0.022341035
0.25353143 0.09289537 0.016101575 -0.018041618 0.07967563 -0.14733009 -0.11272273 -0.28154835
0.08147478 0.031280722 0.26406989 -0.23303254 0.3017612 0.15867598 -0.10617322 -0.35615918
-0.074207574 0.33050308 -0.20976858 0.20351835 0.018150251 0.38768446 -0.12544666 -0.14862122
0.28713834 0.13289744 -0.212011 0.31172284 -0.14232224 0.0032032337 0.15236695 0.3271875
-0.2822834 -0.18234368 0.1670328 -0.2140231 0.10760903 0.24405107 -0.0499466 -0.31270728
0.094096504 -0.11398693 -0.17801781 -0.29922602 -0.27701643 -0.027687984 -0.24605484 0.0066786194
-0.018239796 -0.037309863 0.14389057 -0.06741369 0.31845105 -0.11204306 -0.30029753 -0.20601901
-0.14423385 0.16276458 -0.31721532 -0.016013382 0.024418587 0.3687055 -0.26089367 -0.30747354
0.05475747 0.21753243 -0.033278767 0.2429593 0.061825946 0.04080267 0.018553037 0.27736306
0.15731049 0.19410333 0.22829393 -0.1463569

1.weight f4 [10, 10]
00000000: 5912 44be 1697 913e 007e 363e 6533 89be
00000010: 195d 9f3d dadf 7e3e f277 36bd e46a 0dbe
00000020: 2c01 ac3e 1862 07bd 0861 453e 8881 db3b
00000030: 3f04 84be 11fa 6fbe 5079 99ba fc63 a5ba
00000040: e41a 07be 95fe 2cbd 7956 5e3e 4510 313e
00000050: 0a27 523e 674d 97bd 0b46 39be c645 aa3d
00000060: 13fc 3a3e 4e97 943e 6d55 7a3d 3c9f 27be
00000070: e6ac 0bbe 8875 8b3e 4360 e8bd a7b6 023d
00000080: 269a 99bd c081 d23e 734b ebbe 9dff afbe
00000090: cd5d 083e 2d34 22bd 585a a5be 53a3 81be
000000a0: 2684 c0bd 2579 343e f481 d33c 599b 883c
000000b0: 56b1 42be 83e2 113c 40bc 33be 0264 313e
000000c0: 6259 aebe 427f 333e fe1d 20be add0 203e
000000d0: 2409 a7be af7e 72be 8fa4 20bd 1fb3 d63d
000000e0: c7cc 68bd cedf b63c a35e 34be aa85 19be
000000f0: 3dbb 3ebe 5f3c f6bd 2052 9fbd bfa9 45be
00000100: 8e7c 933e 5a98 3f3e 9644 883e e4e5 823e
00000110: 7682 67be dd85 4c3d 27ec 383d a3d9 80bd
00000120: f216 423e 787a cfbc b7ab b33e 9bbc e4bc
00000130: bf39 1abe 4133 8fbe e57b 91bc 1fc0 bbbb
00000140: d593 71bd 71f0 11be e6b1 2c3e 03ec 063e
00000150: 2158 16be b6ee 453b 2f82 7abe 7550 3c3e
00000160: d102 7e3e 0ca5 82be c918 41be e6f9 4ebe
00000170: 1136 40be aeaa 963e 284c e93c b08d 513e
00000180: af3c 9d3d d8aa 213d 7d14 1bbe 6431 d1bd
-0.19147624 0.28435582 0.17821503 -0.26797023 0.07781429 0.2489008 -0.044547983 -0.13810307
0.33594644 -0.033052534 0.19275296 0.006698791 -0.2578449 -0.23435237 -0.0011709128 -0.0012618299
-0.13193852 -0.042234976 0.21712674 0.17291363 0.20522705 -0.0738781 -0.18093126 0.083140895
0.18260221 0.29021686 0.061116625 -0.16369337 -0.13640174 0.27238107 -0.113464855 0.031912472
-0.075001046 0.41114616 -0.45956 -0.34374705 0.13317032 -0.03960054 -0.3229549 -0.2531992
-0.09400205 0.17624338 0.025818802 0.016675638 -0.19012961 0.008904102 -0.1755228 0.17323306
-0.3405257 0.17529014 -0.15636441 0.15704603 -0.3262416 -0.23681138 -0.039219435 0.104833834
-0.056835916 0.022323515 -0.17614226 -0.14992395 -0.18626113 -0.120232336 -0.07779336 -0.19303034
0.28805965 0.18710461 0.26614827 0.25566018 -0.2260836 0.04993235 0.045147087 -0.06291511
0.18954065 -0.025326952 0.35091946 -0.027921965 -0.15061091 -0.2796879 -0.017759273 -0.0057296897
-0.058978874 -0.14251877 0.16864738 0.13175969 -0.14682056 0.0030202097 -0.24463724 0.18390067
0.24805762 -0.25516546 -0.18857111 -0.20212516 -0.18770625 0.29427093 0.028478697 0.20464206
0.0767759 0.03946957 -0.15144534 -0.10214499

2.weight f4 [10, 10]
00000000: 543c 553d 2468 6e3e ad34 03be 277c 773c
00000010: 15f4 9fbd a603 443d 2719 823e fb24 5c3e
00000020: 87a9 9fbe b6e7 8cbe 00f8 febd e2f5 993e
00000030: eb34 373e bbb3 2e3e d776 1bbe 7155 53be
00000040: 91bb 4b3e 7221 ab3c ba1e 1dbe 45a9 89be
00000050: 039b 3ebe a6ea a23e ba01 f4bd a865 c2be
00000060: 3d99 a0be 355f 0b3e ebff 9b3e adc6 403c
00000070: 840b 9abe a753 f6bd 65f4 a13d f365 a5bd
00000080: 792a f03d d470 a2be 0b81 c13d 4c64 46be
00000090: aa30 f1bc 235e 38be ee5a 413e f5b6 973e
000000a0: 162f b93e 12e1 6e3e d6a7 0c3e f1d8 edbe
000000b0: 1d2a 5f3d 0841 e5bc 53c2 07be 3e07 733e
000000c0: 0e05 8d3e bd8b 85be 7cd9 3fbd 85f6 373e
000000d0: e89a 5ebe 183d adbe 3ae0 93be e766 e3bd
000000e0: 0b66 863e 49a3 ac3e 097d ccbd 5ab9 66be
000000f0: f4e1 c1be 9b34 8bbd 8334 a0be 9a5e 703e
00000100: 74f6 dcbd a1c3 e93d cfc8 203e 0317 33be
00000110: 5340 4c3e dc99 2fbe 5fe7 89bd 663f 45bd
00000120: d9e6 0bbe 8297 863e 2fd7 2d3e 64eb 20bd
00000130: e99a 0f3e a0cb f7bc f497 1fbd f3b0 88be
00000140: a4f3 71be ff1b 893d 1823 ee3c f831 7dbe
00000150: ff1b 58be 50eb d1bd a3c2 28be c472 663e
00000160: d63a a1be 186c debd 27ff 823e 5195 97be
00000170: 2f2d b63d f82b 8c3e 3f54 8a3e 9581 4d3e
00000180: 706c 973e b05d d93d d7e5 213e 968c 61be
0.052059487 0.23281914 -0.12813063 0.015105284 -0.07810227 0.047855042 0.25409815 0.21498482
-0.31184027 -0.2752053 -0.12449646 0.30070406 0.1789128 0.17060749 -0.15182053 -0.20638062
0.1989577 0.020889971 -0.15343753 -0.26886955 -0.1861382 0.31819648 -0.11914392 -0.37968183
-0.31366912 0.13610537 0.30468687 0.011766118 -0.3008691 -0.12027674 0.07907943 -0.08076086
0.11726851 -0.31726706 0.09448441 -0.19374198 -0.02944215 -0.1800466 0.18882343 0.29631773
0.36168736 0.23328045 0.137359 -0.46454576 0.05448352 -0.02798511 -0.13257723 0.23733231
0.2754292 -0.26083174 -0.04683827 0.17965133 -0.2173878 -0.33835673 -0.2888201 -0.111036114
0.26249728 0.33718327 -0.09984786 -0.22531644 -0.378677 -0.06797143 -0.31290063 0.23473588
-0.10789195 0.114142664 0.15701602 -0.17489247 0.19946413 -0.17148536 -0.06733584 -0.048156165
-0.1366228 0.26287466 0.16976617 -0.039286986 0.14023937 -0.030248463 -0.038963273 -0.26697502
-0.23628098 0.06694793 0.029069468 -0.24726093 -0.2110443 -0.102499604 -0.16480498 0.22504717
-0.314902 -0.10860461 0.2558529 -0.29606107 0.08895337 0.27377295 0.270174 0.20068963
0.2957492 0.106135726 0.15810333 -0.22026286

3.weight f4 [10, 10]
00000000: 73b0 63be 7bd5 863e 34dd 9b3e 15cf 9bbd
00000010: 675a 3a3d 0377 7abe 67aa 95be a099 7cbd
00000020: 7288 f73d 9749 fabd e5a6 2f3e 9670 0d3e
00000030: 247b 23be 61e7 833e b238 bcbe c6fa 47bd
00000040: 3288 41bd a9b6 b93d cbc4 7dbe 126e 8d3e
00000050: 4dc1 48bd d669 58be cc51 43be 8bac 33be
00000060: e6e1 e9be cc3c 17be 49ef fd3d 21a0 a73e
00000070: 92f3 9ebe fb3d 513e e39b 253e 9ffd 783e
00000080: c020 8d3c cac5 9abc 534b 993e 27fc 0cbb
00000090: 96cd 503e b6e5 3bbe f8ff 7fbe 7fcd b0bd
000000a0: b19d 73bb bea1 41be 95c9 923e 44a9 233c
000000b0: ad06 6d3e 96be 973d 9fed 9d3d 8275 363e
000000c0: 8df1 3abe 1a7d d53d 3bdf 86be d66d f83d
000000d0: aaf8 783d 64fd ec3c 20c5 0abe 6028 0ebe
000000e0: b5f9 973e f7c6 ba3d b5ac c53d d1bf 98be
000000f0: 3aeb 59bd dab0 133d 8218 acbe 8dd4 1e3e
00000100: 1d36 a6be bb72 a2bd 50bd 083e 0cd5 523d
00000110: 166d 2d3e 0e39 f73d 82b6 2bbe 19ea f8bd
00000120: b9f1 b13e 02f6 713e 28f4 7a3e 9fc1 853d
00000130: 6e7e 263e 53c7 cabc 3c21 983e 6a97 27be
00000140: 95a2 8cbe 1c4f 003e 93cc f5bd 6881 f4bd
00000150: d7ba 8f3d 0239 3a3e 07d8 f5ba 30fc 1d3e
00000160: bc89 193e 4621 3b3e 6552 213d 6d2f 22be
00000170: 1d01 583d 517f 0bbe cdd1 1e3d 8031 d5be
00000180: d946 b83e 19fe 5cbe ac39 dabd ad2c 59be
-0.22235279 0.26334748 0.30442202 -0.07607857 0.04549637 -0.24459462 -0.2923157 -0.061669946
0.12086572 -0.122210674 0.17153509 0.1381248 -0.15964943 0.25762466 -0.36762005 -0.04882314
-0.047249027 0.09068043 -0.24782102 0.2762304 -0.04901247 -0.21134123 -0.19074172 -0.17546289
-0.4568016 -0.14769286 0.12399156 0.32739356 -0.31045204 0.204338 0.16172747 0.24315499
0.01722753 -0.018893141 0.2994028 -0.00215126 0.20390925 -0.18349347 -0.24999988 -0.08632945
-0.0037172849 -0.18909356 0.2866942 0.009989087 0.23147078 0.07409398 0.07711338 0.17818263
-0.18256207 0.10424252 -0.26342186 0.121303245 0.06078402 0.02892942 -0.1355176 -0.1388259
0.296827 0.09119981 0.09652082 -0.29833844 -0.053202845 0.03605733 -0.33612448 0.15510769
-0.3246316 -0.07932039 0.13353467 0.05147271 0.16936144 0.12071429 -0.1676884 -0.121540256
0.34754732 0.23629001 0.245072 0.06531071 0.16259167 -0.024753248 0.29712856 -0.16366354
-0.2746779 0.12530178 -0.1200191 -0.11938745 0.07018059 0.18185809 -0.0018756398 0.15428233
0.14993948 0.18274412 0.03938522 -0.15838404 0.052735437 -0.13622786 0.0387743 -0.41639328
0.35991552 -0.21581306 -0.10655531 -0.21208449

4.weight f4 [10, 10]
00000000: 5600 7dbe 1512 2fbe 719f 853e 730b 94be
00000010: 9da0 82be 2239 bc3d aa24 3e3e 3d42 533d
00000020: 2e54 8bbe 6c88 97be cfb5 0f3d e6d2 e2bc
00000030: 2b63 bf3e 24a5 89bd 59bc f3bd d4f4 d1b9
00000040: 77e6 4ebe 0a8e eb3d b8f1 8ebe 7758 9c3e
00000050: 1de3 343e 8ac4 873e ca53 733e 1db0 c23d
00000060: c563 2abe 4c75 50bd 222b af3e 82f7 c4be
00000070: dd10 9dbc 2c0e 9c3e 6f8d 883b c21e 5bbe
00000080: fc2c 07be 4e7d 7a3e 5dde 82be 6823 debd
00000090: 0de6 bbbe 64e4 cc3d 9f98 17be cccc 36be
000000a0: 2b71 66be 410e b03e b3d7 a33e 0798 6ebe
000000b0: 8918 bb3d ab66 923d 9c66 c03d f8fa a2be
000000c0: 20c0 d6bc 4b18 a23e 2f74 0a3e 62a5 5cbe
000000d0: f26f f13d 568e 8b3e 7ab2 8fbe fbe5 eb3c
000000e0: 5c65 8bbe 10fd 3d3e fa7a 9f3e 5f7c 533e
000000f0: da81 9f3e d73d 093e 8bd0 39bd 14bb eabd
00000100: 35b1 cabd 657b 35be 4dce 7f3e 2a2e 08be
00000110: 5e8b 953e aa9e c4bd 4337 80be a67d 99be
00000120: 6774 52bd c701 dcbd 19bc 14be 5366 943e
00000130: 77eb 303e 4537 74be 7afd 32be df7e 33be
00000140: 462d 1bbe e499 373d 2fc6 883b 6ed1 453d
00000150: 5ba5 e2bd 8381 89bd 5c2b 353e 829f edbd
00000160: dbb8 f83a 63de 743e 6fb3 6c3e ebee 853e
00000170: a993 bc3e 56b0 753e 6d3f 883e 6b67 963e
00000180: 4df2 8b3e 611b 483e 5cb4 a03e d651 5d3e
-0.2470716 -0.17096741 0.26098207 -0.28914985 -0.25513163 0.09190585 0.18568674 0.05157684
-0.27212662 -0.2959627 0.035085496 -0.027688455 0.37380347 -0.06720951 -0.11901159 -0.00040045998
-0.20205103 0.11501701 -0.27918792 0.30536243 0.17664762 0.26517135 0.23762432 0.09506247
-0.16639622 -0.050893113 0.34212595 -0.38470083 -0.01917308 0.30479562 0.004167251 -0.21398452
-0.13200754 0.24461862 -0.25560275 -0.10846597 -0.36698952 0.100044996 -0.14804314 -0.17851561
-0.22504108 0.34385875 0.32000503 -0.23300181 0.09135539 0.071484886 0.09394571 -0.318321
-0.02621466 0.3165916 0.13520883 -0.21547464 0.1178893 0.2725703 -0.28065854 0.028796187
-0.2722577 0.18553567 0.3114851 0.20652913 0.31153756 0.13402496 -0.045364898 -0.114614636
-0.09897081 -0.17722853 0.24981041 -0.1329886 0.2920789 -0.09600575 -0.2504216 -0.29978675
-0.05138054 -0.107425265 -0.14524879 0.28984317 0.17277323 -0.23849209 -0.17479506 -0.17528866
-0.15153989 0.044824496 0.004174016 0.04829543 -0.11066695 -0.067141555 0.17692322 -0.11602689
0.001897599 0.23912959 0.23115323 0.26158842 0.36831406 0.23993048 0.2661089 0.29375777
0.27333298 0.19541694 0.31387603 0.21613249

5.weight f4 [10, 10]
00000000: 4286 263e 47bb 603e d89d 63be 0ded 6ebe
00000010: 26d6 bdbc b0c7 c33d 36db 673d 48bb 88be
00000020: 290a 91bd 3100 89bd 44a4 9abe 02e4 8abe
00000030: 8ac4 693e 32b5 2e3e 4a4f 7e3c 02c0 2c3e
00000040: db6d 86be 20b6 263e 6c84 df3d 5885 e43d
00000050: 9f9c 85bd ec78 fc3d 0ca2 22be c785 92be
00000060: be64 19be ca5a fc3d 1168 8c3e 708e 11bd
00000070: d4c5 8ebd 9359 083e 35b3 213e bdb7 9b3c
00000080: cf6a 873e 2a65 153c 360b f8bd 53a2 c23d
00000090: 61f3 37be dc54 ab3d bfa6 dbbc df43 ebbd
000000a0: 7f19 b23e 26e1 073e 895f b73d 54ca 343e
000000b0: 5df2 653e 86c8 62be dc32 423e c13f 9c3e
000000c0: a1ea 823e ec82 963e 83e9 723e 7bc5 85bd
000000d0: 4c18 e4bd 4442 913e d2ab a1be 6b57 25be
000000e0: d6c0 0a3e dd62 583d e4e3 8a3e c5c9 243e
000000f0: f0fd 62bd f6e3 323d bdd6 42be 0767 01be
00000100: adfb 22be bd84 f7bd fd49 99be 5dc7 85be
00000110: 70d5 493e 3da0 53bd 5268 c3be 03e2 a5be
00000120: 3162 ccbe 75dc 963e b28b acbe 69e3 64bd
00000130: f98c 743e 1a16 403e 247c 4ebe c9f2 0bbe
00000140: 6f43 0c3e a034 923d e63b b6be d37a 913e
00000150: 5649 b2be b461 26be ad88 803d fd6a 98be
00000160: b39b 7f3e 2056 2abe c336 093d e568 603d
00000170: 81b6 c7be edb0 7e3e 6589 92be 590f 84be
00000180: eb21 703e 906c 163d 3cbf cb3d 39d8 a8be
0.16262153 0.2194644 -0.22228181 -0.23332615 -0.023173403 0.09559572 0.05660554 -0.26705384
-0.07082016 -0.0668949 -0.3020345 -0.2712708 0.2282888 0.17061308 0.015521834 0.1687012
-0.26255688 0.16280413 0.10913929 0.11158246 -0.06524014 0.123277515 -0.15882128 -0.2861769
-0.14979836 0.12322004 0.27423146 -0.03553623 -0.069713265 0.1331542 0.15791018 0.019008512
0.26448676 0.009118358 -0.12111513 0.09503617 -0.17963935 0.08365795 -0.02681291 -0.11487555
0.34785077 0.13269481 0.08953769 0.17655307 0.22455736 -0.22146806 0.18964714 0.3051739
0.25569633 0.2939676 0.2372189 -0.06531807 -0.11137447 0.2837087 -0.315764 -0.16146629
0.13550124 0.05282866 0.27126992 0.16092594 -0.055417955 0.04367443 -0.19027229 -0.12636958
-0.15916319 -0.12085865 -0.2993926 -0.26128665 0.19710326 -0.051666487 -0.38165528 -0.32398996
-0.39918664 0.2946507 -0.3370033 -0.055880938 0.23881902 0.18758431 -0.20164543 -0.13666834
0.13697599 0.07138944 -0.35592574 0.2841402 -0.34821576 -0.16248208 0.06276069 -0.29769126
0.24961738 -0.16634417 0.03349949 0.054787535 -0.39006427 0.2487218 -0.2862045 -0.2579296
0.23450439 0.036724627 0.099485844 -0.32977465

6.weight f4 [10, 10]
00000000: 1162 093e 8b27 e23d 26e1 0abe 4be8 03be
00000010: bc1c b13e caf4 a7be a779 8c3d 6064 80be
00000020: 795e b9be 03ff 18bc b89f c33d 9f78 34be
00000030: c866 e2bb 8478 53be 9328 b7bd fdc4 003e
00000040: 0937 55be d15c b03e 78ef 9e3e 65a3 a73e
00000050: f33d 513e 66b3 60bd f807 87bd 9ada 933e
00000060: 536a 1bbe 4c17 233d fbc6 723c e605 2e3e
00000070: 269c 943c 46b9 713e eeab 723e 933d 98bd
00000080: 9e48 5a3e a305 ad3d 804b 2f3e 0db7 3abe
00000090: 9e95 adbe bb95 bcbe 721a 34be d68e a7be
000000a0: 1f7e 5bbe 1962 0dbe c80c d03d 581d 29be
000000b0: fad1 68be 7d6f 87be d261 a63e f9f6 423e
000000c0: 4df9 463e 0fff 13be 1a3b 393e 6c38 71be
000000d0: 97b5 2cbe 8fa4 99be 62b4 973e daca 033e
000000e0: 557a cebd 6f8e 22be 9c96 01bd 6a63 3dbe
000000f0: 0332 4f3e 5060 e03d 2ea3 5cbe 2518 23bd
00000100: 0695 67be ff57 3fbe 49bd dd3a b50f 293e
00000110: e078 39be ddcb a0bc f8bd 02bc 3c65 94be
00000120: 45b2 b93b 1987 9f3d 39ac 9e3e 3f45 2f3e
00000130: 36fc b3b9 ac7d dabe 5d4f 80be 3395 a2be
00000140: aa86 923e 28cb 8fbe be33 f0bc bc76 803d
00000150: 5302 fbbc 583e ac3d 0648 2abe a486 21be
00000160: e93a 5dbd 41a8 1dbe 4974 743d 4de3 12bd
00000170: 32b1 d63d fb7b 60be 7fe5 8dbd 5c8d ddbd
00000180: ae79 cabd 6d87 86be f0fa fcbd da0a 95be
0.13416316 0.110426985 -0.1356245 -0.12881581 0.34592235 -0.32803947 0.06859141 -0.2507658
-0.3620489 -0.009338143 0.09551948 -0.17624138 -0.006909225 -0.20651442 -0.08943286 0.12575145
-0.20821775 0.34445813 0.31042075 0.32741848 0.20433788 -0.054858588 -0.06593317 0.28877717
-0.15177278 0.03981714 0.014817948 0.16994438 0.018140864 0.23605832 0.23698398 -0.07433619
0.21316764 0.08448341 0.17118645 -0.18233891 -0.3390321 -0.36832985 -0.17588213 -0.32726163
-0.2143483 -0.13806953 0.10158688 -0.165151 -0.2273635 -0.26452246 0.32496506 0.19039525
0.19431038 -0.14452766 0.18088952 -0.2355668 -0.16866146 -0.3000836 0.2962981 0.1287035
-0.10081927 -0.15874647 -0.031637773 -0.18494955 0.20233922 0.1095587 -0.21546623 -0.039817948
-0.22615442 -0.18685912 0.0016917373 0.16509898 -0.18112516 -0.01962846 -0.007979862 -0.28983486
0.0056670033 0.0778944 0.3099077 0.17116259 -0.00034329452 -0.42674005 -0.2506055 -0.31754455
0.28618366 -0.28084683 -0.029321548 0.06272647 -0.030640757 0.084103286 -0.16629037 -0.15774018
-0.05401126 -0.15396215 0.05968121 -0.035861302 0.10483016 -0.21922295 -0.069285385 -0.10817978
-0.0988649 -0.26275197 -0.1235255 -0.29109842

7.weight f4 [10, 10]
00000000: b1df 8c3d 045f edbc 0958 b6bd cb54 b2bd
00000010: 65f9 aabe ae7b 933d b0a1 90be 0f7e a03e
00000020: a407 67be 94c0 9d3d b0ba 493e e4e7 933e
00000030: df05 103e d1cd 533e f6f0 4cbe fa86 833e
00000040: af89 063e c5ed 7dbb 8ee6 cb3c e42c 0a3e
00000050: de51 0b3e 7b6c 893e 6220 9f3e 64c4 153e
00000060: 614a d93d bf6d f5bd 8436 563e 90be 103e
00000070: 992d 683e ad23 24be bf8c 93be bb8c d0bd
00000080: 4c0d 09bc e412 88be e591 203e 3ac4 8dbe
00000090: b459 cdbd 180f 82be e6fa 8cbe ac62 48be
000000a0: acbb c03e 7a1c 0abe 05c2 533d 8f9f 0a3e
000000b0: 8c0a c73d c729 0f3d cc0c 893d 6e92 bd3e
000000c0: dbf2 00bd 3f23 b13d c413 00be 2aed a6be
000000d0: c24c 43bb 8a0e af3e dc1e 0c3e 7f7d 53be
000000e0: cec3 5e3e 69cd bb3e ce42 05be 434a 08be
000000f0: 080d 843e 925a 84bd 4fc2 de3d 5dca 983e
00000100: 74c1 933e 094f 0f3d a5dd 8f3c f009 183c
00000110: 88d1 713b 8367 453e 92a9 8d3e 7272 9cbe
00000120: badc 5d3e d471 ca3e b6f5 553e 0b4d 40be
00000130: 2b7c 83be 2298 b3bb adfd 4bbd 2dec ab3e
00000140: fb4b a7bd 26c1 12bd 6499 983e 8294 103d
00000150: 8f78 8a3d 781e 633e f6eb 9d3e 8a5c 97be
00000160: 5009 413e bdaa 643e f660 36bd e47f 54be
00000170: bdd0 21be bc6f d1bd 54d6 9cbe 5189 8a3e
00000180: 0fb0 383e caac aa3e 7f02 d83d df92 b63d
0.06878603 -0.028975971 -0.0890351 -0.08707579 -0.33393398 0.072013244 -0.28248358 0.31346175
-0.22561508 0.07702747 0.19700122 0.28887856 0.1406474 0.20683981 -0.20013794 0.25688916
0.1313846 -0.0038746458 0.02489021 0.13493687 0.13605449 0.26840577 0.31079394 0.14625698
0.1060989 -0.11983823 0.20919234 0.14135194 0.22673644 -0.16029234 -0.28818318 -0.10183092
-0.008364987 -0.26576912 0.15680654 -0.2768877 -0.10026875 -0.2540214 -0.2753517 -0.1956889
0.37643182 -0.13487425 0.051698703 0.1353743 0.097188085 0.03495195 0.06691894 0.3702578
-0.031481605 0.08649301 -0.1250754 -0.32602817 -0.002980039 0.3419078 0.13683647 -0.20653342
0.21754381 0.36680153 -0.13013765 -0.13309579 0.25791192 -0.064625874 0.10876905 0.2984189
0.2885853 0.034987483 0.017561743 0.009279713 0.0036898572 0.19277768 0.27668434 -0.30556065
0.21666232 0.3953997 0.20894513 -0.1877939 -0.2568067 -0.005480782 -0.04980247 0.33578625
-0.08168789 -0.035828732 0.29804528 0.035297878 0.06761276 0.22179592 0.30844086 -0.2956279
0.18851209 0.22330756 -0.044526063 -0.20751911 -0.15802284 -0.1022639 -0.3063227 0.2705789
0.18035911 0.33334953 0.10547351 0.08914732

output.weight f4 [1, 10]
00000000: d434 c73e d6fa 9b3d 8c7a d7bd 56e3 05bf
00000010: 5ca9 d23e 9f53 933e e6af 4e3e 90a3 ca3e
00000020: 277a 8dbe a9b7 d23e
0.38907492 0.076162025 -0.10521421 -0.5230001 0.41144836 0.28774735 0.20184287 0.39577913
-0.27632257 0.41155747
