models/model.pt (torch, 1682 bytes, 1 tensors)

layer.weight f4 [1, 100]
0.12364905 0.0012446633 -0.0020312804 0.09079125 0.17256048 0.1549659 0.17448825 0.18557078
0.079133436 -0.012645361 0.07830066 0.09620373 -0.01200879 0.04973642 0.1797825 0.14107177
0.118940026 0.11661902 0.13107447 0.13618663 0.17562526 0.17936572 0.0760787 0.059763957
0.123646684 0.036898274 0.11647894 0.12973452 0.121092 0.18569317 0.16683404 -0.011100543
0.008979406 -0.009114117 0.006932929 0.08758965 0.05402647 0.07591805 0.12313966 0.054846205
0.14960164 0.060263667 0.12657022 0.10307068 0.12355859 0.05301195 0.041322574 -0.009000068
0.094686076 0.066882625 0.15990216 0.10892788 0.17262536 0.052605286 0.18072596 0.17087731
0.043576937 0.12588917 0.15847725 -0.011623267 0.17331009 0.017651254 0.11261074 0.13075571
0.1578612 0.0070545734 0.12888193 0.12161378 0.00016395099 0.06510272 0.09807856 0.100084886
0.15482458 0.11159533 0.1182303 0.0071955295 0.15462288 0.014823989 0.0328266 0.11792285
0.17107227 0.15387654 0.11363078 0.032768555 0.13264799 0.1643678 0.103215665 0.16786724
0.13130754 0.11319683 0.107739024 0.17521356 0.022737227 0.10155562 0.16334803 0.11727245
0.10471818 0.17757142 0.18069561 0.18400376
00000000: b73b fd3d f823 a33a 3b1f 05bb c3f0 b93d
00000010: b2b3 303e 62af 1e3e 0cad 323e 4406 3e3e
00000020: b610 a23d 7d2e 4fbc 195c a03d 7606 c53d
00000030: 84c0 44bc 6bb8 4b3d e718 383e 1e75 103e
00000040: d496 f33d f4d5 ee3d 6338 063e 8274 0b3e
00000050: 1cd7 333e a6ab 373e 26cf 9b3d 0dcb 743d
00000060: 793a fd3d a522 173d 838c ee3d 20d9 043e
00000070: 15ff f73d 5a26 3e3e 8bd6 2a3e 0ddf 35bc
00000080: 5c1e 133c 6153 15bc a02d e33b 3462 b33d
00000090: dc4a 5d3d ec7a 9b3d a530 fc3d 6aa6 603d
000000a0: 2c31 193e 09d7 763d a09b 013e b816 d33d
000000b0: 490c fd3d 0f23 593d dc41 293d 0575 13bc
000000c0: c6ea c13d c2f9 883d 64bd 233e 9515 df3d
000000d0: b4c4 303e a478 573d 3a10 393e 76fa 2e3e
000000e0: bb7d 323d 17e9 003e dc47 223e 846f 3ebc
000000f0: 3378 313e 5d99 903c 76a0 e63d d3e4 053e
00000100: 5ea6 213e 0d2a e73b a0f9 033e a510 f93d
00000110: 42ea 2b39 9354 853d 69dd c83d 4ef9 cc3d
00000120: 568a 1e3e 188c e43d ba22 f23d 7ac8 eb3b
00000130: 7655 1e3e 51e0 723c 2f75 063d 8981 f13d
00000140: 922d 2f3e d091 1d3e 41b7 e83d 5238 063d
00000150: e0d4 073e 0850 283e bc62 d33d 64e5 2b3e
00000160: 7c75 063e bdd3 e73d 47a6 dc3d 2f6b 333e
00000170: 6c43 ba3c 65fc cf3d b544 273e 8a2c f03d
00000180: 7c76 d63d 48d5 353e 4508 393e 7b6b 3c3e
