models/model.pt (torch, 5516 bytes, 2 tensors)

input.weight f4 [10, 100]
0.05845355 0.053712606 -0.13821755 0.0038764735 0.026209606 -0.033176687 -0.11836598 0.010943949
0.021592261 0.0016409104 -0.03922152 -0.10211304 -0.024371892 0.00024194829 -0.087967746 -0.037846774
-0.024608653 -0.10713148 -0.12125805 -0.058238532 -0.104508884 -0.11386638 -0.0550913 -0.039401703
-0.02036098 0.05212851 -0.04513999 -0.007647583 -0.046071883 -0.10854764 0.02266225 -0.111633375
-0.13308883 -0.045939323 -0.10823569 -0.07151886 -0.03726164 -0.11092329 -0.11183858 -0.09376009
0.031596996 -0.05148248 -0.07519173 -0.049076118 0.0235196 -0.017930953 -0.092238 0.02233517
-0.122856155 -0.024219798 -0.06472045 -0.078984246 0.023886248 0.035290726 -0.09332724 0.050675083
0.02979232 -0.10786112 0.042284943 -0.021278705 0.050619636 -0.052885227 -0.082534924 -0.027112171
0.0461457 -0.07866214 0.05006139 -0.13715516 0.03199854 0.015665602 -0.08804633 0.0018947455
-0.008514 -0.120313436 0.04451274 0.016363911 -0.027381472 -0.08247091 -0.1253801 -0.0028843794
0.017495928 0.042121597 0.0444197 0.015418874 -0.035822265 -0.010047568 -0.081370346 -0.05540624
0.010180344 -0.024986139 0.01621389 -0.015812384 -0.024463741 0.041093163 0.024455734 0.05166553
-0.12273011 -0.13117531 0.009387538 0.025796605 0.047688898 -0.04655071 -0.022939704 -0.006897745
-0.022804813 0.06486471 0.00161915 0.0411156 0.11389766 -0.02945463 0.047527466 0.017780917
-0.047257617 0.013839538 0.12689021 0.10317334 0.11750867 0.13341512 0.062317558 0.03405285
0.06876182 0.11797046 0.12863562 0.055276994 -0.0070055714 0.031501353 -0.017440045 0.06868786
0.014153638 0.00081317726 0.013892825 0.0021365385 0.1022188 -0.017257933 0.03365833 0.05428006
0.12322635 0.12932149 0.113044985 0.058502946 0.052279115 0.029379897 0.1311365 0.08756972
0.029812906 -0.046797786 0.08108989 0.07363449 0.12939933 -0.047806222 0.03322422 0.050829943
0.088843144 0.0014518369 -0.022017444 0.06299181 -0.03563308 0.10824103 0.14713733 0.052682076
0.1454837 0.027674068 0.122695036 0.10876963 0.052769344 0.03053062 0.08927264 -0.027485741
-0.030899063 0.043727916 -0.0055234367 0.07104219 0.027573943 0.018224869 0.029270764 0.10598425
-0.013428646 -0.04920265 0.00030537127 0.12966774 0.10760627 0.10837043 -0.045544125 0.033448026
0.04532836 0.0057421396 0.010420837 0.044578712 0.14008296 0.09019434 0.08456535 -0.010245373
0.009691668 -0.023548067 0.07748211 0.034577735 -0.026938407 -0.014110347 0.04995871 -0.044528104
0.109164834 -0.067686975 0.054488074 -0.07775063 -0.053104695 -0.04477498 -0.004022475 -0.033872496
-0.070315324 0.014548734 0.09417023 -0.011464336 0.031806577 -0.07243943 0.07852206 0.042241313
0.037637066 -0.015615308 -0.02468007 0.028139492 0.11805175 0.03891495 0.05749929 0.098116964
-0.02267002 -0.031720426 -0.053874426 0.022367788 -0.008152701 0.088876575 0.048757836 -0.050649755
-0.07422149 0.10407558 -0.014411567 -0.08004571 -0.042666323 0.097336575 0.03892395 -0.03579913
0.059201933 0.094370544 -0.003692796 -0.0030612252 -0.056481138 -0.016000729 0.06693839 0.011410283
0.08965869 -0.018627554 0.06670242 0.10817486 0.064837694 -0.03510771 -0.049754456 -0.04050601
00000000: fd6c 6f3d c001 5c3d e788 0dbe 6f0c 7e3b
00000010: 87b5 d63c 47e4 07bd dd69 f2bd 404e 333c
00000020: 41e2 b03c d113 d73a bfa6 20bd a420 d1bd
00000030: 90a7 c7bc 80b3 7d39 6f28 b4bd 3805 1bbd
00000040: 1698 c9bc c067 dbbd 2456 f8bd 878b 6ebd
00000050: c108 d6bd c732 e9bd 6aa7 61bd ae63 21bd
00000060: 12cc a6bc b484 553d b6e4 38bd 9398 fabb
00000070: dfb5 3cbd 3a4e debd 2fa6 b93c 0aa0 e4bd
00000080: 7048 08be df2a 3cbd acaa ddbd 7b78 92bd
00000090: a99f 18bd c02b e3bd a00b e5bd 4a05 c0bd
000000a0: da6b 013d 4bdf 52bd 1ffe 99bd 0a04 49bd
000000b0: 2dac c03c efe3 92bc 47e7 bcbd 3ff8 b63c
000000c0: 029c fbbd 9968 c6bc 288c 84bd 7ec2 a1bd
000000d0: 18ad c33c 028d 103d 5a22 bfbd ad90 4f3d
000000e0: 060f f43c 4ae6 dcbd fa32 2d3d ae50 aebc
000000f0: 8956 4f3d 2e9e 58bd 1208 a9bd 581a debc
00000100: 4603 3d3d 9e19 a1bd 2c0d 4d3d 6772 0cbe
00000110: e710 033d 2655 803c a251 b4bd 1c59 f83a
00000120: 4e7e 0bbc e466 f6bd fe52 363d 9c0d 863c
00000130: 1c4f e0bc 82e6 a8bd a463 00be db07 3dbb
00000140: 9f53 8f3c b287 2c3d 6ef1 353d 729f 7c3c
00000150: 5eba 12bd 8e9e 24bc 7fa5 a6bd a7f1 62bd
00000160: 75cb 263c bbaf ccbc fed2 843c f988 81bc
00000170: 2f68 c8bc 4e51 283d 6457 c83c 3c9f 533d
00000180: ed59 fbbd d252 06be 30ce 193c 6753 d33c
00000190: 6f55 433d f5ab 3ebd 0cec bbbc 7b06 e2bb
000001a0: 29d1 babc cad7 843d a939 d43a d568 283d
000001b0: 2d43 e93d d64a f1bc 29ac 423d 49a9 913c
000001c0: 3491 41bd 3bbf 623c 82ef 013e 8b4c d33d
000001d0: 63a8 f03d f99d 083e b240 7f3d 007b 0b3d
000001e0: ffd2 8c3d 7f9a f13d 0eb9 033e 216a 623d
000001f0: fe8e e5bb 9007 013d 6dde 8ebc 39ac 8c3d
00000200: a9e4 673c 672b 553a bb9e 633c 2b05 0c3b
00000210: 1758 d13d 8260 8dbc 51dd 093d c554 5e3d
00000220: 195e fc3d da6c 043e 2184 e73d c9a0 6f3d
00000230: a022 563d 1cae f03c a648 063e c157 b33d
00000240: 323a f43c 09af 3fbd 7512 a63d aecd 963d
00000250: 4281 043e 75d0 43bd 1f16 083d 0f33 503d
00000260: 65f3 b53d 904b be3a ed5d b4bc da01 813d
00000270: fef3 11bd 79ad dd3d 2bab 163e 29c9 573d
00000280: aef9 143e bab4 e23c 8947 fb3d 9dc2 de3d
00000290: ab24 583d 5a1b fa3c 93d4 b63d c729 e1bc
000002a0: 0820 fdbc 0b1c 333d f2fd b4bb 917e 913d
000002b0: c0e2 e13c 524c 953c 3ec9 ef3c 450e d93d
000002c0: d303 5cbc b888 49bd 3d1a a039 9fc7 043e
000002d0: ad60 dc3d 51f1 dd3d 7a8c 3abd cc00 093d
000002e0: 3baa 393d 8f28 bc3b 29bc 2a3c 2b98 363d
000002f0: e871 0f3e cfb7 b83d 9930 ad3d 35dc 27bc
00000300: cdc9 1e3c e0e7 c0bc f1ae 9e3d 62a1 0d3d
00000310: efad dcbc 162f 67bc 81a1 4c3d 1a63 36bd
00000320: d091 df3d 789f 8abd e32e 5f3d b93b 9fbd
00000330: 4f84 59bd f865 37bd f7ce 83bb e3bd 0abd
00000340: 7b01 90bd d05d 6e3c 52dc c03d e9d4 3bbc
00000350: 9d47 023d 205b 94bd 2cd0 a03d 3a05 2d3d
00000360: 5329 1a3d 59d7 7fbc dc2d cabc cb84 e63c
00000370: 1ec5 f13d 4865 1f3d 6084 6b3d 8cf1 c83d
00000380: 7ab6 b9bc 47ed 01bd 6eab 5cbd a73c b73c
00000390: e892 05bc ec04 b63d 4cb6 473d 1e76 4fbd
000003a0: 7001 98bd 9425 d53d 7e1e 6cbc 01ef a3bd
000003b0: e2c2 2ebd 6658 c73d b86e 1f3d 1ca2 12bd
000003c0: ba7d 723d 5845 c13d d602 72bb d69e 48bb
000003d0: c458 67bd f613 83bc ff16 893d 32f2 3a3c
000003e0: fa9e b73d d098 98bc 479b 883d c88a dd3d
000003f0: a0c9 843d 1acd 0fbd 54cb 4bbd a1e9 25bd

output.weight f4 [1, 10]
-0.39540392 0.51075774 0.17682125 0.2693325 -0.022541605 -0.11358276 0.112288296 -0.26275942
-0.36629227 -0.64535004
00000000: 6272 cabe 05c1 023f a110 353e f3e5 893e
00000010: 2ca9 b8bc 149e e8bd 68f7 e53d 6788 86be
00000020: a98a bbbe a935 25bf
