models/model.pt (torch, 1490 bytes, 1 tensors)

layer.weight f4 [1, 50]
1.0067456 -0.014707783 0.11376067 0.17505509 0.06886252 0.15579604 0.08873674 0.17127092
0.030473672 -0.05888952 0.063858226 0.21826378 -0.15081884 0.011133584 0.051901903 0.13158204
0.047119286 0.07975902 -0.05141778 -0.07842634 -0.106469676 0.04174587 0.022604415 0.08154303
0.009153537 -0.113410324 -0.02433017 0.12575041 0.1833213 0.068975374 -0.046219375 -0.07167902
0.054180693 0.0056513855 0.043007404 0.009042042 0.056579474 -0.13737911 6.279453e-05 0.09918923
-0.019758001 0.07182419 0.13875058 -0.14133042 0.00023241767 -0.07213537 0.012162282 -0.08521893
0.007983614 0.08010796
00000000: 0add 803f eaf8 70bc 5bfb e83d a441 333e
00000010: cb07 8d3d ff88 1f3e 9cbb b53d a561 2f3e
00000020: eca3 f93c 2336 71bd 1ac8 823d 8a80 5f3e
00000030: 4170 1abe a369 363c 1797 543d 71bd 063e
00000040: 2700 413d b258 a33d 739b 52bd fd9d a0bd
00000050: c60c dabd b8fd 2a3d e52c b93c 0800 a73d
00000060: b8f8 153c ac43 e8bd 1150 c7bc b7c4 003e
00000070: 94b8 3b3e f642 8d3d 8750 3dbd 73cc 92bd
00000080: 93ec 5d3d 422f b93b 8828 303d 1325 143c
00000090: e1bf 673d 1cad 0cbe 8eb0 8338 b923 cb3d
000000a0: 88db a1bc 9018 933d a214 0e3e ecb8 10be
000000b0: 25b5 7339 b5bb 93bd 4f44 473c 4387 aebd
000000c0: b4cd 023c a40f a43d
