models/model.pt (torch, 2066 bytes, 1 tensors)

layer.weight f4 [1, 200]
0	0x3f75e2da	0.96049273
1	0x3f614e5c	0.8801019
2	0x3f57a634	0.8423798
3	0x3f25666c	0.6460941
4	0x3f001960	0.5003872
5	0x3eea9fb0	0.45824957
6	0x3eabb234	0.33534396
7	0x3ecff2df	0.40614983
8	0x3e8a0951	0.26960233
9	0x3e8b7ef4	0.27245295
10	0x3ea9018c	0.33008993
11	0x3ebd1a71	0.36934236
12	0x3e77e977	0.24210154
13	0x3e25e3ed	0.16200228
14	0x3e1cef1b	0.15325586
15	0x3e8b6cbd	0.27231398
16	0x3e84f0f3	0.2596508
17	0x3e50bec4	0.20385271
18	0x3e1f3aa4	0.15549713
19	0x3e06c0e5	0.13159521
20	0x3e6d7b0a	0.23191467
21	0x3e05767b	0.13033478
22	0x3e00b307	0.12568294
23	0x3e49790f	0.19675086
24	0x3dd289b4	0.10280171
25	0x3e212c23	0.15739493
26	0x3e37b952	0.17941788
27	0x3daeaf34	0.08529511
28	0x3d339e99	0.043852422
29	0x3e201265	0.15632017
30	0x3e555a2d	0.2083518
31	0x3e449d03	0.1920052
32	0x3e04ccd0	0.12968755
33	0x3dedf611	0.11619199
34	0x3dad2c97	0.084557705
35	0x3dbef7ea	0.093246296
36	0x3d6d60d1	0.05795366
37	0x3d395e1b	0.04525576
38	0x3dca0a8e	0.098652944
39	0x3d10efe4	0.035385028
40	0x3dda9eb5	0.10674802
41	0x3cb97c45	0.022642264
42	0x3d881cb2	0.06646098
43	0x3db2c0c1	0.08728171
44	0x3de3ef96	0.11129682
45	0x3a55bdd4	0.0008153592
46	0x3c9e82e2	0.01934952
47	0x3dec3c7c	0.11534974
48	0x3d39bf20	0.045348287
49	0x3dc10ab2	0.09425868
50	0x3d22c236	0.039735995
51	0x3d52cdb8	0.05146572
52	0x3dc23ac5	0.09483866
53	0x3d58cb60	0.05292833
54	0xbc8dbf6e	-0.017303195
55	0x3dec7927	0.115465455
56	0x3dbd2501	0.092355736
57	0x3d5674b8	0.052357405
58	0x3e0760cb	0.13220517
59	0x3da40872	0.08009423
60	0x3d0c1fd7	0.034210052
61	0x3dc8a790	0.09797585
62	0x3c4b4ef0	0.012408957
63	0x3dc46335	0.09589235
64	0x3e11d10c	0.14239901
65	0x3dfcc0df	0.12341475
66	0x3e0244e4	0.12721592
67	0x3db4eae7	0.088338666
68	0x3d38c6ad	0.045111347
69	0x3c322e66	0.01087532
70	0x3dfaa5eb	0.122386776
71	0x3d06d0ad	0.032913852
72	0x3dda1f9f	0.106505625
73	0x3dc05d44	0.09392789
74	0x3d9248c0	0.07142782
75	0xbbda5c08	-0.006663803
76	0x3d064efb	0.032790165
77	0x3d62bedb	0.055357795
78	0x3d2527f0	0.04032129
79	0x3da3c824	0.07997158
80	0x3d84f14e	0.06491338
81	0x3d1ec791	0.03876454
82	0x3d3181ee	0.0433368
83	0x3d04ed10	0.032452643
84	0x3deaf6a7	0.114728265
85	0x3cc88bfb	0.02448081
86	0x3dcc57f6	0.09977715
87	0x3d4f2762	0.050574668
88	0x3df7bd11	0.120966084
89	0x3dcf8414	0.10132614
90	0x3d61da89	0.055140052
91	0x3d8fc566	0.07020073
92	0x3dcdb660	0.10044551
93	0x3d7e55f3	0.062093686
94	0xbc860439	-0.016359435
95	0x3d3a4d87	0.045484092
96	0x3d3663fd	0.04452895
97	0x3d2f2295	0.04275759
98	0x3d8bdbab	0.06829008
99	0x3bff8d95	0.0077988603
100	0x3daaa116	0.08331506
101	0x3d0477df	0.03234088
102	0xbd09c897	-0.033638563
103	0xbd73f64e	-0.059561066
104	0x3c421277	0.011845223
105	0xbc27fec0	-0.010253608
106	0x3d0bbbfb	0.03411482
107	0x3db14a36	0.08656733
108	0x3cde152b	0.027109703
109	0x3c187d67	0.009307242
110	0x3cb5ba66	0.022183608
111	0x3de3f382	0.1113043
112	0x3bfca3c1	0.0077099507
113	0x3d975631	0.073894866
114	0x3d805f67	0.062681966
115	0xbcea1cd3	-0.028578198
116	0x3d160b0c	0.03663163
117	0xbb02f724	-0.0019983733
118	0x3cea76a9	0.028621035
119	0x3d8e8b65	0.06960181
120	0xb81976db	-3.6588735e-05
121	0x3db39bb1	0.0876993
122	0x3d280b40	0.041026354
123	0xbc6f4c0a	-0.0146055315
124	0x3d09f78c	0.033683345
125	0x3d32a232	0.043611713
126	0x3c712c67	0.014720059
127	0xbd2b56a4	-0.041830674
128	0xbb815138	-0.0039464496
129	0x3d406652	0.04697258
130	0x3d2690b9	0.040665362
131	0x3da5e2c2	0.08099891
132	0x3c66ab9f	0.014079004
133	0x3d1823ff	0.037143704
134	0x3b0a5605	0.00211084
135	0x3c673006	0.014110571
136	0x3d87fceb	0.06640037
137	0x3da5fa02	0.08104326
138	0x3d5f32d0	0.054491818
139	0x3daa3686	0.08311181
140	0x3d92ada1	0.07162023
141	0x3da2451d	0.079233386
142	0x3d4fea7f	0.050760742
143	0x3db1f16d	0.086886264
144	0xbd12a7d4	-0.035804585
145	0x3c2c1002	0.010501863
146	0x3d7f7d2d	0.062375236
147	0x3d8f506f	0.06997763
148	0x3d4bf425	0.04979338
149	0xbc202207	-0.009773738
150	0xbc912503	-0.017717844
151	0x3d97815c	0.0739772
152	0x3da2c193	0.079470776
153	0x3d8dc01c	0.069214076
154	0xbc920249	-0.017823355
155	0xbd6cdc39	-0.05782721
156	0x3d82a59e	0.06379245
157	0x3b6005f1	0.003418323
158	0x3c8e08b0	0.017338127
159	0x3d8e4f14	0.06948677
160	0x3bbe1bb5	0.005801643
161	0x3d947ddd	0.07250569
162	0x3da3121b	0.07962438
163	0x3dc3e151	0.0956446
164	0x3c700bde	0.014651267
165	0x3d17d3d3	0.037067246
166	0xbd153bdf	-0.03643405
167	0x3dcebec7	0.10094982
168	0xbd81aae3	-0.06331422
169	0x3bcb8130	0.0062104687
170	0x3dda9b40	0.10674143
171	0x3dd566d6	0.10420005
172	0x3da3bad0	0.07994616
173	0x3d78e6ab	0.060766857
174	0x3db9fc7d	0.090813614
175	0xbc1bfa40	-0.0095201135
176	0x3da50628	0.08057815
177	0x3c8dc8d7	0.017307682
178	0x3d0f033f	0.034915205
179	0x3d26938a	0.040668048
180	0x3da04926	0.07826452
181	0xbced59c4	-0.028973468
182	0xbccbe534	-0.024889566
183	0xbbaca004	-0.005268099
184	0xbb41a245	-0.0029546183
185	0x3d109431	0.035297576
186	0x3c9b012c	0.018921457
187	0xbd155312	-0.036456175
188	0xbc1d28e3	-0.009592268
189	0xbc770fd0	-0.015079454
190	0x3bafc71a	0.005364311
191	0xbcb3dd75	-0.021956185
192	0xbd24c288	-0.040224582
193	0xbd2814a9	-0.041035328
194	0x3bcd179a	0.006258917
195	0x3cb2e22f	0.021836368
196	0x3dba0333	0.090826415
197	0xbbd4f053	-0.0064983754
198	0x3d93d756	0.072188064
199	0x3d4724cb	0.048619073
