models/model.pt (torch, 2066 bytes, 1 tensors)

layer.weight f4 [1, 200]
000000 70 d9 81 3f 8c a3 55 bc b8 ad 3c 3b 18 4f 8a bd
       1.0144482 -0.013039481 0.0028790068 -0.06753367
000010 0b 48 67 3c a1 c1 5d bb e6 b0 cb 3c aa 53 a5 bc
       0.0141162975 -0.0033837336 0.024864625 -0.020181496
000020 bc 4d 32 bc ef f2 5d 3d e0 85 65 bd d7 75 4e 3d
       -0.010882791 0.054186758 -0.056035876 0.05040535
000030 b1 18 6f 3d 90 4c 71 bc b5 a6 28 bc 55 f7 ef bc
       0.058373157 -0.014727727 -0.010293652 -0.029292742
000040 30 d3 7f 3c 2d 0a 05 bd 41 e8 4f bc 27 f3 6a 3b
       0.015614316 -0.032480408 -0.012689651 0.0035850496
000050 da 7a 9a 3d da 98 05 bd 2e 4b c4 bd ff 26 c5 bd
       0.07542963 -0.032616474 -0.09584652 -0.096265785
000060 e4 a4 08 3c 1b 7d 90 3c 24 f6 0c bd 67 8c b3 bd
       0.008340094 0.01763778 -0.034414425 -0.08767014
000070 1e 0e 89 bd bd 54 a7 3d 45 50 a9 bc 58 67 3e 3c
       -0.06692146 0.081704594 -0.020668158 0.011621319
000080 6f 19 23 bd 44 b7 86 3d 95 11 d2 bd d7 37 a7 3a
       -0.039819177 0.06577924 -0.1025726 0.001275773
000090 19 69 7d 3d 38 ea 0b 3d a4 d0 94 bc a9 7e fc bd
       0.061867807 0.034158915 -0.018165894 -0.12328846
0000a0 81 02 8d bd ac 19 5a bc 70 1e 32 be 2b 8b 8e bc
       -0.06885243 -0.013311785 -0.17394423 -0.017400345
0000b0 19 c1 3c bd 7b 9a e3 3d 41 0d b6 3d 9d 4b 9f b9
       -0.04608259 0.11113449 0.08889247 -0.0003038318
0000c0 18 2e f1 3d 78 96 7d bd ba f9 3c 3e 04 94 ba 3d
       0.1177637 -0.061911076 0.18454638 0.09110263
0000d0 9b 52 2e bd f0 2f f1 3d f8 1e 60 bd ef 1e d9 bc
       -0.042559247 0.117767215 -0.054717034 -0.026504008
0000e0 41 6b 66 3d b2 00 29 3d 59 64 e2 bc fd 79 b4 3d
       0.05625463 0.04126043 -0.02763574 0.0881233
0000f0 74 b9 43 bd 8d be 8b bd 03 5c 08 3e d3 4f 4e bd
       -0.047784284 -0.06823454 0.1331635 -0.050369095
000100 db 47 3c bd 3a 81 27 be 04 57 47 3e 57 1a 73 bd
       -0.045966964 -0.1635789 0.19466788 -0.05935129
000110 af 08 fb 3b 84 cd 14 bd b4 1d 4a 3d 6f 21 12 be
       0.0076609473 -0.036328807 0.049344733 -0.14270566
000120 90 9f 16 3e 93 8e 24 bd 92 24 30 bd 41 62 e0 3d
       0.14709306 -0.040175032 -0.043003626 0.109562404
000130 db 16 7f 3d a2 11 af bc da e2 8a 3d 57 e1 13 be
       0.062277656 -0.021370713 0.0678155 -0.14441429
000140 5f d5 14 bd 37 11 8c bb cb d7 ad bd 41 a4 49 3d
       -0.0363363 -0.004274513 -0.08488425 0.04922891
000150 d7 6d 88 bc 4e 49 a0 bd b7 fb 44 3e 92 0d 7d 3d
       -0.016653938 -0.07826482 0.19236647 0.06178052
000160 4d 04 1e be bd 03 8e 3d 37 5e 3f bd f7 b7 7e 3d
       -0.15431328 0.06934307 -0.04672071 0.06218716
000170 17 e5 1a 3e c3 d4 9d bc 4e 5f 52 3e 7a 58 be 3d
       0.15126453 -0.019266492 0.20544168 0.09294219
000180 29 c8 6e 3a 2f f4 96 3d df d5 29 3d af 41 af bc
       0.00091088057 0.07370793 0.04146373 -0.021393625
000190 62 2d be bd c1 80 a5 bc d5 70 16 3e b5 e0 c6 bd
       -0.09286 -0.020202996 0.1469148 -0.09710828
0001a0 da f7 a7 bd 48 aa 3c bd 79 07 1c 3e ba 3e 2d bd
       -0.08201571 -0.04606083 0.15237226 -0.04229615
0001b0 04 0a a4 3d 29 19 2a 3e 94 dd 57 3e 76 b0 3a 3d
       0.08009723 0.1661116 0.21080619 0.045578443
0001c0 18 1d 6e 3d 9e 11 fa 3d 41 1d 09 3e fc 99 a9 bd
       0.058133215 0.122103915 0.13390066 -0.08281323
0001d0 a5 d7 0b 3e ed 9e b7 bc f5 19 80 be 64 67 44 3e
       0.1365648 -0.022414649 -0.25019804 0.19180065
0001e0 f1 bd 30 3e b0 ea b6 3d 6d 73 1c 3e d1 37 4c 3d
       0.17259957 0.08931482 0.15278406 0.04985792
0001f0 00 c5 d4 bd 48 4c 9c 3e 80 e5 df bd 17 a7 0d be
       -0.10389137 0.30526948 -0.109324455 -0.13833271
000200 ee c5 2e 3c 15 a6 db be 14 31 15 be 72 dc 3d bc
       0.010667307 -0.42900148 -0.14569503 -0.011588203
000210 69 62 e2 bb 22 7d 17 bd cd f7 24 3e 5b 94 4c be
       -0.006908704 -0.03698457 0.16110153 -0.19978468
000220 c7 0e 04 be c0 5c ff bd 40 62 ad bd 19 79 e5 3c
       -0.12896262 -0.124688625 -0.08466005 0.028011845
000230 a9 39 91 3d a4 04 58 3d dd a9 28 3d da 9f cf bd
       0.07091076 0.0527388 0.04117762 -0.10137911
000240 6b a6 a5 bb 8d 7c 45 3c f8 4f 9e bd 6b af 4d 3e
       -0.005055239 0.012053621 -0.077300966 0.20086448
000250 03 20 5b 3d 59 57 99 3d 85 40 85 bd ae 6a 6e 3c
       0.053497326 0.07487363 -0.06506447 0.014551802
000260 39 43 49 bd a7 cc 55 3c 40 d6 2b bd ad ba 6e bd
       -0.049136374 0.013049281 -0.04195237 -0.058283497
000270 eb ec 80 3e 33 45 8e bd 8e 98 c1 3d 38 f3 c8 b9
       0.25180754 -0.069467925 0.094529256 -0.00038328185
000280 29 61 a9 3d 6c e8 ea bd 44 e9 06 3e 36 a2 27 3c
       0.08270485 -0.11470112 0.13174921 0.010231545
000290 1c 02 67 3d ba 10 a4 bd 94 c3 69 3d 98 c9 db bd
       0.056398496 -0.08011003 0.057071283 -0.1073181
0002a0 96 b5 59 3d ba c9 6c bd 9c fb fd 3c 98 dc 72 bd
       0.05315169 -0.05780957 0.031003766 -0.059292406
0002b0 0e 5b cd bd 01 08 53 3d ed e9 41 bc f6 dc f7 bd
       -0.10027133 0.051521305 -0.011835557 -0.12102692
0002c0 68 2c 32 be a5 8f c4 3d b2 7d 6e bd f3 5d 51 3c
       -0.17399752 0.095977105 -0.05822534 0.012778747
0002d0 e3 01 6f bd d0 21 c3 bd 3b 19 81 3d 44 3e 6e 3e
       -0.05835141 -0.095279336 0.063036405 0.2326594
0002e0 d1 30 43 3b 0d 61 ad bd 13 fa 69 3d c6 01 0e bc
       0.0029783736 -0.084657766 0.057123255 -0.008667415
0002f0 81 a4 ce bd 35 16 84 bc d5 a0 04 3d b0 cd df bd
       -0.100899704 -0.01612387 0.032379944 -0.10927904
000300 56 3f 2a 3e 19 67 ba 3d e2 0b d8 bd 0c f8 b9 bc
       0.16625723 0.091016956 -0.105491415 -0.022701286
000310 a8 c9 3e 3d a7 d9 2c bc 71 27 65 be dc dd 12 3e
       0.046579033 -0.010549939 -0.22378327 0.14342445
