models/no_noise_Sam.pt (torch, 2166 bytes, 2 tensors)

input.weight f4 [5, 20]
000000 2b 1d 42 bf c3 40 9f 3f ba 76 24 bf 74 c7 db bc
       -0.75825757 1.2441639 -0.6424366 -0.026828505
000010 c1 0f 6e bf 80 55 c4 3e 76 88 7c 3f df ef b1 3d
       -0.9299279 0.3834648 0.9864572 0.0868833
000020 c8 e6 83 3f 75 a1 90 3e f7 d9 bb 3e 39 38 12 3f
       1.0304804 0.28248182 0.3668973 0.5711704
000030 29 74 51 bf 17 cd fe bf fd 50 b0 bf bb e7 a2 3f
       -0.8181787 -1.9906338 -1.3774716 1.2726969
000040 d2 1e d1 bf af 93 3c be 38 2c 34 3f bf ab ce bf
       -1.6337531 -0.18415712 0.7037997 -1.6146163
000050 ab c5 a8 3f 7f 49 a2 3f 2a 2e 11 bf c8 f0 1c bf
       1.3185323 1.2678679 -0.56711066 -0.61304903
000060 d7 c0 a4 3f eb 46 cb be 10 8c 4b 3f 12 cd 39 3f
       1.287135 -0.39702544 0.79510593 0.7257854
000070 8e 5c 6d be 97 1e 60 3f 09 23 9c be d4 c2 bf be
       -0.23179838 0.87546676 -0.3049548 -0.3745333
000080 51 5d 8c 3f eb b6 17 bd 0b a5 a7 3e a3 f7 ff bd
       1.0965978 -0.03703968 0.32743105 -0.12498405
000090 91 e6 87 bf 96 2e 12 3f 7d 02 33 bf f0 f1 e9 3e
       -1.0617238 0.57102334 -0.6992567 0.45692396
0000a0 9e c9 aa 3f 2d 45 86 bf 57 53 83 3f 51 8a 38 3f
       1.3342779 -1.0489861 1.0259808 0.72086054
0000b0 61 e0 8a bf 75 57 a4 3f b3 83 e2 be e4 41 a5 3f
       -1.0849725 1.283919 -0.44241104 1.2910733
0000c0 03 e2 75 bf ed c0 dd bf d8 9e b9 bf 62 c4 66 3f
       -0.9604799 -1.7324501 -1.45016 0.90143406
0000d0 58 92 dc bf f7 07 38 3f e6 28 df bf b8 ca ce bf
       -1.723216 0.71887153 -1.7434356 -1.6155615
0000e0 63 0e b5 3e 9c 42 ac be 40 26 1a 3f 19 01 16 3d
       0.3536254 -0.3364457 0.60214615 0.03662214
0000f0 f8 d1 75 3e 76 c0 12 3e 54 3b c4 3f 55 29 25 3e
       0.24005878 0.1433123 1.5330606 0.16129048
000100 d9 93 d5 3e cc da d7 3f bc 71 95 3f 4b bc 24 3f
       0.4171436 1.6863647 1.1675334 0.6434981
000110 a0 f6 96 bf bf 4c ac bf 83 5d 27 3f 65 72 aa 3e
       -1.1794014 -1.3460921 0.6537706 0.332904
000120 d4 57 ac 3f 93 6b 87 3e 5c 4a 0a bf 7d e5 de be
       1.3464303 0.2644926 -0.54019713 -0.4353446
000130 4b 7c 22 3f b4 23 4b bf b5 62 a7 3f 7d f5 c4 3f
       0.63470906 -0.79351354 1.3076998 1.5387417
000140 44 99 09 be 7a 39 66 3f 95 9d 23 3f 19 2a b3 3f
       -0.13437372 0.8993145 0.63912326 1.3997222
000150 8c 47 c4 bf a5 15 0c bf d6 25 d3 3d f7 4c b6 3f
       -1.5334334 -0.54720527 0.10309951 1.4242238
000160 69 c9 83 3e 35 5e 7f bf 50 82 85 bf e0 be b7 3f
       0.257396 -0.99753124 -1.0430393 1.4355125
000170 7d ce a8 3f 7d 25 2c 3f e8 07 02 bf 9f a6 1c bf
       1.3188015 0.672447 -0.50793314 -0.61191744
000180 fa b9 7a bf b5 c2 96 bf 31 7a ba 3f c7 74 03 bf
       -0.9794003 -1.177817 1.456854 -0.51350063

output.weight f4 [10, 5]
000000 78 fd 20 3f f1 77 88 bf ba 08 ce bf 47 9d 80 3f
       0.6288676 -1.0661603 -1.6096413 1.0047997
000010 06 2a 3a 3f c5 51 ab be 3f 5e 9d 3f fe f2 99 bf
       0.7272037 -0.33460823 1.2294387 -1.202728
000020 f9 20 93 be d5 17 06 3f 48 fa 87 3e 1a b1 98 3f
       -0.28736094 0.52380115 0.26558137 1.1929047
000030 d2 8a 84 3f eb 1d 8e 3f 3a 81 e7 3e 92 4a 40 bf
       1.0354865 1.110288 0.4521578 -0.75113785
000040 75 93 31 3f 98 2c b4 bf 22 0b 4f be 7f db 27 3f
       0.69365627 -1.4076109 -0.2021909 0.655693
000050 d4 e4 ae 3e 7f 10 74 bf ac 6a 05 bf be a0 cd 3f
       0.34158957 -0.9533767 -0.52115893 1.606468
000060 59 8b 8c 3e c2 bc 0c be 58 c2 a3 be b7 89 cb be
       0.27450064 -0.1374388 -0.3198421 -0.39753506
000070 d9 4a 7c 3f 59 b0 69 3f 59 3a ee be 34 70 d8 3f
       0.9855171 0.9128471 -0.4652889 1.6909242
000080 06 5a 6c 3e 86 77 9e bd d9 dc 83 3f a9 0f ef be
       0.23081216 -0.07737641 1.0301772 -0.46691635
000090 ba 6b f8 3f a7 ed 5e 3f cf e9 05 3f 05 8d 3b bf
       1.9407876 0.8708138 0.5230989 -0.73262054
0000a0 fd 4e 46 3e 72 68 13 bf 63 92 0c bf ed d8 c6 3f
       0.19366069 -0.57581246 -0.5491087 1.553495
0000b0 46 7e 0b bf 04 c5 e9 be 58 c8 0f 3f 89 b3 9c bf
       -0.5448955 -0.45658123 0.56165075 -1.224229
0000c0 34 2a 6c bd 88 a5 ae 3f
       -0.057657436 1.3644266
