models/no_noise_Sam.pt (torch, 2359 bytes, 3 tensors)

input.weight f4 [5, 20]
1.1521673 1.6867857 1.1998909 -1.2987005 -0.073579185 -0.60524696 0.9779015 1.5943438
0.45887128 -1.8245509 1.6509764 1.716174 1.4670827 -0.54814863 -0.74350506 -0.8440658
-0.2764313 -1.2373183 0.9682412 0.18524636 -0.0240783 1.343743 0.9212793 -0.11239259
-0.5940289 -0.081083976 -0.035276316 -1.197317 0.39993635 -0.37350556 -1.4933028 -0.4387742
-1.6410587 -0.6140344 2.036365 0.1017357 0.38071764 1.1905051 0.47059858 -0.3096129
1.1211091 -1.6191211 -0.7898284 1.8596642 -0.18361528 -0.041580327 -1.0689471 -1.008762
1.2273289 1.3595376 -0.8421031 -0.29679233 1.5558265 1.5200689 -0.72786236 -0.11773246
-0.3062514 -1.7695363 -0.9873473 0.32959446 -0.43120572 -1.6318563 -1.7211113 -1.1139845
-0.16136715 0.46253192 0.3843202 0.5783892 -1.2679605 0.19000424 0.70946205 0.02389313
-0.653186 -0.25357136 -1.6914498 -1.7565861 -1.8837211 -1.6990104 -0.81091577 -0.67339593
-0.5041621 -1.9827192 -0.72060853 -0.7379919 0.91828436 -0.43321607 -1.2983947 -0.62409884
0.7748102 0.9257374 -0.44649562 0.9536327 1.5297223 0.60536444 0.717981 1.6302102
0.37014848 -1.4850762 -0.6262505 0.07906075
00000000: 387a 933f 98e8 d73f 0696 993f d13b a6bf
00000010: afb0 96bd 77f1 1abf c157 7a3f 7513 cc3f
00000020: 2df1 ea3e e28a e9bf 3253 d33f 97ab db3f
00000030: 5ec9 bb3f 7853 0cbf 5956 3ebf b214 58bf
00000040: 6788 8dbe 7260 9ebf a8de 773f 39b1 3d3e
00000050: db3f c5bc c5ff ab3f f6d8 6b3f 162e e6bd
00000060: 4712 18bf 5b0f a6bd e67d 10bd af41 99bf
00000070: 75c4 cc3e 1f3c bfbe 8c24 bfbf 03a7 e0be
00000080: 360e d2bf 5c31 1dbf ce53 0240 cf5a d03d
00000090: 6ced c23e 7962 983f 4cf2 f03e 9585 9ebe
000000a0: 8180 8f3f 5c3f cfbf 3232 4abf 7a09 ee3f
000000b0: a505 3cbe 2250 2abd 42d3 88bf 1d1f 81bf
000000c0: 1d19 9d3f 5405 ae3f 1294 57bf 2af5 97be
000000d0: 5325 c73f 9e91 c23f 3055 3abf b71d f1bd
000000e0: fccc 9cbe 2a80 e2bf cbc2 7cbf 9bc0 a83e
000000f0: ffc6 dcbe abe0 d0bf 604d dcbf 0b97 8ebf
00000100: 6e3d 25be fcd0 ec3e 9ec5 c43e 5111 143f
00000110: 884c a2bf 7990 423e 4e9f 353f 86bb c33c
00000120: 3337 27bf 1bd4 81be 6d81 d8bf d0d7 e0bf
00000130: c61d f1bf 2c79 d9bf 2d98 4fbf ad63 2cbf
00000140: c410 01bf bec9 fdbf cd79 38bf 0aed 3cbf
00000150: af14 6b3f 7fce ddbe cc31 a6bf f1c4 1fbf
00000160: f659 463f 20fd 6c3f 139b e4be 4621 743f
00000170: f1cd c33f 2af9 1a3f 9acd 373f baaa d03f
00000180: 1a84 bd3e fa16 bebf f451 20bf 9aea a13d

0.weight f4 [5, 5]
0.20561305 -0.71312386 -1.1434977 0.3678119 0.23555875 0.8003649 -0.20486917 -0.7604948
-0.23001826 0.24239883 -1.4121132 0.80675256 1.6479112 -1.1535118 0.069223784 0.48527643
-0.28151485 -0.75748163 1.6390413 -0.15059811 0.16894627 -0.32709792 0.3594689 0.13075437
-0.7853564
00000000: 3a8c 523e 498f 36bf 225e 92bf d751 bc3e
00000010: 5036 713e b7e4 4c3f 39c9 51be caaf 42bf
00000020: e889 6bbe 6637 783e 20c0 b4bf 5687 4e3f
00000030: c1ee d23f 46a6 93bf 33c5 8d3d 2776 f83e
00000040: b722 90be 51ea 41bf 1bcc d13f 6436 1abe
00000050: 4000 2d3e 6179 a7be 4f0c b83e 79e4 053e
00000060: 1e0d 49bf

output.weight f4 [4, 5]
-0.7969775 -0.76126754 -1.5139607 -1.1966543 -0.52356267 0.87069833 0.16001247 0.21586597
-0.59562206 1.4176749 1.2850841 -1.3664136 -0.8762338 -1.6413829 0.60304165 0.8903816
0.85000974 0.58448744 -0.1066621 0.7572391
00000000: b806 4cbf 6ee2 42bf 77c9 c1bf f82b 99bf
00000010: 3408 06bf 16e6 5e3f 4fda 233e f80b 5d3e
00000020: b07a 18bf 5f76 b53f a37d a43f a4e6 aebf
00000030: dc50 60bf d618 d2bf f060 1a3f 0cf0 633f
00000040: 3d9a 593f f8a0 153f a971 dabd 6cda 413f
