models/no_noise_Sam.pt (torch, 2487 bytes, 3 tensors)

input.weight f4 [5, 20]
000000 e2 94 8d bf ee ac d6 3f 2e 24 08 40 51 d6 87 bf
       -1.106106 1.6771524 2.1272082 -1.0612279
000010 66 12 91 bf f3 67 7a 3c 9a ee cf 3f 64 cc 0f bf
       -1.133374 0.0152835725 1.624469 -0.5617125
000020 57 dd ec 3f 61 58 bd bd 64 dd c8 3e e8 e3 47 3f
       1.8505048 -0.092453726 0.39231408 0.7808213
000030 06 37 6e bf 7f a1 7b 3f 15 ca a7 3f 3a 94 21 be
       -0.9305271 0.982933 1.3108546 -0.157792
000040 24 ce 87 3e bf dd 25 bf 87 7a aa 3f f5 ee 8d 3f
       0.2652446 -0.6479148 1.3318642 1.1088549
000050 b4 9b 11 40 24 5e 33 3e c4 bc c6 bf 84 79 be 3e
       2.2751284 0.1751638 -1.5526357 0.37202084
000060 d5 77 92 3d fc 09 bf 3f 5e 70 f4 be 6f 29 8c 3f
       0.071517624 1.4924922 -0.4774198 1.0950145
000070 90 3e 1d bf ce c3 11 bf b9 01 6b 3f 81 ae 3a 3f
       -0.6142359 -0.569394 0.91799504 0.7292252
000080 f4 ed a3 3f c6 97 ca 3e ed 14 29 3e b3 af 68 3f
       1.2806993 0.3956892 0.16511889 0.90893096
000090 57 4f 97 bf 56 f9 b9 3f 30 57 08 3e 6b 16 58 3f
       -1.1821088 1.4529216 0.1331451 0.8440921
0000a0 a8 97 70 3f ba 63 84 3f bf cc 7c 3e 20 40 db 3e
       0.9398141 1.0342934 0.2468748 0.4282236
0000b0 10 79 89 be 8a df a4 3f ad 4e ba bf 1d 44 85 bf
       -0.26850176 1.2880719 -1.455526 -1.0411412
0000c0 37 c1 51 3f f2 39 d2 bf c4 ec a4 3f 69 fa ec 3f
       0.8193545 -1.6423934 1.2884755 1.8513919
0000d0 1b 31 89 3e 8e d0 d3 3e ab 26 c3 bf ce 30 6a bf
       0.26795277 0.41370052 -1.5246176 -0.9148072
0000e0 f5 b8 a1 be 55 61 39 be a4 45 58 3f 94 b4 6b bf
       -0.31586424 -0.18103535 0.84481263 -0.92072415
0000f0 e9 a1 9d 3f aa b0 e8 be 6b b9 a7 bf cc fa 16 3f
       1.2315036 -0.45447284 -1.310346 0.58976436
000100 e7 78 c0 bf 33 60 77 3e 5a c7 43 be 72 02 ac bf
       -1.5036896 0.24157791 -0.19119015 -1.3438246
000110 dd 2b ee be 07 ea c1 be 5a f8 7a be 55 12 f9 3c
       -0.4651784 -0.3787386 -0.24508801 0.03040425
000120 6f 67 c0 bf 2c 8e 76 3e 01 9e 54 be 09 6c f4 bc
       -1.5031565 0.24077672 -0.20763399 -0.029836671
000130 dc 63 59 bf ea 1d 96 3f b7 3e 5c bf fa 94 22 bd
       -0.84918 1.1727879 -0.86033195 -0.039692856
000140 cf 19 b1 bf e9 6e 00 3f 3c ea 9a 3f fb eb a1 3f
       -1.3836001 0.50169235 1.2102733 1.265014
000150 6f 9a c4 3f 84 9e 13 3f 4d b4 a0 3f ec 9a 69 bf
       1.5359629 0.5766375 1.2555023 -0.9125202
000160 a0 e0 e7 3f 6e 6f e1 be 23 10 91 3f 7f 19 36 3f
       1.8115425 -0.44030327 1.133305 0.71132654
000170 7b 56 c5 bf e0 3b 8b bf 9b b3 9e bf 8c 34 7b bf
       -1.5417017 -1.0877647 -1.2398561 -0.98127055
000180 19 c9 9a 3f 51 41 35 bf 75 44 f5 3b e9 3f 96 3f
       1.209262 -0.7080279 0.0074849674 1.1738254

0.weight f4 [5, 5]
000000 0f 81 b3 3e 30 ac 70 bf 31 7e 8b bf 01 d0 94 bf
       0.350594 -0.9401274 -1.0897886 -1.1625978
000010 19 44 33 bf ca b5 7a be a0 cc 90 3f c7 b1 a9 3f
       -0.70025784 -0.2448341 1.1312447 1.3257378
000020 c7 05 bf 3f 42 a7 56 3f f8 af 55 3f 72 18 48 3f
       1.4923638 0.83848965 0.8347163 0.781623
000030 58 35 48 bf 29 7a 6d bf 0b 8e 96 3b 3e c3 f7 be
       -0.78206396 -0.92764527 0.0045945696 -0.48391145
000040 a9 73 89 be 96 cf 12 3f 32 85 0d 3f 5a 49 e0 3d
       -0.26846054 0.57348 0.55281365 0.10951491
000050 92 ec 49 3e ab 10 92 3f ef 4c 1c 3f 3a 3a 9a 3e
       0.1971915 1.1411337 0.6105489 0.30122548
000060 8e 59 c2 3e
       0.3795895

output.weight f4 [10, 5]
000000 b8 01 5f 3f 25 30 fe 3d b2 6a 6d 3f 4c 82 cd 3f
       0.87112 0.124115266 0.9274093 1.6055388
000010 7c ba 23 3f d7 4d 2b bf bb b1 4e bf 38 a3 51 bf
       0.6395643 -0.6691565 -0.80739945 -0.8188968
000020 b5 ab ee bf 9a 85 60 3f db 53 43 3f de 35 4d bd
       -1.8646151 0.8770386 0.7629983 -0.0501002
000030 95 f1 20 be 32 35 09 3e ad d5 b0 3f c6 72 f6 bf
       -0.15717156 0.13399199 1.3815209 -1.9253776
000040 11 53 82 bf 71 9d ad 3d 25 64 d0 bf 9c 4c e0 be
       -1.01816 0.08477295 -1.6280562 -0.43808448
000050 d4 4f d1 bf c8 af 9f bf 0e d8 bc be 65 2d b0 bf
       -1.6352487 -1.2475519 -0.36883587 -1.3763853
000060 9f ef 0a 3f cb 7b 38 3f 83 31 2e be e9 61 c4 3e
       0.5427188 0.72063893 -0.17011075 0.3835595
000070 87 64 98 3f 6d 6f aa 3f 51 fc 87 bf 45 d4 9d be
       1.1905679 1.3315254 -1.0623876 -0.3082601
000080 49 b4 90 3f ff ad 0e 3f f9 39 1f bf 1f 70 64 3a
       1.1305019 0.55734247 -0.62197834 0.0008714217
000090 42 f3 fe 3e 13 8f 8f 3d 89 c7 99 bf ba 41 91 be
       0.49794966 0.07009711 -1.2014018 -0.28370458
0000a0 7b a8 9f 3f 37 65 01 3f 18 36 d6 3e 26 32 39 3f
       1.2473291 0.50545067 0.41838145 0.72342145
0000b0 54 d1 5e 3f 38 5e 86 bf 3b 6d 2c bf 5f 26 37 3f
       0.8703816 -1.0497503 -0.6735417 0.71542925
0000c0 5b e2 3e bd ef d3 47 be
       -0.04660259 -0.1951444
